game/model/models/q_net_2000_50000_128_64_dueling_EPOCH_550.pkl (torch, 143380 bytes, 9 tensors)

feature.0.weight f4 [128, 8]
00000000: b1e8 683f 67f4 6abf 1927 a13e 3919 c4bb
00000010: e619 4ebe ae0b 22be 287f 61bd 3115 b43e
00000020: 8127 b53c 6967 a5bf 02c9 863e 35a5 25be
00000030: 2f46 fe3d b44b bfbc eb3a 403e e852 21be
00000040: 8590 b2be 6722 bebf 4125 473e 64a2 de3d
00000050: fcda c3bd 0910 b83e d1b8 8fbe a13e 41bd
00000060: 3bfb db3f 1695 37bf f1ea 883d 4c0e 203d
00000070: 8389 ebbd a19d 35be dea5 a0bd 1b48 0fbe
00000080: be94 ac3e 5960 e5bf 4866 bfbc 77aa 613e
00000090: 54b5 a73c 7426 04bf ca4e ba3e 30a3 ed3d
000000a0: 1440 9e3e ee5a 0f3d 8d5b 153f 257b bf3e
000000b0: 4d0c 0a3f 9927 093f 60b7 253d 3dd8 1a3f
000000c0: 5e04 bc3f d487 8e3f df42 d5be e027 d2be
000000d0: bf24 f2bb 5569 a43c 984f b2bf 0d53 c13e
000000e0: 7567 4abe 1dc8 283d 6453 18be ca7b 8ebe
000000f0: 20c0 963e 6f0e 5ebe 3e2c 4b3e 5ae7 f1bb
00000100: d5c9 a6bf c92a 1ebf ab03 073e 35c4 c13d
00000110: 6ff2 173e d1d9 1f3f 3ad2 b2be 9d79 c5be
00000120: dc28 b0be 7d0e 88bd b029 a63e 11cd 6fbe
00000130: 579e 1dba 3444 90be 9f53 f3bd bbb1 86bd
00000140: 279d de3e 9433 a3bf c27f 253f 3b29 893f
00000150: 35e4 723f 71ec 643f 4229 ac3f 8d68 2e3f
00000160: 54ab 26bf 98f6 a93e edd5 ba3e 7ad2 fcbc
00000170: 497e 53bc e6c2 92be c757 163f 5103 253f
00000180: f083 3a3f bd59 70bf f20c 483e 0d04 973d
00000190: 318e ca3d 1b2b 39bf 53cd 92be dcbc 123f
000001a0: 4738 bebd 2fb4 b3be cddf a83d 1af9 983e
000001b0: 4d1c 94bc 0e2e b2be 5fab 1abd b6b6 853e
000001c0: 41b9 413f c57c 3c3d 4587 9cbe d9d5 7dbd
000001d0: 53b0 56bd e48b 13bf 46da 33bf 43c6 bfbc
000001e0: 3060 503f 6f97 d33f 3b58 00bd 58d8 34be
000001f0: e7dd 3f3d d14b 503e 0181 4a3e 85ef 6ebf
00000200: 4853 b23f e1ac 383f bc2d 9cbe d041 9e3d
00000210: 988c cdbd ac1f 9c3e c78e 1bbe 6204 433e
00000220: 7158 10bf 6781 003f f56d 1b3e ee78 7c3e
00000230: 3241 db3d 81d9 263d 55d9 0d3f 60a2 e63e
00000240: 6915 f13f 4af1 dc3f 94eb 623c c0c5 eebd
00000250: c202 543e 87fd dbbe 4b0e 9f3e b624 78bd
00000260: 7704 863f ae7e 54bf 4633 59bd c8d5 e63e
00000270: 1d10 a2bc 9176 f73e 9e93 0e3f c12d de3d
00000280: 8c6a 6c3f b604 cb3e f461 843e d5ee d3bd
00000290: 0ef7 0abe f014 b0bc 7cd6 813d 8fc9 3a3e
000002a0: 8cdf 4e3f 11eb 8fbf ffa4 b93e 5050 723c
000002b0: dbbd ce3e a2d9 283e 4967 7d3e 3b07 d43e
000002c0: 495f 8abd 43da ac3e 1a35 983e 0008 69be
000002d0: cea4 383e 4060 9ebe a33f b3be 6021 44be
000002e0: a308 f3be 6465 363f 1ddb 173f 8f42 703d
000002f0: 3141 963e 5a0c 2b3f 7f50 c23e 611a 40bf
00000300: 8f8c 3cbf 5c77 c53f 4ce6 b0bc 7186 2d3e
00000310: f325 393e 6d60 ea3e 1da3 993c 7c43 8abe
00000320: c2aa 973f a689 58bf 56db 223e 0b67 0a3e
00000330: 66ac 3b3e b39b 253e 23b1 f93e 296e ea3d
00000340: d01e 1c3e 178f 20be 28b3 5cbd c622 7c3e
00000350: c9a9 52be e6dc 58bd 22e6 80bd 94af 47bb
00000360: 0c98 69bf d38f e1be e6bd 863e d14a a83d
00000370: 457d 6d3c e176 f0be 2c7b edbe 4d7e 053f
00000380: a014 d9bd a821 653e 8e6a 3dbc 8fd1 953d
00000390: 9481 4ebe 64ac b1be 989a 67be 80bf a6be
000003a0: fb9c 43bf 1d0f e8bf f81e 083f 8775 d73e
000003b0: 9456 d03e 3ce5 c1bd 3d40 153f 328a 44be
000003c0: 90b8 b43e 441d 36bf b97e f73d 2106 673e
000003d0: c363 933e 02e9 33bf 3294 3abf a69a 063f
000003e0: 0f62 96be 6bfa 2ebd ff2b 39bd b16f a63c
000003f0: bc88 0bbc d78f 573e d846 023e fd8e 8bbd
0.9098006 -0.9177918 0.31475142 -0.005984452 -0.20127067 -0.15824768 -0.055052906 0.35172418
0.022113563 -1.2922183 0.26325232 -0.16176303 0.1241573 -0.023351528 0.18772475 -0.15754282
-0.34875885 -1.4854249 0.19447805 0.10870817 -0.09563252 0.35949734 -0.2807069 -0.04717887
1.7186044 -0.7171186 0.066854365 0.039076135 -0.11500838 -0.17735912 -0.07844137 -0.1399235
0.3370723 -1.7920028 -0.023364201 0.22037683 0.020472206 -0.51621175 0.36388236 0.11603391
0.30908263 0.034998827 0.5834282 0.3739864 0.5392502 0.53576046 0.040458083 0.60486203
1.4688833 1.1135201 -0.4165258 -0.41046047 -0.0073896344 0.020069757 -1.393054 0.37758675
-0.19766028 0.041206468 -0.14875561 -0.2782882 0.29443455 -0.21685193 0.19841096 -0.0073823156
-1.3030344 -0.61784035 0.13184993 0.09461252 0.14838575 0.62441736 -0.34926015 -0.38569346
-0.34406173 -0.066433884 0.3245368 -0.2341807 -0.0006012669 -0.28177035 -0.11881184 -0.06576868
0.43479273 -1.2750115 0.6464807 1.0715708 0.94879466 0.8942328 1.3450091 0.6812828
-0.65105176 0.3319595 0.36491337 -0.030862082 -0.012908527 -0.2866432 0.5872769 0.64458185
0.7285757 -0.9388693 0.19536188 0.073738195 0.09890402 -0.723314 -0.28672275 0.57319427
-0.09288078 -0.35098407 0.082458116 0.2987755 -0.018079901 -0.34800762 -0.03776109 0.2611596
0.756733 0.046017427 -0.30571952 -0.06197152 -0.05241425 -0.5763533 -0.70254934 -0.023409968
0.8139677 1.6530589 -0.031334143 -0.17660654 0.046842482 0.20341422 0.19775774 -0.9333423
1.3931665 0.7213879 -0.30503643 0.077273965 -0.10036582 0.30492914 -0.15191184 0.1904464
-0.5638495 0.5019745 0.15178664 0.24655506 0.107057944 0.04073477 0.5540975 0.45045757
1.8834659 1.7261136 0.0138501115 -0.116588116 0.20704177 -0.42966864 0.31065592 -0.060581885
1.0470113 -0.830058 -0.053027414 0.45084977 -0.019783074 0.48332646 0.55693996 0.108485706
0.9235008 0.39652032 0.25855982 -0.10348288 -0.13570806 -0.021494359 0.06339738 0.18240951
0.80809855 -1.1243612 0.36258695 0.014789656 0.40379223 0.1648927 0.24746431 0.41411766
-0.067564555 0.3376027 0.29728013 -0.22756958 0.18031618 -0.30932808 -0.35009488 -0.19153357
-0.47467527 0.7124846 0.59318715 0.058657225 0.29346612 0.6681572 0.3795204 -0.7504025
-0.73651975 1.542705 -0.02159419 0.16945817 0.18080883 0.45776692 0.018754536 -0.27004611
1.1848986 -0.84585035 0.15903983 0.1351587 0.18327484 0.16172676 0.48767957 0.11446793
0.15246129 -0.15679584 -0.053881794 0.2462264 -0.2057258 -0.05294504 -0.06293894 -0.0030469643
-0.9124763 -0.44055042 0.26316756 0.08217395 0.014495199 -0.46965697 -0.46383035 0.52145845
-0.10599637 0.2237612 -0.011561049 0.07315361 -0.20166618 -0.34701836 -0.22617567 -0.32567978
-0.7641141 -1.8129612 0.53172255 0.42081854 0.40691054 -0.09467551 0.58301145 -0.19193342
0.3529706 -0.71138406 0.12084717 0.22560932 0.2878705 -0.70277417 -0.7288238 0.52579725
-0.29371688 -0.042719286 -0.045207974 0.02031693 -0.008516487 0.21050964 0.12722337 -0.06814382

feature.0.bias f4 [128]
00000000: be20 e1bc 10d5 a63e 02f1 c23e 8ba2 723e
00000010: 1a26 3a3e 663e 2a3f ab58 c8bd 289a 95be
00000020: cdc5 c73e b52c 9fbc cae5 8a3f a158 283f
00000030: 21f0 493e 52a9 acbe 1065 a93d d28b 19be
00000040: 8e7b e83c a28c ca3e b32c a3bd 8413 f93e
00000050: f308 123e ae0f 1d3e 4297 b4bd c816 be3e
00000060: 50e2 f2bc 6df8 0d3f 9909 eebd 6c50 ca3e
00000070: 000d ffbd ebaf 903e 3dfe e93e 8288 aebe
00000080: 728d f8bc f2eb 8a3e 7b95 ea3e 5929 afbe
00000090: fd01 86be 8842 273f 65ab 1d3f 63ee 84be
000000a0: f941 56be aa2a 9ebe e490 9dbe f5e2 8c3e
000000b0: 1b17 aebd e88e bbbe 7e28 01bf 5705 60bd
000000c0: 86c2 463e e407 d6bd 2e52 a6be 9571 1d3f
000000d0: a98e 283f 06c3 94be 8f84 9ebe 0175 973e
000000e0: 9c89 0dbc eca5 663e 6ded eebd a46f 72bd
000000f0: d8a0 dd3e d289 a4be 95af c13e 2624 b1be
00000100: ace8 903f f3c5 7ebe d03a 0c3f 0ae0 8b3e
00000110: 3f01 0a3e 1279 8a3e cb81 f93e 4d0a 143f
00000120: 335b 4fbe b16b ef3c a06e 893e 0731 25be
00000130: 4c7f e73d 1056 453f a8ec 393f d0ee f53e
00000140: ca53 96bd f312 f63e 10df 54be 956a 3c3e
00000150: 4b7a 383d 124a 7a3e 6b59 81bd 0fce 94be
00000160: 96ae 093f dda9 e13e 53d6 333e 74b4 0c3f
00000170: 8d10 2c3d 182f 0dbe 6a46 783e ff00 223f
00000180: 3e42 f83d 0566 aa3e 7f4b 213e e7ee 2dbd
00000190: 9e91 993e 3294 943d cc50 31be b0d3 26bf
000001a0: 649a e4be 4cac b63d fc39 2fbe f76a 2bbe
000001b0: 1e82 1f3e d587 033f 492f f9bd 106f 23be
000001c0: 32c9 0f3f 494f 723e c750 073f b1d6 f43d
000001d0: dc7a c53d 54ff 3cbe cae1 753f dc3e 9ebe
000001e0: d2ca a93e 9aa7 c3bd c881 a6be 4edf 923e
000001f0: d57c a73e 2c60 77be 3f14 603f 7384 e53e
-0.027481433 0.3258443 0.380745 0.23694818 0.18178597 0.6650146 -0.09782537 -0.29219174
0.39018098 -0.019430498 1.0851376 0.65760237 0.19720508 -0.3372293 0.08271229 -0.14994743
0.028379228 0.3956042 -0.0796751 0.48647702 0.14261226 0.15338013 -0.08817913 0.37126756
-0.02964893 0.5545719 -0.11622924 0.39514482 -0.124536514 0.28259215 0.4570178 -0.34088522
-0.030340884 0.27133137 0.4581717 -0.34211233 -0.26173392 0.65335894 0.6158965 -0.25963125
-0.20923604 -0.30891925 -0.30774605 0.27516904 -0.08500501 -0.36632466 -0.5045241 -0.054692592
0.19410142 -0.10450724 -0.32484573 0.6150144 0.6584268 -0.2905504 -0.3096051 0.29581454
-0.008638766 0.22524232 -0.11666379 -0.0591885 0.43286777 -0.321364 0.3782927 -0.34597892
1.1321006 -0.24880199 0.5477724 0.27319366 0.13477038 0.27045494 0.48731837 0.5782822
-0.20249633 0.029226156 0.26842213 -0.16131984 0.11303577 0.77084446 0.72626734 0.48033762
-0.073402 0.48061332 -0.20788217 0.18400033 0.045038503 0.24442318 -0.06315883 -0.2906346
0.5378202 0.44074908 0.17562227 0.5496285 0.04200797 -0.13787496 0.24245611 0.6328277
0.1212201 0.3328096 0.15751456 -0.042464163 0.2999391 0.072548285 -0.17315978 -0.6516676
-0.4464904 0.08919582 -0.17111963 -0.16740023 0.1557698 0.5137914 -0.12167222 -0.15960336
0.56166375 0.23663057 0.5285763 0.11955012 0.09642574 -0.18456775 0.9604765 -0.30907333
0.33162552 -0.09553452 -0.3252089 0.28685993 0.32712427 -0.2415778 0.87530893 0.44827613

value_stream.0.weight f4 [128, 128]
00000000: 0d87 f53d 1aee d03d 3273 e63d 17a5 953e
00000010: 286a cd3e dd1e acbd bbec cb3d 73b1 1ebd
00000020: 73cf b1be 6011 03bd 0627 3fbe c05d cfbe
00000030: 9853 3e3d 5d49 8ebd d544 d13e 0899 063d
00000040: d328 173e 2f6c 06bf 92d3 2e3e 4c0e f53d
00000050: 704e 343e 5262 563e eb78 c53b 2265 85bf
00000060: bcbe bfbf 8c8f 3f3e aae3 9e3d 8a5e d1bf
00000070: 87cd 1bbd 446f dc3f 7e3b cdbd d5b0 9ebc
00000080: d9fb 053d bd2a b33d 0120 2abf 80e9 193f
00000090: 27a7 d8be 92ae 3dbd c55e 88bf 38f8 2c3c
000000a0: bbd6 13bd 3a99 c53c d941 b03d 504a 8c3e
000000b0: 056a 53bd 300a a33e c964 b63e fb25 2ebf
000000c0: 3d34 823e aafd ccbb 913a 72bd 0d47 91bc
000000d0: 8e44 86be 580a 9d3d 2296 213d d9a1 0fbf
000000e0: 593b a73e 6d08 7fc0 928f 333e 4b75 813d
000000f0: 9c32 89bd 9059 713d c662 4dbf 6f96 3e3d
00000100: 7f4b f3be 1564 d43e 0777 c43d 0071 8ebe
00000110: 7ea5 cbbf b64c 5bbf f0c4 093e d8f4 973d
00000120: ea80 5b3e 9078 013e 2bb4 053d 8472 c03e
00000130: 6d68 61be 6019 acbd 57dc 29be dac3 a13f
00000140: 9328 1f3e d977 4e3e 7481 33ba 1795 693e
00000150: fdaf b8b9 a6e6 de3d d703 d9be 3eb4 1c3c
00000160: 6803 7d3d ff6f 89bf 2a08 8d3d 4ebe 3cbe
00000170: 15a7 433e be8b 163e 01d3 98bd e27a 1bbf
00000180: c8d3 7fc0 1f72 2fbf 213c 88bf cd01 a7be
00000190: 4bc9 003c 41ed 983e df3b ac3e 1c33 063f
000001a0: bb39 623e 52c9 e8bd bc45 023e 1fdc 5cbf
000001b0: b993 73bf bcca 21be d75f 73bd 6b8a 943e
000001c0: fd70 a6be bf2e e63e b4b9 80bf c561 283e
000001d0: 653b 873e 8940 803d 05f2 00bf bacf aa3e
000001e0: 7531 253e 7516 51bc 852a a03e a01f 443f
000001f0: ef73 423f c748 4c3d 74fa e4be ce10 97bf
00000200: b07c 793f 944e 10be dd09 fabe a04b 8bbf
00000210: a0c0 54bf a695 3f3e b4f3 833f 64de 92bd
00000220: b318 383f 13c6 4fbd 0fbe 403e 3fa3 be3d
00000230: 01ff 2b3f ad12 eb3c ade1 6bbf cb21 c2be
00000240: ce2e a3be 6b87 85bd 28eb a4be ad7a a63e
00000250: 0fa3 323e b324 ca3e abe0 013d 775d c03e
00000260: 2a52 90bf b83b 2c3e 8d22 98bd 863f 96be
00000270: 536a 32bb fa0e f9be f2cf 073f 9755 013d
00000280: 294f 933d e43b e73c e8c6 c8be 297c 96bf
00000290: 05de c43f d34c 793e df94 bb3d f6b2 a8bd
000002a0: 54f2 50bb c719 dd3b 0e97 b4bd cb39 35bf
000002b0: 4ea7 a7bd 3f64 ffbe 87d6 25bf 7c44 0d3f
000002c0: 2a41 b53e 4d04 d03b b75c 92bd 0f85 463e
000002d0: eef6 e73d a3eb 7e3c 003c 73bd 2721 a63e
000002e0: af5f abbf 41f4 0abf 034b d63c cfb8 d13e
000002f0: d8f3 9a3e efe4 05bd ea13 173e 0eb4 913d
00000300: 6d0a 3e3e be08 e7be 1bdd a93e 3e20 09bf
00000310: 5e2a d53e 42b8 c6bd 2d84 3b3e 6146 8d3e
00000320: dd87 61bf d734 e93e 4082 183e e0e0 29bf
00000330: 3a71 ddbe 3a75 933e cdbe 933e 6487 90be
00000340: 7e41 adbd b54d 68be 14ce 963d e506 c3be
00000350: 894d a5bd 95e3 dc3e ad83 a0bf a35b 37bd
00000360: e8d4 a33e 9874 633d 7f26 89bd f80c 74bf
00000370: 4a62 87bf 9b05 81bd ba16 8f3e ab43 243e
00000380: 4d4f 72bf f527 8a3e bd98 1c3e 8a7b 123f
00000390: d38a 1ebf b1cd 343f 789e b4bf 296d 7fbf
000003a0: 6141 6bbe 4e93 e4bf c663 86be 97ef 13bf
000003b0: 24c5 cebd f900 923e 9663 77bd 38ac dbbe
000003c0: 3b4a a23e 58eb c0bd 9e91 ad3d 1652 9a3e
000003d0: 1de2 a83e b8bc 2bbd fcdf 023e 8fca bfbf
000003e0: 21fc 873e 7fc4 953e 8fdf 6ebf 221c 7cbe
000003f0: e2dd bbbd c4c4 a6bc 8a4c 483e 42f5 e9bc
0.119886495 0.10201664 0.112524405 0.29227516 0.40120053 -0.08404324 0.09957262 -0.038743448
-0.34728584 -0.031998992 -0.1866723 -0.40501213 0.04646644 -0.06947587 0.40872827 0.032860786
0.14761667 -0.52508825 0.17072895 0.119656175 0.17608047 0.20935944 0.0060263774 -1.0421488
-1.4980083 0.18707103 0.07758267 -1.6356976 -0.038037803 1.7221456 -0.10021113 -0.01937143
0.032710884 0.08748386 -0.66455084 0.6012192 -0.42315027 -0.04630906 -1.0653921 0.010557227
-0.036093455 0.024120916 0.086063094 0.27400446 -0.05161478 0.3184371 0.35623768 -0.68026704
0.2543048 -0.006255825 -0.059137885 -0.017734075 -0.26224178 0.076679885 0.03944982 -0.56106335
0.32662466 -3.9848893 0.17535236 0.063212 -0.06699106 0.058923304 -0.8022884 0.046530183
-0.47518536 0.41482607 0.09593015 -0.27820587 -1.5909879 -0.85663927 0.13454032 0.07419747
0.21435896 0.12643647 0.032642525 0.37587368 -0.22012492 -0.084032774 -0.16587959 1.2637894
0.15542822 0.20162906 -0.0006847598 0.2281078 -0.00035226336 0.108838364 -0.42385742 0.009564457
0.061770827 -1.0737303 0.06886323 -0.1843197 0.19106705 0.14701745 -0.07462121 -0.6073438
-3.997301 -0.6853351 -1.064335 -0.3261856 0.007860492 0.2986851 0.33639428 0.52421737
0.22092335 -0.11366524 0.12721914 -0.8627338 -0.9514728 -0.15799993 -0.059417572 0.29011855
-0.32508078 0.4495754 -1.0056672 0.16443546 0.26412502 0.06262309 -0.5036929 0.33361608
0.16132148 -0.012761702 0.3128244 0.76610756 0.7595815 0.049874093 -0.4472233 -1.1802003
0.97455883 -0.14092475 -0.4883565 -1.0882454 -0.8310642 0.1870943 1.0308747 -0.07171324
0.7191269 -0.050726008 0.18822502 0.093084805 0.6718598 0.028695429 -0.9214123 -0.37916407
-0.31871647 -0.065199696 -0.3221066 0.3251547 0.17445014 0.39481124 0.0317084 0.37571308
-1.1275074 0.16819656 -0.07428465 -0.2934534 -0.0027224019 -0.4864424 0.53051674 0.031575765
0.07192833 0.0282268 -0.39214253 -1.1756641 1.5380255 0.24345712 0.09159254 -0.08237259
-0.003188272 0.0067474577 -0.08817874 -0.7079131 -0.08186208 -0.4988117 -0.6478047 0.55182624
0.3540128 0.006348169 -0.0714659 0.19386695 0.11326395 0.01555911 -0.059383392 0.32447168
-1.3388575 -0.5427895 0.026158815 0.4096131 0.30264163 -0.03268903 0.1475369 0.07114421
0.18558665 -0.45123857 0.33176503 -0.5356482 0.41633886 -0.09703113 0.1831214 0.27592757
-0.88097936 0.45548126 0.14893436 -0.66358757 -0.43250448 0.28800374 0.28856507 -0.28228295
-0.08459757 -0.22685893 0.07363525 -0.38091198 -0.08071429 0.4314238 -1.2540184 -0.044765126
0.31998372 0.055531114 -0.06696796 -0.9533229 -1.057687 -0.06299897 0.27947026 0.16041438
-0.94652253 0.2698361 0.1529264 0.57219756 -0.6193058 0.7062636 -1.4110861 -0.9977594
-0.22974159 -1.7857454 -0.26247996 -0.5778746 -0.10096195 0.28516367 -0.060397707 -0.4290483
0.31697258 -0.09419888 0.0847504 0.30140752 0.3298501 -0.041928023 0.12780756 -1.4983691
0.26559547 0.29251477 -0.93309873 -0.24620107 -0.0917318 -0.020357497 0.19560447 -0.02855933

value_stream.0.bias f4 [128]
00000000: 616c 2dbe 8808 2a3e ccac 613e dec9 403e
00000010: f26b 873e ffe6 4a3e 6f26 903e 6b47 8f3e
00000020: 1d16 50bb f42a 6c3d deb5 da3d c40a 173d
00000030: c29a 8c3e bd32 843e 9bf8 7b3e 8e9b 753e
00000040: a151 973e d720 b63e c6ff 333e d700 e33e
00000050: 9d42 313e 2f88 f7bd a60e 303e e20e 903e
00000060: 86e9 253d a575 bb3e a136 c53c 0d92 c43e
00000070: 3746 b8bd 8dc6 3f3e fc24 513e 775e a23e
00000080: 24bd 5c3e 4d63 103c b9c2 793e 8e30 59be
00000090: 145d d53d 239d 513e 590a c03e 42af 863e
000000a0: 1580 8b3e cf31 3f3d e8d8 59bd 644c 9f3e
000000b0: 5d2a c43d 9730 503e f0e3 a03e e92f b2bd
000000c0: a968 4ebc f0d0 073e 7fe2 fcbc 9d44 753e
000000d0: 5836 4fbd 7496 f13d 144a ac3e b8d0 8bbd
000000e0: 9c81 8d3e c61d ad3e 105f b73e 169f 023e
000000f0: dffc bcbd 84e6 48be 5d04 40be 1908 3c3e
00000100: c9c6 e1bd 5221 6ebd 407f b03e fc34 be3d
00000110: 29b8 9bbd f7e2 8c3e 5093 96bd 5a0b 833e
00000120: c3a7 883e 6ab7 aa3e 99d8 9e3e a05d 9f3e
00000130: 7315 a13e d505 943e ccec 8f3e c2f6 703e
00000140: 64a9 5f3e 71c1 9a3e bf24 8c3e b552 213e
00000150: cd6e 423e 4ba2 8f3e 88bb 0ebd d1f9 933e
00000160: 875d 763e ce0c b73e 557a 8a3e dcf2 76bd
00000170: d99b 693e 722b 6a3e f84d 973e 1221 a63e
00000180: 8f4e 103e 0d8c 603e 00bd 453e 0c7e 853e
00000190: 2509 623e c5e4 a23e a034 bc3e dfe3 603e
000001a0: a047 8e3e 9e5f 6b3e 9733 8c3e 3f37 703e
000001b0: 3752 17bd 0037 69bc dd68 923e cba3 9a3e
000001c0: 25d2 8a3e e3ef 7b3e 32b1 133e 797c d6bc
000001d0: 8346 a63d d53b 8a3d a165 193d 6772 043f
000001e0: 2d8c 663d 111c b0bc 8a98 ab3e e1e2 da3c
000001f0: a01a 863e 383b 733e 15be bb3e cea0 4c3e
-0.16935875 0.16604817 0.22038573 0.18827006 0.26449543 0.1981468 0.28154323 0.27984175
-0.0031751462 0.05765815 0.1067922 0.0368755 0.2746182 0.2581996 0.24606554 0.2398512
0.29554465 0.3557193 0.17578039 0.44336578 0.17310567 -0.12086522 0.17193088 0.28136355
0.04050591 0.36613193 0.0240739 0.38392678 -0.089977674 0.18728085 0.20424265 0.31712696
0.21556526 0.008812738 0.24390687 -0.21209928 0.10418144 0.20470099 0.37507895 0.26305586
0.27246156 0.04667836 -0.053185374 0.3111297 0.09578393 0.20331036 0.31423903 -0.087005444
-0.012598195 0.13263297 -0.03086972 0.23951955 -0.050588936 0.11796275 0.33650267 -0.06826919
0.27637947 0.33811778 0.35814714 0.12755999 -0.09227919 -0.19619185 -0.18751664 0.18362464
-0.110242434 -0.058137245 0.34472084 0.0928745 -0.07603485 0.2751691 -0.073523164 0.25594598
0.26690492 0.3334306 0.31024626 0.31126118 0.31461677 0.289107 0.2811035 0.2353163
0.21841961 0.3022571 0.27371785 0.15754206 0.1898758 0.28053507 -0.034846812 0.28901532
0.24059115 0.35751957 0.27046457 -0.060290202 0.22813357 0.22868136 0.29551673 0.32447106
0.14092468 0.21928425 0.19310379 0.2607273 0.22073801 0.31815162 0.367589 0.21961926
0.2778902 0.22985694 0.2738311 0.23458575 -0.03694364 -0.014234304 0.2859563 0.3020309
0.27113453 0.24603228 0.14423063 -0.0261824 0.08118918 0.06749693 0.037450437 0.51737064
0.056286026 -0.021497758 0.33514816 0.026719512 0.26192188 0.23753059 0.3666846 0.19983217

value_stream.2.weight f4 [1, 128]
00000000: a64b 03c0 85fc ebbf c484 e1bf c404 50c0
00000010: 2660 3b3f f71a f2bf f0be d5c0 a4a2 b03f
00000020: 7ac2 8740 fec8 65bf 7320 c1c0 76e4 07c0
00000030: a828 2a3f 986e 413f 2fe5 3a3f 1bd4 273f
00000040: 6302 59c0 069c 263f 9627 97c0 4038 2dc0
00000050: a2b9 94c0 65fb edbf 9098 fdbf 5669 87c0
00000060: 516b bcbf 8dc5 1a3f b008 343c ed96 3c3f
00000070: 887d 013d 84d9 16c0 3436 3fc0 7067 323f
00000080: 3e53 2f3f b325 8f3c 2d32 ae3f 0179 cf40
00000090: b99c b7bf 5e17 cfbf efb7 2a3f 4739 00c0
000000a0: 1a00 473f 5abe e6bc 8fc4 ca3c 0718 3a3f
000000b0: ceae 2fc0 d4c9 e1bf 4799 40c0 2118 f53c
000000c0: 2e94 a93d 86e2 97c0 5b3d e53b f4ab e0c0
000000d0: afd6 6ebc c45b 71c0 2c2b 2b3f d220 a13d
000000e0: 6fe5 95c0 7c7d 3c3f be8e 363f b252 6b3f
000000f0: fed7 cfbf 53b7 f2bf c913 9ebf 0a1d dabf
00000100: 0cbe 3dc0 0fd6 8bbd dd86 3b3f b09c 8fbf
00000110: 3046 16bc b264 a0c0 5f86 07bd 0e3e 9e3f
00000120: 47f3 2cc0 63d2 443f 8522 223f 89a9 3a3f
00000130: 07ca f7c0 2e23 3f3f 9ea1 85c0 af3c d8bf
00000140: ea40 dac0 19ee 373f 08d9 2c3f 8d85 97bf
00000150: 2154 eebf 48c4 243f 41bc a93d 22c6 69c0
00000160: 7f2b 59c0 c55d 233f cda8 8cc0 1edb edbf
00000170: dc0b 98bf e7ad 96c0 98ba c3bf 57c0 363f
00000180: c055 82c0 f43c 8ec0 fc64 08c0 d42b dfbf
00000190: f026 263f 74bf 2f3f 1e08 413f 99b3 56c0
000001a0: 29b1 cabf d41e 4b3f 2abb 57c0 d881 213f
000001b0: 9172 993d ba97 4740 c24d a2c0 af0b 393f
000001c0: ad55 2d3f d2d5 90bf 7286 a2bf 03d1 87bb
000001d0: 411e e6bf 0b2e 893d 4235 9abf aa14 0cc0
000001e0: 34e8 84c0 8d36 6d3c 5dd7 433f 1cca 263d
000001f0: c537 c1c0 9f30 e3bf b925 2b3f 0c9a 5ec0
-2.0514922 -1.8436438 -1.7618642 -3.2502909 0.73193586 -1.8914479 -6.679558 1.3799634
4.24249 -0.89759815 -6.035211 -2.1233191 0.66468287 0.7555938 0.73005956 0.6555802
-3.3907707 0.6508182 -4.7235823 -2.7065582 -4.6476603 -1.8592345 -1.9812183 -4.2316084
-1.472025 0.6045769 0.010988399 0.73667794 0.031613857 -2.357026 -2.9876833 0.69689083
0.6848639 0.017474031 1.3609062 6.483521 -1.4344703 -1.6179006 0.6668691 -2.003496
0.7773453 -0.028166939 0.02475193 0.7269291 -2.7450442 -1.7639718 -3.0093553 0.029918732
0.08280216 -4.746402 0.0069958395 -7.0209904 -0.014577552 -3.771226 0.6686275 0.07867588
-4.684257 0.73628974 0.7131156 0.9192306 -1.623779 -1.8962196 -1.2349788 -1.7040112
-2.9647245 -0.06827938 0.7325266 -1.1219692 -0.009172007 -5.012292 -0.03308713 1.2362688
-2.7023485 0.76883525 0.6333392 0.7291494 -7.7434115 0.74663055 -4.1759787 -1.6893519
-6.820424 0.71847683 0.67518663 -1.1837631 -1.8619424 0.64362 0.0828786 -3.652718
-3.3932798 0.63814956 -4.3956056 -1.8582494 -1.1878619 -4.7087283 -1.5291319 0.7138724
-4.0729675 -4.4449406 -2.1311636 -1.743525 0.64903164 0.6865151 0.7540301 -3.3547118
-1.5835315 0.79343915 -3.3707986 0.6308875 0.07492555 3.1186357 -5.071992 0.7228345
0.67708856 -1.1315253 -1.269728 -0.004144789 -1.7977983 0.06698235 -1.2047503 -2.1887612
-4.153345 0.014478338 0.76500493 0.04072009 -6.038058 -1.7749213 0.66854435 -3.4781523

advantage_stream.0.weight f4 [128, 128]
00000000: 9282 4cbd 165e 2d3d d316 adbd d9b3 df3c
00000010: 1445 e7bb f7f0 123d 5457 24bd 72eb 933c
00000020: df28 43bd 22ef 2dbd 65be 253d 4af3 243d
00000030: 3f02 493d 4070 2dbd 0c70 493d 3034 4fbd
00000040: be71 b2bd e963 86bd 510e 57bd 8eb1 75bd
00000050: 3260 66bc 2c29 debc facc ef3c ced3 97bc
00000060: 789c 883d 67ba a63d 2b40 35bd cf25 bdbc
00000070: 6412 90bd 1840 f6bc 208f e7bc 40ac 08bd
00000080: 1a14 36bd faca 8b3d 0af4 57bd 083e 36bd
00000090: 8f4b 59bb f7f8 adbd dfbc 1abc 4028 20bd
000000a0: ebec 5c3d abd8 92bd b58e 173d a5a5 e23b
000000b0: 50fd b13d 147e dcbc abeb 41bd ea67 813d
000000c0: 8fea 42bd 3aa7 86bd dd26 e0bb 03cf 473d
000000d0: d3d7 d2bc e4b3 723d afef bebc 8579 fb3c
000000e0: 27ed 14bd d64f 90bd 4970 7d3d 4fe3 143c
000000f0: 428e 443d c100 67bd 9df0 033d 8fe5 993c
00000100: 257d 03bd cadf 7abd cf8f 70bd 45a0 6e3d
00000110: 1832 8abd 6c44 ab3c a941 763d 477f b1bc
00000120: d86a 473d 0ed1 8d3d 5e3e 6cbd 0ce7 933c
00000130: 7c10 883d b049 a4bd 7346 d6bc b297 863d
00000140: 83a5 9a3d 1f3e 7b3c 85b4 27bc d4f0 993a
00000150: 80cc a63c fb1c b1bd 44a5 d6b9 8670 1b3c
00000160: cbcd 713d c50a 2fba cc0d d13c 342b 97bd
00000170: d42b ffbc ee03 babc f3a4 773d 0488 f7bc
00000180: e69f acbd 0e71 6f3c fdf8 cabc 3057 a13c
00000190: 4cf3 3ebd bf23 6b3d 9a23 a0bd c5db 02bd
000001a0: 2a0e dbbb 8c6f 3d3d 25ee 9b3c 4276 a3bd
000001b0: ac67 b23b b966 86bd 45fa 03bc 50f1 17bd
000001c0: 1f9c 8bbd 591a 62bc bea3 bdbc 357e 6e3c
000001d0: 2d3e 79bd c978 763d d59e 983c 22d4 8fbc
000001e0: 021f 713d 03fb 763b 9e70 503d 6014 503d
000001f0: 9742 1ebd 6be7 943c 6fba 74bd 3db6 f33b
00000200: d7bc f3be 64ec 09be f69f 29bf c4cb d63d
00000210: 3e34 f93d 8f1f 1b3e 3bd1 af3e 091c 90bc
00000220: f670 5abe 9a7b 17bd b1be 183e 4c1b bf3d
00000230: 86eb f9bd 58ed 743d 251c b73b e7bb 5b3e
00000240: 5750 93bd 7db6 bfbc cc5f 4ebe ce94 f43d
00000250: 46d5 363e e721 c93d 0b03 9f3d c3c2 0f3e
00000260: 6338 edbe a504 563e 744a c43b fe93 fbbe
00000270: 13c4 823d cebe b7bf bb56 a63d bd2a 8abc
00000280: 4c21 e4bc f6ed 3e3e e8e4 eb3d 74f7 33be
00000290: c7cd 1b3f 37fb 0e3e 7c4e 0a3d da5b 8abd
000002a0: df03 8ebd 423b 713c f47a 453d 5ae9 babb
000002b0: 4503 8a3d a72e 43bf edb6 91be 9f60 f5be
000002c0: 0af3 1bbe 040c 23bd 1dbe 153d 3ab4 2f3e
000002d0: 0dd7 1c3e 207d 7a3d bee5 afbd 1790 133e
000002e0: 7311 63be 0c8a fcbe 3aea 723d fdf0 2ebe
000002f0: a672 153e 3ed1 5ebc 381d 183d 872c 97bd
00000300: a85f a03d a92d 853d 0875 b93d 3c50 17bf
00000310: f001 aebe 1503 a5bd 311d 0b3e c734 8d3d
00000320: 1ccd b73d f655 aa3d 5f1d 003e 3431 13bf
00000330: 0c84 9e3e e20c 233e 0f15 293d a70e 79c0
00000340: b0d4 853e 2fc1 883d 0462 4bbd 4713 3e3d
00000350: 698b ca3c 84d1 debd 5563 afbf 46b5 4cbd
00000360: fb4a 123e b965 0e3c a885 aabd ad1a 5fbf
00000370: 1592 84be 340e ff3d 3d1e 7e3d cf23 ce3c
00000380: ba4e 44be 0747 c03d f73e 0abe 4d46 2cbf
00000390: 7ba8 11bf 90a4 98bc 0312 eebe a42d 593e
000003a0: 6ded c3c0 6bac d7bf fbfe afbe 30d3 82bf
000003b0: 824a f6be 36f9 043e e21d 233d e777 05bd
000003c0: fa1f ad3c 223e 6a3f 2c6d 423d 396e 1f3e
000003d0: d1a8 e2bd 0636 683c cfca d03d 0483 37bf
000003e0: 6844 723e c05a d8bd 3394 39bf c511 6cbf
000003f0: db88 6bbf e0e9 8fbd dfa0 d13d f9d0 8ebd
-0.04992921 0.042326055 -0.08451619 0.027307438 -0.0070577953 0.035874333 -0.040122345 0.018056605
-0.0476464 -0.042464383 0.040464777 0.04027108 0.049074408 -0.042343378 0.04917912 -0.05058688
-0.08713101 -0.06562025 -0.052503888 -0.059983782 -0.014061021 -0.027119242 0.029272545 -0.018533614
0.06670469 0.08141022 -0.04425065 -0.023089318 -0.07034758 -0.03005986 -0.02826649 -0.033367395
-0.044452764 0.06825824 -0.05272297 -0.04449275 -0.0033156609 -0.08494752 -0.009444444 -0.039100885
0.05393688 -0.071702324 0.03700133 0.006916719 0.08690894 -0.026915587 -0.04734389 0.06318648
-0.047586974 -0.06574865 -0.0068405704 0.048781406 -0.025737679 0.05925359 -0.02330765 0.030697593
-0.03635898 -0.070464775 0.06187466 0.009087398 0.04798723 -0.056397203 0.03221189 0.01878622
-0.03210177 -0.061248578 -0.058730897 0.058258314 -0.06747836 0.02090665 0.060121212 -0.021667136
0.04868588 0.0692464 -0.057676665 0.018054508 0.06643769 -0.08021867 -0.02615664 0.06571902
0.075511 0.015334635 -0.01023591 0.0011744746 0.020361185 -0.08648106 -0.00040940393 0.009487277
0.05903415 -0.0006677325 0.025519274 -0.07381287 -0.031148829 -0.022706952 0.060460042 -0.030216224
-0.08428936 0.014614357 -0.02477693 0.019694895 -0.046618745 0.057407137 -0.078192905 -0.03194787
-0.006685038 0.046248958 0.019034455 -0.0798154 0.0054444876 -0.065625615 -0.008055274 -0.037095368
-0.06816887 -0.013800227 -0.023149367 0.014556457 -0.06085031 0.060173783 0.018630425 -0.017557207
0.058867462 0.0037686236 0.05088865 0.05080068 -0.038637724 0.018176755 -0.05974811 0.007437496
-0.4760501 -0.13469082 -0.66259706 0.10488084 0.121681675 0.15148757 0.34339318 -0.017591493
-0.21332154 -0.03698311 0.14916493 0.09331378 -0.12203126 0.05979666 0.005588072 0.21458398
-0.07193058 -0.023402447 -0.20153731 0.11942445 0.17854795 0.098209195 0.07764252 0.1403914
-0.46332082 0.20900209 0.005990321 -0.49136347 0.063850544 -1.4355104 0.08122011 -0.016866082
-0.027847908 0.18645462 0.1151827 -0.17574865 0.60860866 0.13963018 0.033766255 -0.067558005
-0.06934332 0.014723601 0.04821296 -0.005704087 0.06738905 -0.7624306 -0.28459874 -0.4792528
-0.15229431 -0.03980638 0.03655826 0.17158595 0.1531641 0.061154485 -0.08588742 0.14410435
-0.22174625 -0.4932407 0.059305407 -0.17084117 0.14594516 -0.013599692 0.03713724 -0.0738154
0.07830745 0.065028496 0.09055525 -0.591068 -0.33985853 -0.080572285 0.13585354 0.06894832
0.089746684 0.08317177 0.12511204 -0.57496953 0.3096012 0.15922883 0.04127985 -3.8915193
0.2613883 0.06677472 -0.04965402 0.046405103 0.024724679 -0.10879806 -1.3702189 -0.049977563
0.14286415 0.008691245 -0.08326274 -0.8715008 -0.25892702 0.12453881 0.062040556 0.02516356
-0.19170657 0.093885474 -0.13500582 -0.6729477 -0.56897706 -0.018633157 -0.46498117 0.21208817
-6.1227326 -1.6849493 -0.34374222 -1.0220699 -0.4810372 0.12985691 0.03982342 -0.03258505
0.021133412 0.9150106 0.047467396 0.1556939 -0.110673554 0.014173036 0.10194933 -0.7168429
0.23658907 -0.10564184 -0.7249176 -0.92214614 -0.920057 -0.0702703 0.10235762 -0.06973452

advantage_stream.0.bias f4 [128]
00000000: 5224 7ebd 88cb 2a3d 1f59 06bd 43dd 563d
00000010: 40b5 72bc 9758 8d3e 101d 373e c1fd 853d
00000020: 17c6 8a3c 0d2f f83d 4f05 b2bd ca75 033c
00000030: 64ff e93d 2de1 6ebe ce4f e6bd bb41 7d3c
00000040: 9af3 8f3d 512f 8c3c abb3 0f3d ced0 eb3d
00000050: dfcb 3b3c b9a0 813d bb9e efbd 04e2 e33d
00000060: 3308 3e3d 5ffe 5abd 5760 57bb 6326 b93d
00000070: eba8 2dbb c3e6 ce3d 9127 133e 188e 6a3d
00000080: 6c71 09bd ae2f 8ebe 5045 4bbd 2dac 4f3d
00000090: 1d10 bc3d 41f4 c03d 8906 97bd c116 cf3c
000000a0: 00b0 893d 3de7 f13b 6497 a7bb fde7 103d
000000b0: d2cf 0c3d 0523 aabd 616a 4b3d 19f1 0c3c
000000c0: 7a74 ca3d 0131 743d 472f 773d c9f7 f73c
000000d0: 89ce 01be 9c8a bcbc 164d bf3d 2bb8 68bd
000000e0: e746 3a3e afbb 6d3d a6a6 a43a 56e1 833d
000000f0: 8878 b33a dbdb 4eba dec3 76be 6ac4 0a3e
00000100: 0502 6cbd f4f8 183e 74a8 7ebc ee87 6b3d
00000110: 39c7 a1bd 3f31 143e 4bd8 0a3e c99e 1b3e
00000120: 7e23 f53c 33d8 0cbd b197 013e 563d 013e
00000130: 732e be3d 0b48 1a3d 2859 083e a2f4 653e
00000140: 8079 32be 25cd b9bd 0d55 313d 4df3 733d
00000150: d266 3eba 8567 09be bf76 8cbd c19d cfbb
00000160: 08fb 633e efff dc3b abcf 1e3e fb53 ec3c
00000170: d0fb 153e 1a4a fa3c 70bb 1f3e 0deb 713e
00000180: 84c5 803e a2c7 8c3d 79f7 283d 1d5e 96be
00000190: 90a2 ba3c 8be3 4a3d 129a ac3d 2804 c0bc
000001a0: 7e9d cd3d c0ac 5d3a 412b fb3b bacd ec3c
000001b0: a437 8c3d d367 8cbd b55f 0f3e 046d 263d
000001c0: 9b20 073e ec25 9a3d 61c3 8e3d ccf7 083e
000001d0: a900 353e 4bd3 483d 7730 4bbd 63cf 82bd
000001e0: 1f00 a33d 2251 373e 9ca3 63bd 0091 89bd
000001f0: d35c a2bd 8043 52bd 2c23 5b3d 033c 283e
-0.062046356 0.04169801 -0.032799836 0.052457105 -0.014813721 0.2760665 0.1788218 0.0654254
0.01694016 0.12118349 -0.08692419 0.008023689 0.11425665 -0.23328085 -0.1124569 0.015457566
0.07028885 0.017112406 0.035083454 0.11514436 0.011462181 0.063294835 -0.11700197 0.111270934
0.046394538 -0.053465243 -0.003286382 0.09040525 -0.0026498388 0.10102608 0.14370562 0.057264417
-0.033555433 -0.27770752 -0.04962665 0.05070131 0.09182761 0.09421588 -0.07374293 0.025279405
0.067230225 0.007382302 -0.0051144827 0.03537749 0.03437788 -0.08307461 0.049661998 0.008602404
0.098854974 0.059617046 0.06034782 0.03026952 -0.12676443 -0.023015313 0.09340875 -0.05681626
0.1819111 0.058040317 0.0012561872 0.06439464 0.0013692537 -0.00078910374 -0.24098155 0.13551489
-0.057619113 0.14938718 -0.015543092 0.05750268 -0.07899327 0.14471911 0.13559072 0.1519729
0.02992415 -0.03438587 0.12655522 0.12621054 0.09286203 0.03766636 0.1331526 0.22456601
-0.17429161 -0.09072331 0.043294 0.0595582 -0.0007263246 -0.13418396 -0.068585865 -0.0063359444
0.2226373 0.006744377 0.15508907 0.028848639 0.1464684 0.030552913 0.15598845 0.23624821
0.25150692 0.068740144 0.041251633 -0.29368678 0.022782594 0.049533408 0.08427824 -0.023439482
0.10039805 0.0008456223 0.0076650684 0.028906692 0.0684655 -0.068557404 0.14001353 0.04063131
0.13196032 0.07526764 0.06970859 0.13375777 0.17676033 0.04902963 -0.049606767 -0.06387212
0.079590075 0.17902043 -0.055575952 -0.0671711 -0.07927861 -0.051333904 0.05350034 0.16429143

advantage_stream.2.weight f4 [3, 128]
00000000: c978 673d b269 c63f 32c3 5d3f 5ec2 21bd
00000010: d7a3 0bbd 2a55 e8bd 7b72 ad3e 82eb 3f40
00000020: ab4f b9bc e4df 7f3e be38 cf40 3970 31c0
00000030: 599c ba3f 912d 6ac0 0673 55c0 a62a 18bd
00000040: 5dc7 3e3d ba8a afbd 1a52 ab3e 0080 0ebe
00000050: 0337 e33c aad2 11be c07a 4bc0 5289 b2be
00000060: 996b a1bd 43e4 0d40 47bc dabf 6cc4 d83b
00000070: 5e26 543f 8e91 163d 7513 f73c c1f0 bf3f
00000080: 09f2 363d 3a56 5ac0 ec6c 923d 37b6 d93e
00000090: 4b54 30be 6720 34c0 cf9d 323f 73aa 4d3d
000000a0: 046a aabc 8fd6 0bc0 4e6d e3be 6f06 e13d
000000b0: f987 1c3e 04a9 60bd adb0 9dbd f2f8 e03e
000000c0: e83d fbbe 48d5 113e d783 793f 126e e7be
000000d0: dcc8 8ebf bb07 e0be fa60 f83d 3025 873d
000000e0: 4b08 9840 6a03 d23f 8893 0b3f 65cb 50c0
000000f0: fe62 12bd 19de 78bf 05e3 ac3f a077 7b3e
00000100: 58f3 64bd b922 753e 706a 6e40 8658 683e
00000110: b621 acbd 768f 3fbe d7e5 fe3e 5c85 a83e
00000120: ffaf 1cbd 45da 9b3d cc20 9cbd e465 4340
00000130: 6c08 9cbd d0a2 26c0 f099 dcbf 6faa e8bb
00000140: 16c9 e53e bb72 7b3f 6ede 43bf 8240 0b3d
00000150: 7495 853c 0a5e 9ac0 3694 273d 3d86 4e3e
00000160: 5ac5 393d cc9e 6b3f 0f74 06be 92c5 87bd
00000170: 1909 6ebe e3a0 45be 3795 673e fb84 193d
00000180: b2c5 9a3d 7ad7 1e3e 4ffe 203f 0e2f 693e
00000190: a7c6 15c0 853f 4c3d 6d5a 3e3d a2f9 4e3f
000001a0: fc25 e93e 6a16 5b3c 6c3b f5bd bde5 413e
000001b0: 2fac 243e 6a54 5cbd 5060 913e 0b05 113e
000001c0: 22b1 7cbc d664 53bd ad45 423e 33f8 8c3e
000001d0: 3152 c2bf 82ad 433e da04 aabe 6969 a7bf
000001e0: b3bd 88bd 2758 81bb 2a76 763f 1a04 263c
000001f0: a22a 923d 5f9f d33d 7d34 693c 8292 4bbe
00000200: 2849 9bbd efe4 89c0 69c3 6a40 f0cb 313c
00000210: 06c7 213d 41d7 e6be 489e aabf b463 c2c0
00000220: 31d1 443f b088 1fbf 891d af40 0125 3f40
00000230: cf67 92c0 74fe d240 3cad 1440 fc4d f03c
00000240: 3df7 15bf 22c6 963d 0d61 cd3e dcee 11bf
00000250: 5ef0 fb3f 9836 6f3f 2311 8740 33d9 4a3f
00000260: c941 1dbc e78a 5c40 01e1 8240 1096 3d3f
00000270: e960 2240 c391 133f 571e 3cbf 501b 30c0
00000280: ae25 8cbd 3ddb cb40 a635 1b3f 6fbb 653e
00000290: 5e76 d5be 7cfe 95bf 1e75 8d40 de13 02c0
000002a0: 15c1 8f3d df5a e0bf 39e3 813f 0e80 f7be
000002b0: 6aca 343f 672a 843d ed98 8bbd 20f8 883e
000002c0: 62b9 c23e c18b 35bf c7e0 2240 c447 333f
000002d0: 77df 68c0 fd1a 76c0 d720 96bf 4ce4 203d
000002e0: 4019 7a3f 248e 0f40 a2ce 0040 4507 d53f
000002f0: 8475 583f feba 6340 b58b 9840 8acc 133f
00000300: 969b a23d 678e 2abf d93f 84c0 7bfb 38bf
00000310: 2c72 b0bd d4ad 1d3f ddcd abbf f88c cbbf
00000320: 7006 2f3f a956 323f 2ef4 3a3f 7536 90c0
00000330: 43ed 3f3f fde8 7040 78e0 4140 0ed0 39bf
00000340: b157 d540 abca 9ebf f5bd 7940 b741 063f
00000350: 890e 203f 0a92 20be 3479 943d e434 083f
00000360: d755 46bf 4ca7 e23f b8e3 ed3e 662f 96bd
00000370: f172 dbbe a89a 2b3f ace8 8abf e1a8 f5be
00000380: 671c 3bbf b899 013f 93cc 273d 318d 7840
00000390: c947 b440 f140 a03c 79a1 1c3f b155 0dc0
000003a0: 8272 18bf 2b4f 023d 96b5 3b3f 3001 253f
000003b0: 5827 383f b107 133c 594a 503f 980e 203f
000003c0: f0ad 1dbf ef24 02c0 ca46 293f 2672 36bf
000003d0: 98ad 67bf ed42 293f 3a48 ce3f f1b5 59c0
000003e0: 186f 2f3f 9545 0cbf e7dd 4640 df88 323d
000003f0: 9c61 58bd bf07 263f 99ab 1f3f 62ce 1c3f
0.056511674 1.5501006 0.8662597 -0.039492004 -0.034091797 -0.11344369 0.33876404 2.9987493
-0.022620996 0.24987751 6.4756765 -2.7724745 1.4578964 -3.6590312 -3.3351455 -0.037150048
0.046576846 -0.08571382 0.33461076 -0.13916016 0.027736193 -0.14240518 -3.179367 -0.34870392
-0.07881851 2.217057 -1.7088708 0.006615212 0.82871044 0.036759906 0.030160645 1.4995347
0.044664416 -3.4115129 0.071496814 0.4252183 -0.17219655 -2.8144777 0.69772047 0.05021138
-0.020802505 -2.1849706 -0.4441933 0.10987555 0.15286244 -0.054848686 -0.07699714 0.4393993
-0.49070668 0.14241517 0.97466797 -0.45201164 -1.1155047 -0.43755898 0.12127872 0.0659889
4.7510123 1.6407292 0.5452199 -3.2624142 -0.035738938 -0.97213894 1.3506781 0.24557352
-0.055896133 0.23939027 3.7252464 0.22690019 -0.08404867 -0.1870707 0.4978473 0.32914245
-0.03825378 0.07609991 -0.07623443 3.053094 -0.07618794 -2.6036873 -1.7234478 -0.0071003954
0.4487998 0.9822194 -0.76511276 0.033997066 0.016306616 -4.8239794 0.04091283 0.20168395
0.045354225 0.9203918 -0.1313021 -0.066294804 -0.23245658 -0.19299655 0.22615515 0.037480336
0.07557239 0.15511885 0.62888044 0.22771856 -2.3402498 0.049865264 0.046472955 0.8084966
0.45536792 0.013372043 -0.119742244 0.18935294 0.16081308 -0.05379144 0.28393793 0.1416208
-0.015423091 -0.051609837 0.18971892 0.2753311 -1.5181333 0.19109157 -0.33206826 -1.3079044
-0.06676807 -0.003947276 0.96274054 0.010132814 0.07137038 0.10333132 0.014233706 -0.19880107
-0.07582313 -4.309196 3.668177 0.010851845 0.039496444 -0.450861 -1.3329554 -6.074671
0.768817 -0.62317944 5.4723554 2.9866335 -4.575172 6.593561 2.3230734 0.02933406
-0.5858038 0.073620096 0.40113106 -0.57005095 1.9682729 0.9344268 4.220842 0.7923767
-0.009598204 3.445978 4.0899663 0.740571 2.537165 0.5764429 -0.73483795 -2.751667
-0.06843124 6.3705125 0.60628736 0.22434781 -0.4169187 -1.1718287 4.4205465 -2.0324626
0.07019249 -1.7527732 1.0147468 -0.48339885 0.7062136 0.064534 -0.06816278 0.26751804
0.3803206 -0.7091637 2.5449693 0.7003138 -3.6386392 -3.8453972 -1.1728772 0.03928022
0.9769478 2.2430506 2.0126119 1.6642843 0.84554315 3.558288 4.767054 0.57733977
0.07939832 -0.6662354 -4.132794 -0.7225873 -0.086155266 0.61593366 -1.34222 -1.5902395
0.683692 0.6966348 0.7302884 -4.5066476 0.7497141 3.7642205 3.0293255 -0.7258309
6.6669545 -1.2405599 3.902219 0.5244402 0.6252218 -0.1568071 0.0724968 0.53205705
-0.7747473 1.7707305 0.46462798 -0.07333259 -0.4286113 0.6703286 -1.0852256 -0.47980407
-0.73090214 0.5062518 0.04096658 3.8836176 5.633763 0.019562216 0.6118389 -2.2083552
-0.59549725 0.03181378 0.73323953 0.64454937 0.71935034 0.008974002 0.81363446 0.6252227
-0.6159353 -2.0335042 0.6612364 -0.71267927 -0.9049926 0.66117746 1.6115792 -3.4017298
0.6852889 -0.54793674 3.1072938 0.04358756 -0.052827463 0.6485557 0.6237121 0.61252415

advantage_stream.2.bias f4 [3]
00000000: 57af c1bc b7dd 0a3e 56f2 ea3d
-0.023643179 0.1356114 0.11472003
