game/model/models/q_net_450_50000_128_64_normalized-nonDueling-finalRewardLogic_EPOCH_150.pkl (torch, 113772 bytes, 14 tensors)

net.0.weight f4 [128, 8]
0	0x3eeb75ff	0.4598846
1	0x3e218ec5	0.15777119
2	0x3e049937	0.12949072
3	0xbe91ef75	-0.28503004
4	0xbdb5638c	-0.08856878
5	0x3e27f0fe	0.16400525
6	0xbe800b6f	-0.25008723
7	0x3d9d7c4a	0.07689722
8	0x3eb2bc11	0.34909108
9	0x3cc619c2	0.024182204
10	0x3e2acabf	0.16678904
11	0xbeb1c071	-0.34717134
12	0x3e97988b	0.2960857
13	0x3e4c817f	0.19971274
14	0x3dbd8fe9	0.09255964
15	0xbe428ef9	-0.18999852
16	0x3d901e83	0.0703707
17	0x3e59fe42	0.21288398
18	0x3e0f923e	0.1402063
19	0x3dfef0b1	0.12448252
20	0x3c43cbb0	0.011950418
21	0x3e90608b	0.28198656
22	0x3e974af2	0.29549366
23	0xbe593939	-0.21213235
24	0xbe005a4a	-0.12534443
25	0x3d10b8e7	0.035332587
26	0xbdf5634d	-0.11981831
27	0xbe74d745	-0.23910244
28	0xbeadb5aa	-0.3392766
29	0x3ddbd876	0.10734646
30	0xbe070364	-0.13184887
31	0x3ea28808	0.3174441
32	0xbe6e612e	-0.23279259
33	0xbdf2f336	-0.11862795
34	0xbde37cfb	-0.111078225
35	0xbcf3d1d1	-0.029763134
36	0x3c9eaca2	0.019369427
37	0x3e725f18	0.23669088
38	0xbe8e32af	-0.27773044
39	0xbe891738	-0.26775527
40	0x3e27a1ff	0.1637039
41	0xbe5efc61	-0.21775962
42	0xbd915174	-0.07095614
43	0x3c9b5266	0.01896019
44	0x3d45a47e	0.048252575
45	0x3e474699	0.19460525
46	0xbe0cda12	-0.13755062
47	0x3e0693db	0.1314234
48	0xbec44f74	-0.38341868
49	0x3c9a90eb	0.01886793
50	0x3e7ece15	0.24883302
51	0xbad42ac7	-0.0016187065
52	0xbe27e9ac	-0.16397732
53	0xbd9072d4	-0.07053152
54	0x3dad3608	0.08457571
55	0x3cb6e1c6	0.022324454
56	0xbd6731f1	-0.056444112
57	0x3dc7cc1b	0.09755727
58	0xbd9e1eba	-0.077207044
59	0x3ea98a1f	0.3311319
60	0xbd36e5a6	-0.044652604
61	0x3e4c694e	0.19962046
62	0xbe84e12d	-0.25953045
63	0xbe023ce7	-0.12718545
64	0x3ed9243c	0.42410457
65	0x3e6f3223	0.2335897
66	0x3e5ccd0f	0.21562599
67	0xbce191d3	-0.027535355
68	0x3e979d49	0.29612187
69	0xbc63e843	-0.013910356
70	0x3d908e75	0.070584215
71	0xbeb6fd1c	-0.35739982
72	0xbdb70aea	-0.089376286
73	0x3e8f5048	0.27990937
74	0x3da765b6	0.08173697
75	0xbe903c62	-0.28171068
76	0x3e0d1f20	0.13781404
77	0x3e6c57ae	0.23080322
78	0x3dae76a9	0.085187264
79	0x3eaedf10	0.34154558
80	0xbc9d82b3	-0.019227361
81	0x3e449def	0.19200872
82	0xbe914de7	-0.28379747
83	0xbe1c311d	-0.1525311
84	0xbdf36e24	-0.11886242
85	0xbdac2460	-0.084053755
86	0x3e9c8734	0.30571902
87	0x3d88b122	0.066744104
88	0x3da6e427	0.08148985
89	0x3e98b1dd	0.298232
90	0x3da02cad	0.07821021
91	0xbe74dee9	-0.23913158
92	0xbe465d2e	-0.19371483
93	0x3dd28cb6	0.10280745
94	0x3e9efd11	0.3105245
95	0x3e8543ac	0.26028192
96	0x3e5c5a92	0.21518925
97	0x3ebddc74	0.37082255
98	0x3e8a9f92	0.27074867
99	0xbdf20471	-0.118172534
100	0xbea99423	-0.33120832
101	0xbda91970	-0.08256805
102	0x3e4a2014	0.197388
103	0xbe2f7d7a	-0.1713771
104	0x3e6263c1	0.22108366
105	0x3d49b2d6	0.049242817
106	0xbea78a4f	-0.3272271
107	0xbc30c401	-0.0107889185
108	0xbd72b43c	-0.059253916
109	0xbe243cfd	-0.1603889
110	0x3dde427f	0.10852527
111	0x3df6a897	0.12043875
112	0x3b475b7c	0.003041952
113	0x3dd75e74	0.105160624
114	0x3df97f50	0.12182486
115	0xbcdfdaab	-0.027325949
116	0xbe1da34c	-0.15394324
117	0xbd93749a	-0.07199974
118	0x3e8fd828	0.28094602
119	0x3d9c3d38	0.07628864
120	0xbea05ba8	-0.31319928
121	0xbe7c5bbd	-0.2464437
122	0xbe2fcdbc	-0.17168325
123	0x3ea3d621	0.31999305
124	0xbc4d9dab	-0.012549798
125	0xbdc4a743	-0.09602215
126	0x3e7150bb	0.23565952
127	0x3e9c271a	0.30498582
128	0x3d9dad32	0.0769905
129	0xbeaa6b95	-0.33285204
130	0xbea53d61	-0.3227339
131	0xbe92837a	-0.28615934
132	0x3bba6df5	0.0056893774
133	0xbd65b68d	-0.056082297
134	0x3e9a0fda	0.3009022
135	0x3e840c0b	0.25790438
136	0xbe8c68e5	-0.27423778
137	0x3e471637	0.19442068
138	0x3e748a1c	0.2388081
139	0xbac91254	-0.0015340545
140	0xbe0c46bb	-0.13698857
141	0x3d8538b1	0.06504954
142	0xbe970191	-0.29493383
143	0xbdf40a2b	-0.11916002
144	0xbe123641	-0.14278509
145	0x3e3dd7b0	0.1853931
146	0x3c10b93f	0.008833229
147	0xbdd3cc22	-0.103416696
148	0xbe290d28	-0.16508925
149	0x3e873c9e	0.26413435
150	0xbe8cdeca	-0.27513725
151	0xbe0d337b	-0.1378917
152	0x3e934236	0.28761452
153	0x3e438a83	0.19095807
154	0x3e6567e4	0.22402912
155	0x3dea8636	0.1145138
156	0x3e940c54	0.28915656
157	0x3e836ed6	0.256705
158	0xbe881462	-0.2657805
159	0xbe14b895	-0.14523537
160	0xbc871c22	-0.016492907
161	0x3eba70d4	0.36414206
162	0x3e969867	0.2941315
163	0xbe8aca73	-0.27107581
164	0xbe96a3eb	-0.29421934
165	0x3ea50ec8	0.3223784
166	0x3e1b5cd0	0.15172124
167	0xbd7a407e	-0.06109666
168	0xbec89154	-0.39173377
169	0xbe8ce516	-0.2751853
170	0xbe58e407	-0.21180736
171	0x3d289227	0.041155007
172	0x3e362ed5	0.17791303
173	0xbd93a9c2	-0.07210113
174	0x3e06243c	0.1309976
175	0xbd831b34	-0.06401673
176	0x3e034e3e	0.12822816
177	0xbe9d23ec	-0.3069147
178	0xbdc324e5	-0.095285214
179	0x3e823ed6	0.25438565
180	0x3d62aa34	0.0553381
181	0xbe57af76	-0.21063027
182	0x3ead511c	0.33850944
183	0x3e05f61f	0.13082169
184	0xbe85fd0c	-0.26169622
185	0xbd7dd0df	-0.061966773
186	0x3e9dbd5b	0.3080853
187	0xbea53b2b	-0.32271704
188	0x3e8ae20e	0.2712559
189	0x3e7fcfa9	0.2498156
190	0x3e9ff00f	0.31237838
191	0xbe858c41	-0.26083568
192	0x3ed65579	0.41862085
193	0x3e9fe960	0.31232738
194	0xbd387c5a	-0.045040466
195	0x3da34d5f	0.07973742
196	0x3eab09cb	0.3340591
197	0xbdac3f4a	-0.08410509
198	0x3dc7a5c5	0.09748415
199	0xbde6b2c2	-0.11264564
200	0xbd82d1c5	-0.063876666
201	0xbe9271f0	-0.28602552
202	0xbe88d232	-0.26722866
203	0xbe8b26d4	-0.2717806
204	0x3e7a36b7	0.24434935
205	0x3d661a3b	0.05617736
206	0xbcc51a31	-0.02406034
207	0x3e5a0101	0.21289445
208	0x3e928afd	0.28621665
209	0x3e8b9327	0.27260706
210	0xbe01275d	-0.12612672
211	0x3eb1afc2	0.34704405
212	0xbe041030	-0.128968
213	0x3dcbff05	0.099607505
214	0x3e547f95	0.20751794
215	0x3eaa6347	0.33278868
216	0x3c76bd30	0.015059754
217	0x3d09fc1c	0.033687696
218	0x3e83555e	0.25651067
219	0xbe907b31	-0.28218988
220	0xbe0ad805	-0.13558967
221	0xbe877aa0	-0.26460743
222	0x3e929147	0.28626463
223	0x3e0982a3	0.1342874
224	0xbe54232e	-0.20716545
225	0x3c0ab960	0.008467048
226	0xbe64b6c0	-0.22335339
227	0xbcc181c7	-0.023621453
228	0xbe044810	-0.12918115
229	0xbe0fe1a2	-0.14050916
230	0xbdd3569e	-0.10319255
231	0x3e8d188a	0.27557784
232	0x3b20f3d2	0.002455939
233	0x3d94e68f	0.07270538
234	0x3cea4b2f	0.028600303
235	0x3c4a0b72	0.01233183
236	0x3debd3b1	0.11514986
237	0x3da758c5	0.08171228
238	0x3df9a4a4	0.12189606
239	0x3dde078a	0.10841282
240	0x3cc236b6	0.023707729
241	0x3e4dd70e	0.20101568
242	0xbe38ed8f	-0.18059371
243	0x3e538d8d	0.20659466
244	0xbe1eda19	-0.15512885
245	0xbd34e154	-0.044160202
246	0x3d5a01fe	0.053224556
247	0x3b377e84	0.0027998993
248	0x3dc8d8b6	0.09806959
249	0xbdcab85f	-0.09898447
250	0x3d63ce26	0.05561652
251	0xbe088ed1	-0.1333573
252	0xbe8d4dc8	-0.27598405
253	0xbe6e9040	-0.23297215
254	0xbeac5293	-0.3365675
255	0x3e4696fc	0.19393533

net.0.bias f4 [128]
0	0xbcb5ff6e	-0.022216525
1	0xbde1e1fa	-0.1102943
2	0x3df38587	0.11890703
3	0xbe9b3b1e	-0.3031854
4	0xbe882a9b	-0.26595005
5	0x3e94adf5	0.2903897
6	0x3de456c5	0.111493625
7	0xbeb3bb7e	-0.35103983
8	0xbd8f7ff5	-0.07006828
9	0xbd999d1d	-0.0750067
10	0x3d944ae6	0.07240848
11	0x3e0670a6	0.1312891
12	0xbe04ceed	-0.12969561
13	0xbe88e8b5	-0.2674004
14	0x3dddff6a	0.10839732
15	0xbdd4781d	-0.10374472
16	0x3e85c0a2	0.2612353
17	0x3e671a75	0.22568686
18	0x3e3a9d8a	0.18224159
19	0x3eaeb996	0.34125966
20	0xbe47af96	-0.19500574
21	0x3e80c7ba	0.2515238
22	0xbce72252	-0.028214607
23	0x3de4255c	0.11139938
24	0xbe6e7c84	-0.23289686
25	0x3eb2732a	0.34853488
26	0x3dc17aa6	0.094472215
27	0xbd9d817b	-0.07690712
28	0xbea00255	-0.3125178
29	0xbe6ef61b	-0.2333607
30	0xbe824792	-0.2544523
31	0xbd90e201	-0.07074357
32	0xbdcd498e	-0.10023795
33	0x3e1542c5	0.14576252
34	0x3e2c8a42	0.16849616
35	0xbe090e4d	-0.13384362
36	0xbddbc3fc	-0.107307404
37	0xbcec15b1	-0.028818937
38	0xbd810ff8	-0.06301874
39	0x3cbe4ec8	0.023230925
40	0x3e337fc6	0.1752921
41	0x3d861592	0.06547083
42	0xbe2b1cf1	-0.16710259
43	0x3e4d546a	0.20051733
44	0xbe97cbe6	-0.2964775
45	0x3df67fa4	0.12036064
46	0xbdfd0ed8	-0.12356347
47	0x3c13278e	0.008981599
48	0x3e088dfd	0.13335414
49	0xbe5d817a	-0.21631423
50	0x3e878268	0.2646668
51	0xbde5280d	-0.1118928
52	0x3e97cb90	0.29647493
53	0xbe43df95	-0.19128259
54	0xbeadeddf	-0.33970544
55	0x3ddf1f92	0.108946934
56	0xbe844a7b	-0.25838074
57	0xbe56192b	-0.20908038
58	0xbe83469e	-0.25639814
59	0x3eb06d5f	0.34458444
60	0xbe17d958	-0.14829004
61	0x3e47ff20	0.19530916
62	0xbe5079dc	-0.20358986
63	0xbe0e2024	-0.13879448
64	0xbe9659c1	-0.29365352
65	0x3b5f4bef	0.003407236
66	0x3e7d9059	0.24762096
67	0xbe0be9e7	-0.13663445
68	0x3e50be71	0.20385148
69	0x3ead74c4	0.33878148
70	0xbd5f2c10	-0.05448538
71	0x3e2e8b67	0.17045365
72	0x3e28117d	0.16412921
73	0xbcc94508	-0.02456905
74	0xbd964259	-0.073368736
75	0x3e40e5ae	0.18837616
76	0xbd30d992	-0.04317624
77	0xbd16ebd0	-0.036845982
78	0xbe9b7377	-0.3036153
79	0xbe69ee77	-0.22844873
80	0xbdaa0483	-0.08301642
81	0x3c23eff5	0.010005941
82	0xbe8a0f27	-0.26964685
83	0xbe05fd6c	-0.13084954
84	0x3dd66d9f	0.10470127
85	0xbe39777e	-0.18111989
86	0xbdc8ce9f	-0.09805035
87	0x3eaccdcb	0.33750758
88	0x3e1988f9	0.14993657
89	0x3d3cdd91	0.04610974
90	0xbe99d8ef	-0.3004832
91	0x3e83a98d	0.25715294
92	0x3e98610b	0.29761538
93	0xbe41ae7e	-0.1891422
94	0x3e4127b5	0.18862803
95	0xbd0bb181	-0.034104828
96	0xbeaadcb4	-0.33371508
97	0x3e8a46f4	0.27007258
98	0xbd1078c3	-0.035271417
99	0xbe1ef6d9	-0.15523852
100	0x3e67aace	0.2262375
101	0xbe78aadf	-0.24283932
102	0x3e913c7d	0.2836646
103	0xbd90f4ee	-0.07077967
104	0x3e93fb33	0.28902587
105	0x3ea22525	0.31668964
106	0x3d98ece8	0.07467061
107	0xbdaa192e	-0.08305584
108	0x3d886998	0.066607654
109	0x3d532707	0.05155089
110	0xbead8fa5	-0.33898655
111	0x3c8218c1	0.015880944
112	0xbe1886d2	-0.1489518
113	0xbd0fa129	-0.035065804
114	0x3e72d3d6	0.23713621
115	0xbe6ea0b9	-0.23303498
116	0x3caf92ee	0.021432366
117	0xbe60525c	-0.21906418
118	0x3e6709ab	0.22562282
119	0x3d8dbd9a	0.06920929
120	0x3e81428e	0.2524609
121	0xbe1554b9	-0.145831
122	0xbe4bdaf4	-0.19907743
123	0xbc8b3b8f	-0.016996173
124	0xbdf3acc4	-0.11898187
125	0xbe916417	-0.28396675
126	0x3e1566d5	0.14590009
127	0x3e94ba52	0.290484

net.2.weight f4 [128]
0	0x3f817287	1.0113076
1	0x3f80f1bf	1.0073775
2	0x3f7a5c9d	0.97797567
3	0x3f7cc232	0.9873382
4	0x3f7d158a	0.9886099
5	0x3f7ffadd	0.9999216
6	0x3f82384a	1.0173428
7	0x3f7e4b34	0.993335
8	0x3f863c96	1.0487239
9	0x3f81db26	1.0145004
10	0x3f7b7c0a	0.98236144
11	0x3f7e987c	0.9945142
12	0x3f80ba6e	1.0056894
13	0x3f803665	1.00166
14	0x3f7ec714	0.9952252
15	0x3f837039	1.0268623
16	0x3f7f7db0	0.9980116
17	0x3f7cca2b	0.98745984
18	0x3f7e47b4	0.9932816
19	0x3f7ef3ff	0.9959106
20	0x3f829685	1.0202185
21	0x3f8782a1	1.058674
22	0x3f7c6353	0.98589057
23	0x3f7bbe7d	0.9833754
24	0x3f80d2ba	1.0064309
25	0x3f7d8013	0.9902355
26	0x3f80a5f2	1.0050642
27	0x3f7ccfc9	0.98754555
28	0x3f7daf50	0.9909563
29	0x3f7c5729	0.98570496
30	0x3f7e52cf	0.99345106
31	0x3f800ed6	1.0004528
32	0x3f829e67	1.020459
33	0x3f80e43d	1.0069653
34	0x3f8127a4	1.0090222
35	0x3f820286	1.015702
36	0x3f8109d1	1.0081121
37	0x3f814b02	1.0101016
38	0x3f801f76	1.0009601
39	0x3f804224	1.0020185
40	0x3f7bef61	0.9841214
41	0x3f8151dc	1.0103106
42	0x3f80a408	1.0050058
43	0x3f7bc018	0.98339987
44	0x3f7e2d8c	0.9928825
45	0x3f817540	1.0113907
46	0x3f8023b0	1.0010891
47	0x3f7ddce7	0.99165195
48	0x3f81e912	1.0149252
49	0x3f7ec39f	0.99517244
50	0x3f7be6b1	0.9839888
51	0x3f85c82f	1.0451716
52	0x3f83f285	1.0308386
53	0x3f7e6eb1	0.9938765
54	0x3f7f1544	0.99641824
55	0x3f80e41b	1.0069612
56	0x3f80b354	1.0054727
57	0x3f812217	1.0088528
58	0x3f7f0fb8	0.9963336
59	0x3f800346	1.0000999
60	0x3f801248	1.0005579
61	0x3f806c0f	1.0032977
62	0x3f7fc6dd	0.99912816
63	0x3f818fc5	1.0122
64	0x3f8017df	1.0007285
65	0x3f7f4962	0.9972135
66	0x3f80490b	1.0022291
67	0x3f8211ba	1.016166
68	0x3f7d6b12	0.989915
69	0x3f81c972	1.0139601
70	0x3f7e115b	0.9924523
71	0x3f7dd7e5	0.99157554
72	0x3f7cfd70	0.98824215
73	0x3f7f6297	0.9975981
74	0x3f80723f	1.0034865
75	0x3f7faab2	0.99869835
76	0x3f814b80	1.0101166
77	0x3f80654c	1.0030913
78	0x3f7ead27	0.9948296
79	0x3f8091ed	1.0044533
80	0x3f8038ec	1.0017371
81	0x3f7fc262	0.9990598
82	0x3f7d6df9	0.9899593
83	0x3f814660	1.0099602
84	0x3f7e5d8a	0.9936148
85	0x3f7b8d0d	0.982621
86	0x3f7ff6d1	0.99985987
87	0x3f80cce1	1.0062524
88	0x3f814dfd	1.0101925
89	0x3f7cd691	0.987649
90	0x3f7e7b28	0.9940667
91	0x3f82cdb0	1.0219021
92	0x3f7e2622	0.99276936
93	0x3f800d1a	1.0003998
94	0x3f7d425b	0.98929375
95	0x3f80aab0	1.005209
96	0x3f801db8	1.000907
97	0x3f809d2c	1.0047965
98	0x3f7ddf1c	0.9916856
99	0x3f817585	1.0113989
100	0x3f7d606a	0.9897524
101	0x3f7e06b8	0.99229
102	0x3f822bfa	1.016967
103	0x3f7f9265	0.99832755
104	0x3f822040	1.0166092
105	0x3f7cc262	0.98734105
106	0x3f80f4ee	1.0074747
107	0x3f80c114	1.0058923
108	0x3f802309	1.0010692
109	0x3f7ea197	0.99465317
110	0x3f811c6e	1.0086801
111	0x3f80e4a8	1.006978
112	0x3f8033fc	1.0015864
113	0x3f814d50	1.0101719
114	0x3f7f4b1b	0.99723977
115	0x3f806aef	1.0032634
116	0x3f8171f4	1.0112901
117	0x3f80075f	1.000225
118	0x3f7eed10	0.9958048
119	0x3f803568	1.0016298
120	0x3f7f692b	0.9976985
121	0x3f7e4ada	0.99332964
122	0x3f7f8530	0.99812603
123	0x3f7f7353	0.99785346
124	0x3f803ee9	1.0019199
125	0x3f7e539c	0.9934633
126	0x3f7dbdfb	0.9911801
127	0x3f802ee9	1.0014316

net.2.bias f4 [128]
0	0x3babe83c	0.0052461904
1	0xbbad2232	-0.0052836174
2	0xbc8060be	-0.01567113
3	0x3c5387fb	0.012910838
4	0x3c414cd6	0.011798104
5	0xbb7df41d	-0.003875024
6	0xbb9b2485	-0.004734578
7	0x3be7e662	0.0070770243
8	0xbbb09164	-0.0053884257
9	0xbb0570ee	-0.00203615
10	0xbb8dfea9	-0.0043333364
11	0xbc03fed4	-0.008056361
12	0x3c0915c0	0.008367002
13	0xbaff96ed	-0.0019499935
14	0xbbaada1c	-0.005213989
15	0x3bf19967	0.0073730233
16	0xbb8b924b	-0.004259383
17	0xbb3d406d	-0.0028877512
18	0xbbec44f5	-0.0072103688
19	0xbb75b1d6	-0.0037490032
20	0xbc0c2514	-0.008553762
21	0xbbc8496a	-0.0061122673
22	0x3b3f997a	0.0029235766
23	0xbc3a2647	-0.011361665
24	0x3ba9bb77	0.0051798183
25	0xba293371	-0.0006454504
26	0xbb700925	-0.0036626544
27	0xbb379e91	-0.0028018097
28	0x3c111f99	0.008857631
29	0x3c6b4981	0.014360786
30	0x3bd16d69	0.0063912165
31	0xb9e9a64d	-0.00044565127
32	0xbb89c528	-0.004204411
33	0xbc582bbd	-0.013194022
34	0xbb5c6e16	-0.0033634952
35	0xbbf6fb3f	-0.007537275
36	0xbc00081e	-0.007814435
37	0x3c308df9	0.010776036
38	0x3b69c700	0.0035671592
39	0xbbbf781d	-0.005843176
40	0x3b5e80a4	0.0033951188
41	0x3a883831	0.0010392723
42	0x3b729dd0	0.0037020333
43	0xbc1c58ad	-0.009542626
44	0x3bdf2656	0.00680999
45	0x3b267bdc	0.0025403416
46	0x3baf334b	0.005346691
47	0x3c1a8691	0.009431497
48	0xbc00c88e	-0.007860316
49	0x3ba52167	0.0050393823
50	0xbbafa05e	-0.0053596934
51	0x3ba1501b	0.0049228794
52	0xbbd2ad65	-0.0064293616
53	0x3bc71e52	0.0060766125
54	0x3b775a15	0.0037742902
55	0x3a5e0478	0.0008469294
56	0xbbbbbc50	-0.0057292357
57	0x3bef65ad	0.007305822
58	0x3ba699dc	0.0050842594
59	0xbba4130c	-0.0050071534
60	0xbb32f426	-0.0027306168
61	0xbb28bfd0	-0.0025749095
62	0x3c2da1ea	0.010597685
63	0x3badd28a	0.005304639
64	0xb99254cb	-0.00027910466
65	0xbb9af722	-0.0047291676
66	0x3b86cea0	0.004113987
67	0xbbd14c40	-0.0063872635
68	0xbbf396c0	-0.0074337423
69	0x3bd657aa	0.006541212
70	0x3bd626cf	0.006535388
71	0x3b3e5ed8	0.002904823
72	0xba360bcc	-0.0006944507
73	0x3b3f6c73	0.0029208928
74	0x3b3f315c	0.0029173708
75	0xbbf01b7e	-0.007327496
76	0xba6a9647	-0.00089487847
77	0x3c1eac6a	0.009684661
78	0x3bc346a3	0.0059593483
79	0xbb9af414	-0.0047288034
80	0xbb287189	-0.0025702438
81	0xbade928e	-0.0016980933
82	0x3c38a863	0.011270615
83	0xbb8d00dd	-0.0043030814
84	0xbbf3430a	-0.007423763
85	0x3c8ff3e3	0.017572349
86	0x3bbd6212	0.005779513
87	0x3b2c673f	0.0026306657
88	0x3b9f6810	0.0048647
89	0x3b8ede77	0.004360016
90	0x3bcfa1cd	0.006336427
91	0x3a2fcafb	0.00067059667
92	0xbbb6b18b	-0.005575364
93	0xb969156f	-0.00022228596
94	0xbc274e61	-0.010211558
95	0x3b69411c	0.0035591787
96	0xb93f997d	-0.00018272358
97	0xbb6ce5df	-0.0036147756
98	0x3bcf225e	0.0063212356
99	0x3ba0af02	0.004903675
100	0x3b86fc82	0.0041194567
101	0x3c4adccc	0.012381744
102	0xbab50d49	-0.0013813163
103	0xbba4a817	-0.0050249207
104	0x3a8b2673	0.0010616317
105	0xbc3ba8de	-0.011453835
106	0x3c23ccc2	0.009997549
107	0xbb69fd4f	-0.0035703962
108	0xbb855e20	-0.0040700585
109	0x3ac6e894	0.0015175515
110	0x3aeb17e3	0.0017936196
111	0x3c0ac009	0.008468636
112	0x3b40ea3f	0.0029436497
113	0xba971553	-0.0011526741
114	0xba2485bb	-0.0006276031
115	0xbb3a34c4	-0.0028412798
116	0x3c2cbd95	0.010543247
117	0x3bf9c2a4	0.00762208
118	0xbb1782f3	-0.0023118823
119	0x3b6c650b	0.0036070968
120	0xbb2d408f	-0.0026436185
121	0x3be9b040	0.0071316063
122	0x3bb6b209	0.0055754227
123	0x3a1e9272	0.0006049044
124	0x3a8e7a99	0.0010870277
125	0x3be29aa2	0.0069154063
126	0xbb1fb837	-0.0024371275
127	0x39a8cf11	0.00032197734

net.3.weight f4 [128, 128]
0	0x3ca97964	0.020687766
1	0x3af9660f	0.0019027608
2	0x3d8d4c7c	0.06899354
3	0xba08586d	-0.0005201165
4	0x3d9807d6	0.074233696
5	0x3d78db48	0.060755998
6	0x3c971495	0.018442431
7	0x3d172b27	0.036906388
8	0x3d217605	0.039419193
9	0xbceae5ca	-0.028674025
10	0xbd2dc6c8	-0.0424259
11	0x3d911713	0.07084479
12	0x3cca265a	0.02467649
13	0x3d0545df	0.032537337
14	0x3d2f64a9	0.042820606
15	0x3da65fcb	0.0812374
16	0xbbccce15	-0.006250153
17	0xbd67f82e	-0.056633167
18	0x3d898ddc	0.06716511
19	0xbbd1ba5b	-0.006400389
20	0xbd989efb	-0.07452198
21	0x3c9f5b09	0.019452589
22	0xbc22fc6b	-0.009947876
23	0xbd1eb95f	-0.038751002
24	0x3d8423bf	0.064521305
25	0xbbdfae60	-0.006826207
26	0x3d9acc66	0.07558517
27	0x3d53651a	0.05161009
28	0x3d0c8718	0.034308523
29	0x3c9e0a71	0.019292088
30	0x3bf839f2	0.007575267
31	0x3da1f326	0.07907705
32	0xbda46dde	-0.08028768
33	0xbd1b4d36	-0.03791543
34	0x3c5c9f06	0.0134656485
35	0xbd7d7746	-0.061881326
36	0xbd834798	-0.0641014
37	0x3cdd8ead	0.027045572
38	0x3d91300b	0.070892416
39	0xbd6874f5	-0.056752164
40	0xbd17101a	-0.03688059
41	0xbd5cf3d1	-0.05394346
42	0x38a14bad	7.691174e-05
43	0x3c1cb678	0.009564988
44	0x3d8eaef5	0.06966964
45	0xbd47fa63	-0.04882277
46	0xbc52c9b6	-0.012865474
47	0x3c984482	0.018587355
48	0x3d20fe94	0.039305285
49	0xbd1d1710	-0.038352072
50	0x3da90c0e	0.082542524
51	0xbd6628c5	-0.056191225
52	0xbc61123f	-0.01373726
53	0xbd1aeeee	-0.037825517
54	0x3d8111ee	0.06302248
55	0xbd06c27b	-0.032900315
56	0x3d4f0a2f	0.05054682
57	0xbd9015eb	-0.070354305
58	0xbd246978	-0.040139645
59	0x3d19ed4c	0.03757982
60	0x3d969dda	0.073543265
61	0x3db7f13c	0.08981559
62	0xbc86cc93	-0.01645497
63	0xbd62331c	-0.055224523
64	0x3db16573	0.08661928
65	0xbd10032f	-0.035159286
66	0x3da18ac8	0.078877985
67	0x3db770c6	0.08957057
68	0x3da725a7	0.081614785
69	0x3d8674f5	0.065652765
70	0x3c359068	0.011081792
71	0xbba204b6	-0.0049444092
72	0x3d234bc9	0.039867196
73	0xbd49da93	-0.049280714
74	0xbc8bdbf2	-0.017072652
75	0xbcc47f76	-0.02398656
76	0xbd5fc049	-0.054626737
77	0x3da3911e	0.07986663
78	0xbd307671	-0.043081705
79	0xbd45ee16	-0.04832276
80	0x3bded3ac	0.0068001356
81	0x3b0d58c4	0.00215678
82	0x3ccf0b29	0.025273876
83	0xbc51e54a	-0.012811014
84	0x3cc38c1b	0.023870518
85	0xbd8b9979	-0.06816382
86	0xbd6ca402	-0.057773598
87	0xbca27661	-0.019831838
88	0xbd525038	-0.051346034
89	0x3d9298bd	0.07158039
90	0x3d18dcdf	0.037320014
91	0x3d2b51bd	0.041826
92	0xbda35c3f	-0.07976579
93	0x3cff3379	0.031152474
94	0x3d0baeb5	0.03410216
95	0x3d12d636	0.03584882
96	0xbcf3d57c	-0.029764883
97	0xbd24e519	-0.040257547
98	0xbd32eff4	-0.04368587
99	0x3c8e55fc	0.017374985
100	0xbd8787e0	-0.06617713
101	0xbd193c3b	-0.037410956
102	0x3d3bb4b8	0.045826644
103	0x3da26b29	0.079305954
104	0xbce5f709	-0.028071897
105	0xbd747827	-0.0596849
106	0xbca4d793	-0.020122325
107	0xbd9e944b	-0.077431284
108	0x3c786e33	0.015162992
109	0xbdb640b4	-0.0889906
110	0x3da1954a	0.07889803
111	0x3db56950	0.088579774
112	0xbd67ffea	-0.056640543
113	0xbc9dee47	-0.019278659
114	0x3d573bbc	0.0525472
115	0x3cc10ab4	0.023564674
116	0xbd2603c3	-0.04053093
117	0x3cdb44ac	0.026766144
118	0xbd9889ce	-0.07448159
119	0xbb6a5f41	-0.0035762342
120	0xbd68a032	-0.0567934
121	0x3c2396bf	0.009984671
122	0x3d778ad2	0.060435124
123	0x3cd9409f	0.026520072
124	0x3be52d43	0.006993921
125	0x3da8970f	0.08231937
126	0x3b2dc41c	0.0026514595
127	0x3db8d14e	0.09024297
128	0x3c50f99e	0.012754826
129	0x3db2f79b	0.08738633
130	0x3bf4df1b	0.0074728853
131	0x3daf8905	0.08571056
132	0x3d537fbb	0.051635485
133	0x3d528c46	0.051403306
134	0x3bd5a962	0.006520436
135	0xbd84c2bf	-0.06482457
136	0x3d07f80a	0.033195533
137	0xbda25051	-0.079254754
138	0x3da7f485	0.08200935
139	0x3cb1da41	0.021710517
140	0x3d0d0044	0.03442408
141	0x3c8c3615	0.017115632
142	0x3d92c0c7	0.071656756
143	0x3d3ae86c	0.04563181
144	0x3ba596b2	0.0050533647
145	0x3c46e2c1	0.012139023
146	0xbcafdf66	-0.02146883
147	0xbce841cf	-0.028351692
148	0xbd9543fb	-0.07288357
149	0x3c5350b4	0.012897659
150	0xbd9a4fa2	-0.0753472
151	0xbd40f271	-0.04710621
152	0x3c7b5612	0.015340345
153	0x3bf0c73e	0.0073479703
154	0xbd3ccb9b	-0.04609261
155	0xbc561f9a	-0.013069058
156	0x3d398542	0.0452931
157	0x3dad84ff	0.084726326
158	0x3da0aea1	0.07845808
159	0x3db71780	0.08940029
160	0xbd348969	-0.044076357
161	0x3cbad66b	0.02280732
162	0xba34b159	-0.0006892882
163	0xbdb31280	-0.08743763
164	0xbd308b57	-0.043101635
165	0xbd50938c	-0.05092196
166	0xbd969ae4	-0.07353762
167	0x3cbffadb	0.023435047
168	0xbcd55543	-0.026041633
169	0xbd6144f8	-0.054997414
170	0x3c582e34	0.013194609
171	0xbd8b35cc	-0.0679737
172	0xbd735bdb	-0.059413772
173	0xbc835079	-0.016029583
174	0x3d251b34	0.040309146
175	0xbd36d7a4	-0.044639245
176	0x3d5d2eee	0.053999834
177	0x3d8a98b1	0.06767405
178	0xbc892c16	-0.016744655
179	0x3cf85cd6	0.030317705
180	0xbd9a4193	-0.075320385
181	0x3c3602fc	0.01110911
182	0x3d47ad9a	0.048749544
183	0x3cd09ccb	0.02546539
184	0xbd24aa97	-0.04020175
185	0xbcbafe1e	-0.02282625
186	0xbd2a9069	-0.041641627
187	0xbd999953	-0.074999474
188	0xbda59952	-0.08085884
189	0x3d370097	0.044678297
190	0xbd49a2cd	-0.049227525
191	0xbcc0eec1	-0.023551347
192	0xbc9f34a7	-0.019434286
193	0xbd5c06bb	-0.053717356
194	0xbcbf0cf8	-0.023321614
195	0x3da9ba23	0.08287456
196	0xbd66c2af	-0.05633801
197	0xbc86583a	-0.016399492
198	0xbc26b367	-0.010174609
199	0xbda2b1aa	-0.07944043
200	0x3d3487fc	0.044074997
201	0x3d71bb7f	0.0590167
202	0x3d98a808	0.074539244
203	0x3d54aec8	0.051924497
204	0xbcbb773a	-0.022884
205	0x3d2786f6	0.040900193
206	0xbd877953	-0.06614938
207	0xbd7cd6ea	-0.061728396
208	0xbbb17b99	-0.0054163453
209	0x3d781fb5	0.060577113
210	0x3d3228dc	0.043495998
211	0xbd9fee92	-0.078091756
212	0xbda7f591	-0.08201135
213	0x3d52af20	0.051436543
214	0x3da4d95e	0.08049272
215	0x3c21b7f2	0.009870516
216	0xbcf53e1c	-0.029936843
217	0x3dab070a	0.08350952
218	0xbda0c80f	-0.07850658
219	0x3da20511	0.079111226
220	0xbd76b8b4	-0.06023474
221	0x3c43db1c	0.011954095
222	0xbd949297	-0.07254522
223	0x3d3f5c08	0.046718627
224	0x3adf255a	0.0017024681
225	0xbd16ee54	-0.03684838
226	0xbc0f4260	-0.008743852
227	0x3d9d578a	0.076827124
228	0x3d883041	0.06649829
229	0xbd95b3dd	-0.07309697
230	0x3d6ae898	0.057350725
231	0x3d86bb02	0.06578638
232	0x3d82db32	0.063894644
233	0xbd864898	-0.06556815
234	0x3d0f617a	0.03500507
235	0xbd8be77f	-0.06831264
236	0x3c3ab25e	0.011395065
237	0x3aad7513	0.0013233743
238	0xbd7fc747	-0.062445905
239	0x3d5998c4	0.053124204
240	0xbb7016c8	-0.0036634672
241	0xbd76e7ee	-0.06027978
242	0xb9a649c7	-0.00031716956
243	0x3d2c5fe7	0.042083647
244	0x3d936dea	0.07198699
245	0xbd52fbb4	-0.051509574
246	0x3d0a5183	0.033769142
247	0x3d9675ab	0.07346662
248	0x3ad698a6	0.0016372397
249	0xbce375bd	-0.027766103
250	0x3d2bc58d	0.041936446
251	0xbd564dd8	-0.05232033
252	0x3c6a0d45	0.01428539
253	0x3b9a8bd0	0.004716374
254	0xbd46bfc7	-0.048522737
255	0xbd6fe398	-0.05856666

net.3.bias f4 [128]
0	0xbd1baa16	-0.038004003
1	0x3d12581a	0.03572855
2	0xbc209e9a	-0.009803439
3	0x3ceea626	0.02913196
4	0xbbad3099	-0.0052853343
5	0xbda5f624	-0.08103588
6	0x3d8df79a	0.06931992
7	0xbd15bf58	-0.036559433
8	0x3d9b8dee	0.0759543
9	0xbdb2fd6a	-0.08739741
10	0xbd985fd9	-0.074401565
11	0xbcdf0760	-0.027225196
12	0xbcdf70f0	-0.027275532
13	0xbdb84342	-0.089972034
14	0xbd4022e1	-0.046908263
15	0x3d8da8a1	0.06916929
16	0x3d8b613c	0.06805655
17	0x3d97e5c4	0.07416871
18	0xbdaddd76	-0.08489506
19	0xbd6cd980	-0.05782461
20	0x3cfb4ba3	0.030675715
21	0xbce06e61	-0.027396383
22	0x3d7935e8	0.060842425
23	0xbdc2525f	-0.09488367
24	0x3d759dea	0.05996505
25	0x3d04f603	0.032461178
26	0x3d95c409	0.07312781
27	0x3d331863	0.04372443
28	0x3d3dc563	0.04633082
29	0x3d0b7f30	0.034056842
30	0x3d31cf0a	0.04341034
31	0xbd8b9ea0	-0.06817365
32	0x3cde76ce	0.02715626
33	0x3ce4dc2e	0.027937021
34	0x3d233269	0.039842997
35	0x39b9aa4f	0.0003541284
36	0x3cdfc5c7	0.027315987
37	0xbd8adbd7	-0.067802124
38	0xbd7beb54	-0.061503723
39	0xbd1370c0	-0.0359962
40	0xbc94f18f	-0.01818159
41	0x3bd9fa50	0.006652154
42	0xbd8d2fc5	-0.06893877
43	0xbd4985d9	-0.049199913
44	0xbc658161	-0.014007897
45	0x3d949bd7	0.072562866
46	0x3d913f0e	0.07092105
47	0xbc6c25df	-0.014413326
48	0x3d8c5c57	0.0685355
49	0x3c971a7c	0.018445246
50	0x3ce3166f	0.027720658
51	0xbd35c054	-0.04437287
52	0xbbf1f1ef	-0.007383577
53	0x3d94200f	0.07232677
54	0x3d7674db	0.060170036
55	0xbda83d55	-0.08214823
56	0x3da95aab	0.08269247
57	0x3d4de609	0.050268207
58	0x3d6b1411	0.057392184
59	0x3d3dda1c	0.046350583
60	0x3cbed36b	0.023294171
61	0xbb95c11e	-0.0045701405
62	0xbd71e512	-0.05905635
63	0xbd1cbe4b	-0.038267415
64	0xbd8787a5	-0.06617669
65	0xbc0d98ec	-0.008642416
66	0xbcedf683	-0.02904821
67	0xbd388c5d	-0.045055736
68	0x3b7f46d3	0.0038952127
69	0xbd613669	-0.05498353
70	0x3d255d74	0.040372327
71	0x3d75a8ff	0.05997562
72	0x3d100ca1	0.035168294
73	0xbc81fc17	-0.015867276
74	0xbcc9d0b1	-0.024635645
75	0x3d4881b3	0.048951816
76	0x3d99c145	0.07507566
77	0x3cf886ba	0.03033768
78	0xbcaea27d	-0.021317715
79	0x3d840bd1	0.06447566
80	0xbcc8bf73	-0.024505353
81	0x3d177e60	0.036985755
82	0x3cf2b1b9	0.02962576
83	0xbd71a248	-0.058992654
84	0xbd9e8a39	-0.07741208
85	0xbdb43e0c	-0.08800897
86	0xbd4cfe4f	-0.050047215
87	0xbdb3e1cb	-0.08783301
88	0xbd574566	-0.052556418
89	0x3d381dde	0.04495036
90	0x3d873639	0.06602139
91	0x3d90f941	0.070787914
92	0x3d37aed5	0.044844467
93	0x3d08aa9f	0.033365842
94	0x3cbf9d7f	0.02339053
95	0xbd8ccdca	-0.06875189
96	0x3d1a0c85	0.037609596
97	0xbd3826a2	-0.044958718
98	0xbcf95724	-0.03043706
99	0x3c8bd34c	0.017068528
100	0x3ccd686a	0.025074203
101	0x3981987c	0.00024718407
102	0x3d80999c	0.06279299
103	0xbdbed65a	-0.09318228
104	0x3d9c5102	0.076326385
105	0x3a532f96	0.0008056102
106	0xbb8ea897	-0.0043535936
107	0xbdc1a6cc	-0.09455642
108	0xbd82d56f	-0.063883655
109	0xbd974eca	-0.07388075
110	0x3d6c1e69	0.05764619
111	0x3c6949e6	0.01423881
112	0x3cce8b73	0.025212979
113	0xbd98f80e	-0.07469188
114	0xbd0ed150	-0.034867585
115	0xbd171993	-0.036889624
116	0x3b54f1da	0.0032492788
117	0x3d8634cf	0.06553041
118	0xbce5d582	-0.02805591
119	0xbbb75004	-0.0055942554
120	0x3bf57f77	0.0074920016
121	0xbd4a6b6d	-0.049418855
122	0x3d972b5a	0.073813155
123	0xbd95d40b	-0.073158346
124	0x3d8fd5aa	0.07023175
125	0xbd4336d7	-0.04765972
126	0xbc4831c0	-0.012218893
127	0x3d151b84	0.036403194

net.5.weight f4 [128]
0	0x3f7b1505	0.9807895
1	0x3f8042cc	1.0020385
2	0x3f80625c	1.0030017
3	0x3f822a8e	1.0169237
4	0x3f81d5fb	1.0143427
5	0x3f7fb6c1	0.99888235
6	0x3f7f8628	0.9981408
7	0x3f8206a8	1.0158281
8	0x3f80bce1	1.0057641
9	0x3f805ad3	1.0027717
10	0x3f7c1e8a	0.984841
11	0x3f80334d	1.0015656
12	0x3f7dae44	0.99094033
13	0x3f837ab3	1.027182
14	0x3f7ee6b1	0.9957076
15	0x3f7c79f6	0.986236
16	0x3f8079be	1.0037153
17	0x3f848250	1.0352268
18	0x3f7e978e	0.99450004
19	0x3f80e970	1.007124
20	0x3f813344	1.009377
21	0x3f84c7a8	1.037343
22	0x3f804c0d	1.0023209
23	0x3f7cef29	0.9880243
24	0x3f7c2b2a	0.98503363
25	0x3f809e07	1.0048226
26	0x3f80619e	1.002979
27	0x3f7ec9c0	0.99526596
28	0x3f81be46	1.0136192
29	0x3f7fd3be	0.9993247
30	0x3f7ec40d	0.995179
31	0x3f7b1dee	0.98092544
32	0x3f7cdb3f	0.98772043
33	0x3f81ce62	1.0141108
34	0x3f81cd1c	1.014072
35	0x3f8177d1	1.011469
36	0x3f7d3ab5	0.98917705
37	0x3f7d2994	0.9889157
38	0x3f803206	1.0015266
39	0x3f7ffca9	0.99994904
40	0x3f8231a2	1.0171397
41	0x3f7d91a8	0.9905038
42	0x3f8067f1	1.003172
43	0x3f7fd11e	0.9992846
44	0x3f7c3853	0.98523444
45	0x3f8da5ae	1.1066186
46	0x3f7cf229	0.9880701
47	0x3f7c9598	0.9866576
48	0x3f7fed05	0.9997104
49	0x3f8045cc	1.00213
50	0x3f80581c	1.0026889
51	0x3f7ea895	0.99475986
52	0x3f7dff1d	0.99217397
53	0x3f7fc145	0.9990428
54	0x3f822bd0	1.016962
55	0x3f814d2e	1.0101678
56	0x3f895a0e	1.0730608
57	0x3f8064d5	1.0030771
58	0x3f8300f7	1.023467
59	0x3f87b6a4	1.0602612
60	0x3f80eba0	1.0071907
61	0x3f7e1e0d	0.99264604
62	0x3f7e2750	0.99278736
63	0x3f7d21fc	0.9887998
64	0x3f80aecd	1.0053345
65	0x3f81a5ae	1.0128686
66	0x3f813460	1.0094109
67	0x3f814203	1.009827
68	0x3f7e6215	0.9936841
69	0x3f7b0540	0.98054886
70	0x3f81237e	1.0088956
71	0x3f849ebc	1.0360942
72	0x3f8318db	1.024196
73	0x3f8b6b5b	1.0892137
74	0x3f8c71ce	1.097223
75	0x3f7b020d	0.98050004
76	0x3f7ffdb5	0.999965
77	0x3f7f83cf	0.998105
78	0x3f7accb8	0.97968626
79	0x3f7cb9f6	0.98721254
80	0x3f793f7e	0.97362506
81	0x3f8186e6	1.0119293
82	0x3f9b0e48	1.2113733
83	0x3f815fca	1.0107358
84	0x3f811de6	1.0087249
85	0x3f7beb49	0.9840589
86	0x3f81fbab	1.0154928
87	0x3f7f808e	0.99805534
88	0x3f823165	1.0171324
89	0x3f7e7fec	0.99413943
90	0x3f7ff0df	0.99976915
91	0x3f7e8321	0.99418837
92	0x3f7ca2a7	0.9868569
93	0x3f80f4f4	1.0074754
94	0x3f8261fe	1.0186155
95	0x3f7aba61	0.9794064
96	0x3f86852c	1.0509391
97	0x3f8ac6ea	1.0841954
98	0x3f7cb358	0.98711157
99	0x3f825c0b	1.0184339
100	0x3f7ce56c	0.9878757
101	0x3f972b36	1.1810062
102	0x3f805e6d	1.0028816
103	0x3f7f08c0	0.99622726
104	0x3f7fcb4e	0.99919593
105	0x3f80591d	1.0027195
106	0x3f80f1e6	1.0073822
107	0x3f82c2c0	1.0215683
108	0x3f805a36	1.002753
109	0x3f7bb4f6	0.98323
110	0x3f810b08	1.0081491
111	0x3f810b3a	1.0081551
112	0x3f8107e6	1.0080535
113	0x3f816c05	1.011109
114	0x3f7d6749	0.98985726
115	0x3f80e66b	1.0070318
116	0x3f84df7c	1.0380702
117	0x3f7f1f44	0.9965708
118	0x3f808a65	1.0042235
119	0x3f805c09	1.0028087
120	0x3f8c130e	1.0943315
121	0x3f7fb34f	0.9988298
122	0x3f7cf3fa	0.9880978
123	0x3f8bfa83	1.0935825
124	0x3f8614c9	1.0475093
125	0x3f7fa4a3	0.9986059
126	0x3f80c110	1.0058918
127	0x3f80dd1a	1.0067475

net.5.bias f4 [128]
0	0x3c3b4d66	0.011432027
1	0xbb8e77e5	-0.0043477886
2	0xbbc8ba11	-0.0061256965
3	0xbbdc3d54	-0.006721178
4	0xbc6535d1	-0.013989882
5	0x3a7b4929	0.0009585792
6	0xbb62df17	-0.0034617835
7	0xbccb156f	-0.024790494
8	0xbbfd6330	-0.0077327713
9	0x3b1867a4	0.0023255134
10	0x3bf3783e	0.0074301055
11	0x3b950b99	0.0045485017
12	0x3bbedf5c	0.0058249664
13	0x3bf8b27e	0.0075896373
14	0xbaf4860b	-0.001865567
15	0xba9d19c2	-0.0011985826
16	0x3c8d2af7	0.017232401
17	0x3c81761f	0.015803395
18	0xbb8390ec	-0.004015079
19	0xbc1221a9	-0.008919158
20	0xbb3cc5da	-0.0028804452
21	0x3b81ac98	0.0039573424
22	0xbc00e636	-0.007867387
23	0xbace118d	-0.0015721783
24	0x3af6088a	0.0018770855
25	0xbc3de625	-0.011590515
26	0xbc0a50f4	-0.008442152
27	0x3c5e1e86	0.013557082
28	0xbbbb288f	-0.005711622
29	0xbb99bd60	-0.0046917647
30	0xba515a61	-0.0007986185
31	0x3b53e407	0.003233196
32	0x3cb785bf	0.022402642
33	0xbbd12f6b	-0.0063838265
34	0xbb88d30e	-0.0041755503
35	0xbc77681a	-0.015100503
36	0x3c102e6d	0.008800131
37	0x3c89dd78	0.016829237
38	0x3ac9c074	0.0015392439
39	0xbc0c5f35	-0.008567621
40	0x3b15f0bc	0.0022879085
41	0x3c9120d4	0.017715849
42	0x3bbc6633	0.005749488
43	0xbc1c92f6	-0.009556523
44	0x3c35e32a	0.011101523
45	0x3c3e6e3a	0.01162296
46	0x3bfc6898	0.0077028982
47	0x3c53f66f	0.012937172
48	0x3c466864	0.01210985
49	0xbc84f20e	-0.016228702
50	0x3a77e7b1	0.0009456827
51	0x3bfa5189	0.0076391143
52	0xbc5bbcd1	-0.013411717
53	0x3bf45fa2	0.0074576894
54	0xbb79db3f	-0.0038125066
55	0xbb4e4634	-0.003147495
56	0xbb1c2d06	-0.0023830547
57	0x38df6bb1	0.00010653528
58	0x3c0fcc90	0.008776799
59	0x3a330bfe	0.0006830095
60	0x38b6eb5d	8.722276e-05
61	0x3b9f247d	0.0048566447
62	0x3c382f46	0.01124174
63	0x3c19bbcc	0.009383153
64	0x3af7441d	0.0018864904
65	0x3b2c881a	0.002632624
66	0xbbcd712e	-0.0062695956
67	0xbc4680de	-0.012115685
68	0x3ac3e7ee	0.001494644
69	0xbb599450	-0.0033199973
70	0xbc4cc3d0	-0.012497857
71	0xbb6813c1	-0.0035412165
72	0x3ca7ef2e	0.020499792
73	0x3c8c677c	0.017139189
74	0x3b5e9718	0.003396457
75	0xbc27fa31	-0.010252521
76	0x3c08e984	0.008356456
77	0x3bbe8fc5	0.0058154785
78	0xbc24a9cb	-0.010050247
79	0xbc06d84c	-0.00823028
80	0xbc39959f	-0.011327176
81	0x393a2c6b	0.00017754889
82	0x3c59af1d	0.013286379
83	0x3c023c96	0.007949015
84	0xbc093e27	-0.008376635
85	0xbc1d5720	-0.009603292
86	0x3b9d28fc	0.0047961455
87	0xba726369	-0.00092463807
88	0xbc92a11f	-0.017899094
89	0x3aa94b6a	0.0012916152
90	0x3c779e38	0.015113406
91	0xbc4f027f	-0.012634872
92	0x3d0bb9ed	0.03411286
93	0xbb84ceef	-0.0040529887
94	0x3b6e0ec9	0.003632473
95	0x3c298968	0.010347702
96	0xbc91870d	-0.017764593
97	0x3b87ffd1	0.0041503687
98	0x3ba448ac	0.005013546
99	0xbb8380ce	-0.0040131574
100	0x3c7174fb	0.014737363
101	0x3bc54538	0.0060202144
102	0x3bb23d5d	0.005439444
103	0xbc589e6b	-0.013221364
104	0x3a88b690	0.0010430384
105	0x3bac6817	0.005261432
106	0x3b463bc4	0.0030248025
107	0xbbf2491d	-0.0073939697
108	0xbc24c9e3	-0.010057899
109	0x3b302af9	0.0026881082
110	0xbc82ed9b	-0.01598244
111	0x3c89bbaa	0.016813118
112	0xbc586037	-0.013206533
113	0xbc715a19	-0.014730954
114	0x3c80d3d2	0.015726004
115	0xbc633031	-0.01386647
116	0x3c3f3145	0.011669462
117	0x3aa06f57	0.0012240213
118	0x3bba4962	0.0056850174
119	0x3c4ec3d6	0.012619933
120	0x3c040966	0.008058881
121	0xbb2da312	-0.0026494903
122	0xbc28bc37	-0.01029878
123	0x3c005ad4	0.007834155
124	0xbca2ba09	-0.0198641
125	0x3c0dcbaa	0.008654514
126	0xbba87d91	-0.005141922
127	0x3b171175	0.0023051177

net.6.weight f4 [64, 128]
0	0x3ca55385	0.020181427
1	0x3d67d8a9	0.056603108
2	0xbcc97d89	-0.024595993
3	0xbd5474e8	-0.051869303
4	0x3d9f5673	0.07780161
5	0xbd34c329	-0.04413143
6	0xbc4e5fb9	-0.012596064
7	0x3db30dfa	0.087429
8	0xbd36a0f4	-0.04458709
9	0xbdcf7b02	-0.10130884
10	0x3a08be6c	0.00052163634
11	0x3d8e8761	0.06959415
12	0x3d847737	0.06468051
13	0x3cd33405	0.02578164
14	0x3d20c7b8	0.039252967
15	0x3bd45f3f	0.006481081
16	0xbd39d75d	-0.045371402
17	0x3d8b324a	0.06796701
18	0xbd8b82ae	-0.068120345
19	0xbd0f9824	-0.035057202
20	0xbd00bea3	-0.031431805
21	0x3e01d207	0.12677775
22	0x3ca472db	0.020074299
23	0xbbf4ed3e	-0.0074745705
24	0xbd021685	-0.031759758
25	0x3ca64882	0.020298246
26	0x3d21b536	0.039479457
27	0xbcb032d1	-0.021508606
28	0x3d8109cc	0.06300697
29	0x3dbf859b	0.09351655
30	0x3d8bf0cc	0.06833038
31	0xbd6fc9a1	-0.058541898
32	0xbd90c016	-0.070678875
33	0xbba14099	-0.0049210307
34	0xbce2b157	-0.027672453
35	0x3db56dce	0.08858834
36	0x3d02136e	0.03175681
37	0xbd2932c8	-0.041308194
38	0x3d8e1d80	0.069392204
39	0xbd8620d5	-0.06549231
40	0x3cb846e3	0.022494739
41	0x3daab332	0.0833496
42	0x3cff9d96	0.031203073
43	0xbd3743c6	-0.04474237
44	0xbc77c77d	-0.015123245
45	0x3d331709	0.04372314
46	0x3b39cb18	0.0028349813
47	0x3d3d2397	0.04617652
48	0xbd2c7afd	-0.04210948
49	0xbc796af1	-0.015223251
50	0xbd547899	-0.051872823
51	0xbd2d6b0e	-0.042338423
52	0xbd2e307f	-0.04252672
53	0x3d9a557c	0.07535836
54	0xbd847614	-0.06467834
55	0xbd517717	-0.051138964
56	0xbce313a8	-0.027719334
57	0xbd0b8771	-0.034064714
58	0x3cedcee1	0.029029312
59	0xbd2610e8	-0.040543467
60	0xbdc3bc4e	-0.09557401
61	0x3d568e15	0.052381594
62	0xbdbf75c5	-0.09348635
63	0x3c88d91f	0.016705094
64	0xbd3f8eec	-0.04676716
65	0xbd42aa8d	-0.04752593
66	0xbb374752	-0.0027966094
67	0x3d9ad09d	0.07559321
68	0x3b5b2567	0.0033439042
69	0xbd5b8998	-0.053598017
70	0x3d2ac9df	0.041696426
71	0x3d7f2d3f	0.06229901
72	0xbd6f8845	-0.058479566
73	0x3dfd8271	0.12378395
74	0xbd62a14c	-0.055329606
75	0x3d8552fa	0.06509967
76	0x3d536074	0.051605657
77	0x3d6e24d7	0.058140602
78	0xbd882950	-0.06648505
79	0x3c02e982	0.007990243
80	0x3cf170e0	0.029472768
81	0x3d9f4adb	0.077779494
82	0x3e58ec16	0.2118381
83	0xbdab6bae	-0.08370148
84	0x3d7988d9	0.060921524
85	0xbcc6346b	-0.024194917
86	0xbd8fda82	-0.07024099
87	0x3c2e5961	0.010641427
88	0xbca5ac33	-0.020223713
89	0x3ca39385	0.019967804
90	0x3d86787e	0.06565951
91	0x3d4cb208	0.04997447
92	0x3ca34dd4	0.019934572
93	0x3c8321a3	0.01600725
94	0xbd0f9520	-0.035054326
95	0xbd80c118	-0.0628683
96	0x3c7f4079	0.015579336
97	0xbd90562d	-0.07047687
98	0x3d1864aa	0.037205376
99	0xbdbe0f96	-0.092803165
100	0xbd745b25	-0.059657235
101	0x3e16b55c	0.1471762
102	0xbce1061e	-0.027468737
103	0xbdc399c0	-0.0955081
104	0x3da18005	0.07885746
105	0xbc84a6ec	-0.016192876
106	0x3d237391	0.039905135
107	0xbb70e8e6	-0.0036759912
108	0x3d2bb510	0.04192072
109	0x3c8e7b6e	0.01739284
110	0xbd0776cb	-0.033072274
111	0xbced9b80	-0.029004812
112	0x3d3c92ea	0.046038546
113	0x3d80eb80	0.06294918
114	0x3bb02727	0.005375761
115	0xbcd76b29	-0.026296215
116	0x3ceaccfa	0.028662194
117	0xbcd4940a	-0.025949497
118	0x3d3901c3	0.045167696
119	0xbc6ac7d9	-0.014329874
120	0x3dddda33	0.10832634
121	0xbd9400e8	-0.07226735
122	0x3ca18d93	0.019720828
123	0x3c9bbe8a	0.019011755
124	0xbd3c3f7b	-0.045958977
125	0x3d96d8a1	0.073655374
126	0xbd64c9a2	-0.055856355
127	0xbd98f985	-0.07469467
128	0xbd954a88	-0.07289606
129	0xbd0939fb	-0.03350256
130	0xbd54d493	-0.05196054
131	0xbce9f739	-0.028560268
132	0xbd1c5bb2	-0.038173385
133	0x3cfae161	0.030625047
134	0xbb4d3085	-0.0031309437
135	0x3d3eafa2	0.046554215
136	0x3d06ccda	0.032910205
137	0xbd7482fc	-0.05969523
138	0xbd645264	-0.055742636
139	0xbd4e405c	-0.050354347
140	0x3d9e9673	0.0774354
141	0xbd573b71	-0.052546922
142	0x3ca3ae60	0.01998061
143	0x3cf63578	0.030054793
144	0x3cc5276c	0.02406665
145	0x3da8fc05	0.08251194
146	0x3d1a55d1	0.037679497
147	0x3ce94ab7	0.02847801
148	0x3c7b894a	0.0153525565
149	0x3d4f6536	0.05063363
150	0xbd3446d8	-0.044012874
151	0xbda9045f	-0.08252787
152	0xbd6c87a2	-0.057746537
153	0x3d307ef5	0.043089826
154	0xbd883a73	-0.06651773
155	0xbbbef194	-0.005827138
156	0xbd94ca2c	-0.07265124
157	0x3da47373	0.08029833
158	0x3d053ac9	0.032526765
159	0x3a3945f7	0.00070676155
160	0xbda8e75d	-0.08247254
161	0x3c250d0c	0.010073911
162	0x3d412933	0.04715843
163	0x3c15c11e	0.009140281
164	0xbd95da8d	-0.07317076
165	0xbcf0e0fa	-0.029404152
166	0x3d6b6d32	0.057477184
167	0x3db52e7a	0.08846755
168	0x3c9af199	0.01891403
169	0xbd0ec398	-0.0348545
170	0xbcaeca06	-0.021336567
171	0x3dafa010	0.085754514
172	0x3d285729	0.041098747
173	0xbbe8309b	-0.0070858723
174	0xbcd00c71	-0.025396558
175	0xbd1111ca	-0.035417356
176	0xbdb0fe7a	-0.086422876
177	0x3db20088	0.086915076
178	0x3c950bbe	0.018194076
179	0x3d8627be	0.06550549
180	0xbd94b8a7	-0.07261782
181	0xbd33a168	-0.0438551
182	0xbd52b9a4	-0.051446572
183	0x3c6035bd	0.013684687
184	0xbdac025a	-0.08398886
185	0x3da6d19e	0.0814545
186	0x3daa8a68	0.0832718
187	0xbb2d82d4	-0.0026475685
188	0xbd8ee068	-0.06976396
189	0x3d96a610	0.07355893
190	0x3d944fa6	0.07241754
191	0x3d4a6736	0.049414836
192	0x3da4884e	0.080338106
193	0xbd5c61ea	-0.053804316
194	0x3da2fefc	0.07958791
195	0xbd97e060	-0.07415843
196	0xbd9ae620	-0.07563424
197	0xbc5c7c86	-0.013457423
198	0xbd9091b2	-0.07059039
199	0x3da4c27d	0.08044908
200	0x3d8d8431	0.06909979
201	0x3d91b80d	0.07115183
202	0xba2cb60f	-0.0006588408
203	0xb94fa4b0	-0.00019802409
204	0x3d8d927e	0.06912707
205	0xbcae7af5	-0.021298865
206	0xbdcf9f39	-0.10137791
207	0x3d77468c	0.060370013
208	0xbd450b7d	-0.04810666
209	0xbd4325f9	-0.047643635
210	0x3d707020	0.05870068
211	0x3d0652d2	0.032793827
212	0x3c71d485	0.014760141
213	0x3c50f325	0.012753283
214	0xbd1eaefb	-0.038741093
215	0xbbebd531	-0.0071970453
216	0xbd5806cf	-0.05274087
217	0x3c5e9605	0.013585572
218	0xbdb394c1	-0.08768607
219	0x3c786315	0.015160342
220	0x3d6adb3b	0.05733798
221	0x3cfdf637	0.031001193
222	0xbd87c05f	-0.06628489
223	0xbc98b1d7	-0.018639488
224	0xbbb5219b	-0.0055276877
225	0x3d4ad688	0.049521
226	0xbd2c59dc	-0.042077884
227	0x3cd42aa4	0.025899239
228	0xbd0a5475	-0.03377195
229	0xbd3b2774	-0.045691922
230	0x3d0f6ff3	0.035018872
231	0xbd53239b	-0.051547628
232	0xbd827e21	-0.063717134
233	0x3d9e4ce3	0.07729509
234	0x3d7a6bec	0.06113808
235	0x3d65403b	0.055969458
236	0x3b27eee9	0.002562458
237	0xbc9ac6e1	-0.018893661
238	0xbdb6e7f2	-0.08930959
239	0x3da86c73	0.0822381
240	0x3d8fd6af	0.070233695
241	0x3d18c364	0.037295714
242	0x3d8f1029	0.06985504
243	0xbda3edb5	-0.080043234
244	0x3da02887	0.0782023
245	0xbd7626c8	-0.06009558
246	0x3c875558	0.016520187
247	0x3d95c5b2	0.07313098
248	0xbd5a58a6	-0.053307198
249	0x3c7c31ee	0.015392764
250	0x3d6019f5	0.054712255
251	0xbd3c65fb	-0.045995694
252	0xbd9a84c9	-0.07544858
253	0xbda8010b	-0.08203324
254	0xbd8fc714	-0.07020393
255	0x3d4812d3	0.048846077

net.6.bias f4 [64]
0	0xbd1e301c	-0.0386201
1	0xbd1ec676	-0.038763486
2	0x3d485005	0.048904438
3	0xbd93b8fa	-0.07213016
4	0x3d715bc0	0.05892539
5	0xbcf62fe9	-0.030052142
6	0xbd58500e	-0.05281072
7	0x3bd91de8	0.0066258796
8	0xbb76c200	-0.0037652254
9	0x3d280fbb	0.041030627
10	0xbd737a5e	-0.05944287
11	0xbcc14162	-0.023590747
12	0xbd97ca07	-0.074115805
13	0xbcf3aa55	-0.029744307
14	0xbd3600bc	-0.044434294
15	0xbca76aa5	-0.020436594
16	0x3daf6c17	0.085655384
17	0xbd215c8e	-0.039394908
18	0xbccd07e1	-0.025028171
19	0xbd5b03b8	-0.053470343
20	0xbdb9867c	-0.09058854
21	0x3dadfe48	0.08495766
22	0xbd7b0fa9	-0.06129423
23	0xbca388c4	-0.019962676
24	0x3d16bb4c	0.036799714
25	0xbdafd9c7	-0.085864596
26	0x3cadc40e	0.02121165
27	0x3d8a4aba	0.06752534
28	0x3d318a42	0.043344744
29	0x3d524c79	0.05134246
30	0xbda36a95	-0.07979313
31	0x3d8b5b27	0.06804495
32	0x3c3733fb	0.011181827
33	0xbd8ddd36	-0.06926958
34	0x3d8b7461	0.06809307
35	0x3d43d94b	0.04781465
36	0x3d7ecd4a	0.062207498
37	0x3c89f33c	0.016839616
38	0xbc309eac	-0.010780018
39	0x3c5aee9f	0.013362556
40	0xbd473b2b	-0.04864041
41	0x3bd2cd2f	0.006433151
42	0xbc9e82b9	-0.019349443
43	0x3d4c79e3	0.049920928
44	0x3d3a265f	0.04544675
45	0x3cc4a855	0.024006048
46	0x3da600d9	0.081056304
47	0xbc8abde6	-0.016936254
48	0xbc661eb3	-0.014045405
49	0x3d2a7188	0.041612178
50	0xbc869938	-0.016430482
51	0x3d9596bb	0.0730414
52	0xbd1f3b4e	-0.038874917
53	0x3d3bff1e	0.045897596
54	0xbdb2d859	-0.08732671
55	0x3d877b83	0.06615355
56	0x3d3c5054	0.045975044
57	0xbda88b30	-0.08229673
58	0x3da44a97	0.080220394
59	0xbdc16a4b	-0.09444102
60	0xbccfe150	-0.025375992
61	0xbb3a2101	-0.002840102
62	0xbdd18c84	-0.10231879
63	0x3d6de351	0.058078114

net.8.weight f4 [64]
0	0x3ff96b96	1.9485958
1	0x3fc5e255	1.5459696
2	0x3fd4f35e	1.663677
3	0x3fed15a0	1.8522224
4	0x40082b2c	2.127635
5	0x3fcbc76c	1.5920234
6	0x3ff4ef3a	1.9135506
7	0x400a1106	2.157289
8	0x40012843	2.0180824
9	0x3fef120b	1.8677381
10	0x400897e2	2.1342702
11	0x40013a74	2.0191927
12	0x400b441e	2.1760325
13	0x4003bb8a	2.0583215
14	0x3fef383b	1.8689035
15	0x40141571	2.3138087
16	0x3ffe5531	1.9869748
17	0x3fdc9add	1.723476
18	0x4011d534	2.278638
19	0x3fd8cab2	1.6936858
20	0x4002af18	2.0419369
21	0x40040195	2.0625966
22	0x3ff528bf	1.915306
23	0x3fd9341b	1.6969026
24	0x40076838	2.115736
25	0x3fccb5f0	1.5993023
26	0x3fe44d02	1.7836001
27	0x40017029	2.0224707
28	0x4009d0fe	2.1533809
29	0x3fec9e12	1.8485739
30	0x400b2506	2.1741347
31	0x3ffab0e4	1.9585233
32	0x3ffbb22e	1.9663751
33	0x40025662	2.0365224
34	0x4001562d	2.0208848
35	0x40053682	2.081452
36	0x40033e6f	2.0506856
37	0x3ff9aaac	1.950521
38	0x3fedefa0	1.8588753
39	0x40071c55	2.1111042
40	0x40000fb2	2.000958
41	0x3ff52104	1.91507
42	0x40077cab	2.1169841
43	0x40041a88	2.0641193
44	0x4000c870	2.0122337
45	0x3ff1439b	1.8848757
46	0x400422f3	2.0646331
47	0x4005bd81	2.0896914
48	0x3fef3bb1	1.8690091
49	0x3fee7291	1.8628713
50	0x3ff043ff	1.8770751
51	0x3fda0747	1.7033471
52	0x4017aba6	2.3698516
53	0x3ff3a965	1.903607
54	0x3ffaed19	1.9603606
55	0x40043914	2.0659838
56	0x4019a0b6	2.400434
57	0x40019acc	2.025073
58	0x3ff1d136	1.8891971
59	0x3ffbbe40	1.9667435
60	0x40084935	2.1294682
61	0x40086274	2.131009
62	0x400859a6	2.1304717
63	0x400f2ba6	2.237039

net.8.bias f4 [64]
0	0xbf2b61a3	-0.66945857
1	0xbf25ab1f	-0.64714235
2	0xbf29ed2f	-0.6637754
3	0xbf2bbe77	-0.670875
4	0x3f2b4d07	0.6691441
5	0xbf3424fb	-0.7036893
6	0xbf38e4a8	-0.722239
7	0x3f2c74e4	0.6736586
8	0xbf304b75	-0.6886514
9	0xbf2f3119	-0.6843429
10	0x3f2e1ed6	0.680158
11	0xbf3338ae	-0.7000836
12	0x3f3138fa	0.69227564
13	0x3f2a2bcd	0.66473085
14	0x3f31d3f1	0.6946402
15	0x3f2d1823	0.67614955
16	0xbf2c3678	-0.6727061
17	0xbf2efe45	-0.68356735
18	0xbf40e3a9	-0.7534738
19	0xbf3561ae	-0.7085217
20	0xbf3be294	-0.73392606
21	0xbf31e60f	-0.69491667
22	0xbf35cd75	-0.7101663
23	0xbf30ac1d	-0.69012624
24	0xbf3480d0	-0.7050905
25	0xbf37991d	-0.7171801
26	0xbf092ba2	-0.53582203
27	0x3f23ba49	0.63956124
28	0xbf307385	-0.6892627
29	0x3f33d2f7	0.7024378
30	0x3f2fc8c1	0.686657
31	0xbf2eed96	-0.6833128
32	0xbf32f93f	-0.6991157
33	0xbf39cebb	-0.7258107
34	0xbf2d1a76	-0.676185
35	0xbf30129d	-0.687784
36	0xbf2872a4	-0.6579993
37	0x3f2d6999	0.67739254
38	0xbf33bc07	-0.7020878
39	0x3f3939c6	0.7235378
40	0xbf33850f	-0.70124906
41	0xbf2c78e1	-0.67371947
42	0xbf127a82	-0.5721818
43	0x3f3a453e	0.72761905
44	0xbf310883	-0.6915361
45	0xbf377a52	-0.7167102
46	0xbf311330	-0.691699
47	0xbf28cea8	-0.6594033
48	0xbf419f2f	-0.7563352
49	0xbf384c92	-0.7199184
50	0xbf2f857d	-0.6856306
51	0xbead1d82	-0.33811575
52	0x3f210a88	0.62906694
53	0xbf237a2b	-0.6385829
54	0x3f38b4bc	0.7215078
55	0xbf344b7e	-0.7042769
56	0x3ec80cb4	0.39072192
57	0x3f337189	0.70095116
58	0xbf3565e5	-0.70858604
59	0x3f2d7063	0.67749614
60	0x3f3b8616	0.73251474
61	0xbf364929	-0.71205384
62	0xbf3ff4bd	-0.74982816
63	0x3f3926f6	0.72325075

net.9.weight f4 [3, 64]
0	0x3f7baf29	0.9831415
1	0x3efcd503	0.49381265
2	0x3f3b41f4	0.7314751
3	0x3f3365ef	0.70077413
4	0xbf560aa4	-0.83609986
5	0x3f0e8752	0.5567523
6	0x3f40adbd	0.75265104
7	0xbf66c811	-0.9014903
8	0x3f2b7e77	0.66989845
9	0x3f5e78b2	0.86902916
10	0xbf65ade1	-0.89718443
11	0x3f5d8709	0.8653417
12	0xbf76b758	-0.9637351
13	0xbf618c01	-0.88104254
14	0xbf435563	-0.76302165
15	0xbf9311a1	-1.1489755
16	0x3f46a9ef	0.7760305
17	0x3f3826f5	0.71934444
18	0x3f6e03e9	0.92974716
19	0x3f2a0b41	0.6642342
20	0x3f5477ec	0.82995486
21	0x3f79c661	0.9756833
22	0x3f2881ea	0.65823233
23	0x3f32750d	0.69709855
24	0x3f6ac11d	0.9170092
25	0x3f0be244	0.5464213
26	0x3f2627d2	0.6490451
27	0xbf48a924	-0.7838309
28	0x3f554a54	0.8331654
29	0xbf10f23e	-0.5661963
30	0xbf763a87	-0.96183056
31	0x3f648fdc	0.8928201
32	0x3f78507c	0.9699781
33	0x3f322c57	0.6959891
34	0x3f8450f1	1.0337201
35	0x3f67c0a3	0.90528315
36	0x3f68cce7	0.90937656
37	0xbf638b05	-0.88884
38	0x3f1a27a3	0.6021673
39	0xbf04b5ba	-0.5183979
40	0x3f4eceba	0.8078419
41	0x3f52d001	0.8234864
42	0x3f2eba75	0.6825326
43	0xbf6e4482	-0.93073285
44	0x3f3c8f69	0.73656327
45	0x3eb7da09	0.35908535
46	0x3f81cff2	1.0141585
47	0x3f754707	0.95811504
48	0x3f3a77f8	0.7283931
49	0x3f3944b3	0.7237045
50	0x3f200d61	0.62520415
51	0xbf15c043	-0.58496493
52	0xbf9114cf	-1.1334475
53	0x3f40be26	0.75290143
54	0xbf465d6c	-0.774863
55	0x3f511ef4	0.81687856
56	0x3eab20b1	0.3342338
57	0xbf4c0254	-0.7969105
58	0x3f3eb568	0.74495554
59	0xbf26d769	-0.6517244
60	0xbf81d7c2	-1.0143969
61	0x3f49b001	0.78784186
62	0x3f488157	0.78322357
63	0xbf73072e	-0.9493283
64	0x3f516fd5	0.8181127
65	0x3ef6656b	0.4812425
66	0x3f1bee74	0.60910726
67	0x3f79d2c6	0.9758724
68	0xbf755839	-0.9583774
69	0x3f01a106	0.5063633
70	0x3f5d52b9	0.8645435
71	0xbf7530a4	-0.95777345
72	0x3f612373	0.87944716
73	0x3f03ec6d	0.5153263
74	0xbf6fd26d	-0.9368046
75	0x3f6c8429	0.9238916
76	0xbf491bbd	-0.7855795
77	0xbf510273	-0.8164436
78	0xbf6111d0	-0.87917805
79	0xbf5f8edb	-0.87327355
80	0x3f671111	0.90260416
81	0x3f209b94	0.62737393
82	0x3f988f1d	1.1918675
83	0x3f017068	0.50562143
84	0x3f674104	0.9033358
85	0x3f4e8f31	0.8068724
86	0x3f4da636	0.8033174
87	0x3f5ad729	0.8548456
88	0x3f6808a0	0.9063816
89	0x3f00734b	0.50175923
90	0x3f4b4e3a	0.7941624
91	0xbf6f1784	-0.93395257
92	0x3f52c19f	0.8232669
93	0xbf5aa791	-0.85411936
94	0xbf0742db	-0.5283639
95	0x3f5f079f	0.87121004
96	0x3f5eacd9	0.86982495
97	0x3f5598d4	0.8343632
98	0x3f6e34c0	0.9304924
99	0x3f80add5	1.0053049
100	0x3f71e032	0.9448272
101	0xbf2e4992	-0.6808101
102	0x3f56f7a7	0.8397164
103	0xbf8863a8	-1.0655413
104	0x3f4e6435	0.80621654
105	0x3f330431	0.6992827
106	0x3ea5ad51	0.32358792
107	0xbf60e90f	-0.8785562
108	0x3f6f3195	0.9343503
109	0x3f2198b3	0.63123626
110	0x3f5580f5	0.833999
111	0x3f6afff3	0.917968
112	0x3f7086b2	0.9395553
113	0x3f3a384a	0.7274214
114	0x3f6670ba	0.9001576
115	0x3e54cee6	0.2078205
116	0xbf8ecb44	-1.1155782
117	0x3f29cb09	0.6632543
118	0xbf7152ae	-0.94266784
119	0x3f84023a	1.031318
120	0xbfa8dd60	-1.3192558
121	0xbf84fa82	-1.0388949
122	0x3f7b8bf1	0.9826041
123	0xbf5ddb0d	-0.8666237
124	0xbf85601f	-1.0419959
125	0x3f78d952	0.97206604
126	0x3f75caec	0.9601276
127	0xbf97aac7	-1.1848992
128	0x3f62d10f	0.8860025
129	0x3f16d2e8	0.5891557
130	0x3f1063f9	0.56402546
131	0x3f0d87c7	0.55285305
132	0xbf915698	-1.1354551
133	0x3f06d963	0.52675456
134	0x3e8c01cb	0.27345118
135	0xbf8d310d	-1.1030594
136	0x3f54faa4	0.8319495
137	0x3f476e6b	0.7790286
138	0xbf92158a	-1.1412823
139	0x3f6826b4	0.90684056
140	0xbf8dc5eb	-1.1076025
141	0xbf8ade2f	-1.0849055
142	0xbf062bbb	-0.5241048
143	0xbfa2fb55	-1.273295
144	0x3f527f8b	0.82225865
145	0x3f0a4bf1	0.5402213
146	0xbf400844	-0.7501261
147	0x3f01ec78	0.5075145
148	0x3f52caec	0.82340884
149	0x3f7bb94e	0.9832963
150	0x3f2944d4	0.6612065
151	0x3ef894aa	0.48550922
152	0x3f528a32	0.8224212
153	0x3efa07eb	0.48834166
154	0x3f35aca3	0.7096655
155	0xbf85793a	-1.042762
156	0x3f97514d	1.1821686
157	0xbf2b16eb	-0.66831845
158	0xbf940f45	-1.156716
159	0x3ed0611f	0.40699098
160	0x3f1bffd7	0.60937256
161	0x3f304b33	0.68864745
162	0x3f43748f	0.7634973
163	0x3f0532ce	0.52030647
164	0x3f7ab3ba	0.9793049
165	0xbf7e57d7	-0.9935278
166	0x3dba063a	0.09083219
167	0xbf24df30	-0.6440306
168	0x3f082a78	0.531898
169	0x3f63081f	0.88684267
170	0x3f9614a2	1.1725047
171	0xbf4fd5b5	-0.81185466
172	0x3f458db9	0.77169377
173	0x3f7e0ea1	0.9924107
174	0x3f78e42d	0.9722317
175	0x3f6c2edc	0.92259
176	0x3e80f0ab	0.25183615
177	0x3f2af44b	0.6677901
178	0x3f44a2d4	0.76810956
179	0xbeb507ad	-0.3535742
180	0x3f67df78	0.9057536
181	0x3f8b519e	1.0884283
182	0xbf409708	-0.75230455
183	0x3f393c7f	0.72357935
184	0x3facd609	1.3502818
185	0xbeeb1da6	-0.45921057
186	0x3ecf3613	0.40470943
187	0xbf6ff300	-0.93730164
188	0xbdb7c7c8	-0.08973652
189	0x3f7d3072	0.98902047
190	0x3f249c2b	0.64300793
191	0x3ee69f9c	0.45043647

net.9.bias f4 [3]
0	0xbedb3fe2	-0.42822176
1	0xbf0a10ca	-0.5393187
2	0xbed2d426	-0.4117748
