game/model/models/q_net_500_50000_128_64_normalized-nonDueling_EPOCH_100.pkl (torch, 113018 bytes, 14 tensors)

net.0.weight f4 [128, 8]
000000 ce 9e 5b 3d 96 31 0d 3e 63 39 9c be 67 9d 33 be
       0.053618245 0.13788447 -0.30512533 -0.17540513
000010 e1 57 a3 3d 45 24 fb 3c f7 8d 84 3c 9a 7d 6f 3e
       0.07975746 0.030656943 0.016180975 0.23387757
000020 b7 1c 1e be 93 f8 ab bd 19 73 24 be 92 81 05 bb
       -0.15440641 -0.08397021 -0.16059531 -0.002037142
000030 cd 34 a0 be f4 ed c8 bd ca be 98 3e 8c 2f 08 be
       -0.31290284 -0.09811011 0.2983306 -0.13299388
000040 b7 c9 99 3e 1b 4d 61 be 5e 1c c4 bc 01 97 cd bd
       0.3003671 -0.2200207 -0.023939308 -0.10038567
000050 9d 08 0a 3e b6 68 7e be 1c 75 73 3d 38 ab de 3c
       0.13479848 -0.24844632 0.059437856 0.027181253
000060 da c4 4c 3d 80 24 24 3e 19 2f 06 3e e1 b9 60 bd
       0.04999242 0.16029549 0.13103904 -0.054864768
000070 6d d4 6f be d0 85 aa be 46 f7 0c be 14 9e 9e be
       -0.23420878 -0.33305216 -0.13766202 -0.3097998
000080 fe d3 b2 3e 3d 14 b0 3e c4 79 03 bb a6 65 a8 be
       0.34927362 0.3439044 -0.0020061592 -0.32890052
000090 c1 5e 9a be 28 83 aa 3e 0a 3e ad 3e 59 69 9c 3e
       -0.30150416 0.3330319 0.33836395 0.30549124
0000a0 99 1d 9c 3e a3 fc 47 be 44 e1 09 3e 6e 07 e7 3d
       0.3049133 -0.19529967 0.13464838 0.11280714
0000b0 e1 89 95 3d 8b b6 8a be da ed 89 be db 66 92 be
       0.07301689 -0.27092394 -0.2693928 -0.28594097
0000c0 a8 43 47 bd a7 12 43 be 36 02 52 bd c3 83 3e 3d
       -0.048648506 -0.19050084 -0.05127164 0.046512377
0000d0 65 6a 29 3b 9d e5 00 be ac ad 90 be 8f 38 90 be
       0.002585077 -0.1258759 -0.282575 -0.2816815
0000e0 52 56 96 be 5d 07 a1 be 1d 9b 05 3d ae c3 9f 3e
       -0.29362732 -0.3145093 0.03261863 0.3120398
0000f0 7b aa fe 3c 9d c3 f8 bd 51 88 16 be f1 6a 17 be
       0.03108715 -0.12146685 -0.14700438 -0.14786889
000100 0e d3 a4 3e c1 77 71 3e 6d 79 59 3e 2b c8 b7 be
       0.32192272 0.23580839 0.21237727 -0.35894904
000110 5a ef 26 3e 01 eb 80 be 10 0f 6c 3e c0 ca 87 3e
       0.16302243 -0.25179294 0.23052621 0.26521873
000120 ef 04 a4 be fc d3 6c be 17 ec 9d be d5 18 a2 be
       -0.32035014 -0.2312774 -0.30844185 -0.3165957
000130 c8 32 04 be ae 84 05 be b6 52 d6 bd 20 0c 45 3e
       -0.12909997 -0.13038895 -0.104649946 0.19242907
000140 e9 53 6a be 50 f5 a2 3d b9 73 89 3e e0 55 80 be
       -0.22883572 0.07956946 0.26846102 -0.25065517
000150 a8 a7 f7 3d 00 75 a9 3d 6f d6 00 3e f3 80 80 be
       0.12092525 0.08274269 0.125818 -0.2509838
000160 f0 6f e6 3e 13 96 bf 3e ec c4 b0 3d 97 d8 84 bc
       0.45007277 0.37419185 0.0863131 -0.01621656
000170 f7 b8 95 3d 12 15 40 3e 60 c1 21 3e 72 5e 1f bd
       0.0731067 0.18758038 0.15796423 -0.03890843
000180 7f 87 6e 3e d6 25 34 be fb 5f 1d 3e ef d8 a6 3e
       0.23293875 -0.17592558 0.15368645 0.32587382
000190 d2 e4 01 3e 5c 3b 8f be 4f c8 46 be 46 0b 1c 3e
       0.12684944 -0.27974975 -0.19412349 0.15238675
0001a0 07 0d a8 be 8e 9b 11 be d8 43 cd 3c f3 9e eb bd
       -0.3282244 -0.14219496 0.025056764 -0.115049265
0001b0 36 b9 f1 bc d0 63 70 3d 1d 56 8f be 9d 51 9a be
       -0.02950726 0.05868894 -0.27995387 -0.3014039
0001c0 16 d3 d4 bd 84 d8 99 be eb 2e b3 3e 1c ac 64 be
       -0.10391824 -0.30048 0.34996733 -0.2233128
0001d0 ac 6c c2 3d 6e a7 a7 be 1e cd b7 bd 01 de 66 be
       0.09493384 -0.32744926 -0.0897467 -0.22545625
0001e0 41 00 ba 3c 88 d1 fb bd 4c 11 aa 3a d0 66 83 3e
       0.0227052 -0.12295824 0.0012975126 0.25664377
0001f0 82 98 7b 3d 63 f8 fd bd 34 35 0c be 38 c4 87 3e
       0.06142474 -0.12400892 -0.1369217 0.2651689
000200 af ce 9f bd 2c 47 04 3e 19 20 7a 3e e3 97 a0 3e
       -0.07803094 0.12917775 0.24426307 0.3136588
000210 6c 26 10 be c1 ce af bc 1c 22 94 bc c0 0c 5f 3e
       -0.14077157 -0.021460893 -0.01808267 0.21782207
000220 39 be ef bd 26 f0 88 3d ec b3 62 3d 2b 10 8d be
       -0.11706204 0.0668643 0.055347368 -0.27551398
000230 aa f8 cd 3d 6e 2d 66 3e ad 7f f4 bd e0 75 54 3e
       0.100571945 0.22478268 -0.11938415 0.2074809
000240 2d 1c 44 3d a9 aa 44 be 45 42 3e be e6 03 9c 3e
       0.047878433 -0.19205727 -0.18579967 0.30471724
000250 5b 14 37 3e c0 3a 26 be 1a d9 c4 bd e5 43 3c 3d
       0.17878859 -0.16233349 -0.09611721 0.045963187
000260 c6 bc 55 be ad 76 ab 3e 63 0e e6 3d 5f 81 11 bd
       -0.20872793 0.3348898 0.11233213 -0.03552377
000270 06 ed 19 bd 15 0e 78 be 95 75 6c be 95 1d 3f be
       -0.03757956 -0.24224122 -0.23091729 -0.18663628
000280 58 4e 59 3e 2c 3a 61 be 53 37 38 be f8 91 90 3b
       0.21221292 -0.21994847 -0.17989855 0.004411932
000290 93 17 90 be cc 65 fd 3c 3a b8 8b be 76 5e a8 be
       -0.28142986 0.03093233 -0.2728899 -0.32884568
0002a0 2d 3d c1 3e db 80 9a bb 86 bb db 3b 72 90 aa 3e
       0.37741986 -0.004715068 0.006705704 0.33313328
0002b0 d7 9e 8e bc 3e 46 30 3e 45 a5 ce 3d c8 7b 93 3e
       -0.017409725 0.17214295 0.100901164 0.28805375
0002c0 d2 55 74 be 61 87 c2 3e f0 d4 19 be af d4 ad 3e
       -0.23860863 0.3799391 -0.15022635 0.33951327
0002d0 a9 cd c0 3d 45 87 6b be ea b0 91 3e 5d c5 12 3e
       0.094142266 -0.2300082 0.28455287 0.143331
0002e0 d8 4c 6b bc 4c de 1d 3e cb 70 32 3e 8c 93 a0 3e
       -0.014361583 0.15416831 0.1742584 0.3136257
0002f0 2c da 0d be 79 3b e5 3d 94 81 b4 3e e5 aa 06 3e
       -0.13852757 0.11192984 0.3525511 0.13151129
000300 50 f0 cc bd 5b 31 78 3e 39 dd 16 be 3a e6 92 be
       -0.100067735 0.24237578 -0.14732827 -0.28691274
000310 4d 39 0a 3e 34 a7 a5 3e 7f f8 2a be cb 75 0c ba
       0.13498421 0.32354128 -0.16696356 -0.00053581287
000320 43 de d2 3e 3a f0 c8 bd 84 3b 7f be 0e f7 6e 3e
       0.41185197 -0.098114446 -0.24925047 0.23336431
000330 05 a1 50 bd 63 75 69 3e 01 e8 99 3e 39 67 41 3d
       -0.05093481 0.22798686 0.30059817 0.04721758
000340 71 2f 82 be c3 a9 8b bb 13 03 07 be 8d 25 62 3e
       -0.2542682 -0.0042621805 -0.13184766 0.22084637
000350 e8 41 b5 be b3 9a 5d be ff a8 76 3e 32 51 66 3e
       -0.35401845 -0.21641044 0.24087904 0.22491911
000360 1d 83 a2 3c dc 10 a4 be 1d 6e 37 3e 48 c6 6c bc
       0.01983791 -0.32044113 0.17913099 -0.014451571
000370 37 17 a2 be a8 86 a3 bc ed 05 8e 3e 9f 4a e7 3c
       -0.31658337 -0.01996167 0.27738896 0.028233824
000380 9e 5f 87 3e 1f 40 c9 3c ed e5 e6 bd 75 90 87 3e
       0.26440138 0.024566708 -0.112743236 0.264774
000390 92 43 af be 9e fd a5 3e b2 27 2c be 12 ed 7b 3e
       -0.3423124 0.32420057 -0.16812018 0.24602154
0003a0 0a 40 5f 3d 54 ae 8d bd 5e 58 8e 3e 83 f1 ae 3e
       0.05450443 -0.06918016 0.27801794 0.34168634
0003b0 05 04 8f be a0 79 31 3e e6 20 65 3e e1 46 8e be
       -0.27932754 0.17331553 0.22375831 -0.2778845
0003c0 bb 84 4f 3e 16 cf 0b 3e 8b 0f 55 be e3 3a 07 3e
       0.20265476 0.13653216 -0.2080671 0.13206057
0003d0 e5 67 91 3d 62 c1 d0 3d 66 b6 91 3e 0d c7 88 3e
       0.070998944 0.10193135 0.2845947 0.26714364
0003e0 69 e1 53 3d ac 18 aa bd 8c ff 79 be e9 64 84 3e
       0.05172864 -0.08305487 -0.2441389 0.25858238
0003f0 b1 3d 75 be 88 04 63 be 15 d2 1f bc 67 e9 19 3b
       -0.23949315 -0.22169697 -0.009754677 0.0023485066

net.0.bias f4 [128]
000000 cc 87 88 be 1b 77 0e 3e 4d 19 7e be c2 93 55 3e
       -0.26666105 0.13912623 -0.24814339 0.20857146
000010 fe c3 75 3e 46 c1 16 3e 1a 91 8d bd e3 8d 3f 3e
       0.24000546 0.14722165 -0.069124416 0.18706469
000020 ed a8 10 3e cd a3 0a be 11 fd af be ea e5 3e 3d
       0.1412694 -0.13539048 -0.34372762 0.046605982
000030 19 71 0d be a3 c0 36 be e9 21 d8 bd 4e 26 dc 3c
       -0.13812675 -0.17846923 -0.10553343 0.026873734
000040 47 e0 9d 3e 1c 3e 91 bd 30 9a 59 3e 39 ba 5d 3e
       0.30835173 -0.070919245 0.21250224 0.2165307
000050 38 00 6c be 04 c8 29 bc a1 3f 05 be 44 5b 5f be
       -0.23046958 -0.010362629 -0.13012554 -0.21812159
000060 66 cb 49 be 71 6a 90 3e cd fb ab 3d 91 cc 6e 3e
       -0.19706497 0.28206208 0.083976366 0.23320223
000070 90 82 fe 3d d7 d7 90 3e c7 23 89 bd db 3d f7 bd
       0.124272466 0.28289673 -0.06696277 -0.12072345
000080 01 e1 38 be 97 96 15 be a8 a1 4b 3e 0f e4 25 be
       -0.18054582 -0.14608227 0.19885886 -0.16200279
000090 43 69 e5 3d 8a 5a 0c be 3c 47 ff 3d 11 7b e1 bb
       0.11201718 -0.13706413 0.12464759 -0.0068811257
0000a0 63 ae 17 bd 12 2f 61 3e a9 98 4c 3e 20 eb 83 be
       -0.037031543 0.21990612 0.1998011 -0.25765324
0000b0 1c 5f 94 be 11 3f c8 bd d9 d3 95 bd ad 6b 7d be
       -0.28978813 -0.09777654 -0.07315797 -0.24748106
0000c0 18 93 82 3d 76 0b 8b be 7a d7 8b 3e 86 7c 91 3e
       0.06375712 -0.27157182 0.27312833 0.28415316
0000d0 9d 2b f8 bd 38 a3 91 3d ed 6d be 3c 9d a6 c7 bc
       -0.121176936 0.0711121 0.023245776 -0.02437144
0000e0 40 5b 84 3e f5 de 80 3e bf e8 a1 3e 49 c6 8e 3d
       0.25850868 0.25170103 0.31622884 0.06971414
0000f0 6b 1d 14 be f7 b4 b3 3e 31 86 a3 3e 51 1d 8d 3d
       -0.14464347 0.35099003 0.31938317 0.06890357
000100 7b 3f e5 3d ac 98 9c be 9d fd be 3d 64 2e 4e 3c
       0.111937486 -0.3058523 0.09325717 0.012584303
000110 56 15 80 3c bd d2 54 be ee c2 ee 3d c0 ce 35 be
       0.015635174 -0.20783515 0.11658274 -0.1775465
000120 a9 01 00 be 1b da fa 3d 00 a3 6b 3e fa 5a b2 3d
       -0.12500633 0.122486316 0.23011398 0.08708759
000130 83 7e 54 be 7a 03 83 3e f9 21 d6 3d 32 88 8e 3d
       -0.20751385 0.2558859 0.104556985 0.06959571
000140 b2 92 59 3e 80 5c 8f bd 36 84 8e 3e e5 88 06 3e
       0.21247366 -0.07000065 0.27835244 0.13138159
000150 5c e1 31 bd e0 e1 b3 be 00 f4 d6 bd 29 85 95 be
       -0.04342781 -0.35133266 -0.10495758 -0.29203156
000160 a2 84 77 be d4 ae 4f be fa 40 74 be 33 29 5f 3e
       -0.24171689 -0.20281535 -0.23852912 0.2179306
000170 7f ac 7c bd 5e cf c1 bd 5c ae 5b 3e ee 30 60 bd
       -0.061687943 -0.0946338 0.21453232 -0.054734163
000180 91 87 8f bd f5 9a fa 3d aa ef 0c bd 76 00 89 be
       -0.07008279 0.12236587 -0.03440825 -0.26758164
000190 c7 0f fd 3c 9a 05 69 bd 91 27 92 be 83 ee 96 be
       0.030891312 -0.056890108 -0.28545812 -0.29478845
0001a0 a9 eb 71 be 9b 01 68 3d dc 9d 1a be 0e 4f 66 be
       -0.23625053 0.056642156 -0.15099281 -0.22491094
0001b0 10 e3 f9 3d 9f 36 45 3e 31 77 89 3d 85 01 08 3e
       0.12201512 0.19259118 0.06712187 0.1328183
0001c0 48 4f ec 3c d9 3e 25 3c 77 3a d2 3d de 3d 98 3e
       0.028846398 0.010085785 0.102650575 0.297347
0001d0 3c 6b 6a 3e 6b c2 16 3e 4b d7 37 be 1b 66 1d be
       0.22892469 0.14722602 -0.17953221 -0.15370981
0001e0 b5 05 a9 bd 00 11 53 3c e6 50 b9 bd 9a a6 96 3e
       -0.08253042 0.012882471 -0.09048633 0.29423982
0001f0 85 7b e0 bc 47 ad 8a be b7 fe 34 3e 83 0a a6 be
       -0.027402649 -0.27085325 0.17675291 -0.32429895

net.2.weight f4 [128]
000000 76 e6 7e 3f 61 0d 7d 3f da cb 80 3f 07 ea 7d 3f
       0.99570405 0.9884854 1.006221 0.9918522
000010 c3 c5 7f 3f 88 71 81 3f 86 aa 7e 3f b8 c0 83 3f
       0.99911135 1.0112772 0.9947895 1.0293188
000020 e4 a7 7b 3f 02 11 80 3f 60 d0 7e 3f a6 4c 82 3f
       0.98303056 1.000519 0.99536705 1.0179641
000030 95 28 7f 3f 3a 82 7e 3f 0b 0c 80 3f 75 a3 7f 3f
       0.996713 0.9941746 1.0003675 0.9985879
000040 c4 98 7b 3f b7 15 7e 3f aa dd 7f 3f 32 67 8b 3f
       0.98279977 0.99251884 0.9994761 1.0890868
000050 2d 33 81 3f 21 0c 83 3f 72 7f 84 3f d6 7c 81 3f
       1.0093743 1.0238076 1.0351393 1.0116222
000060 86 eb 80 3f f3 c3 80 3f 6e fe 7c 3f 8b 36 7e 3f
       1.0071876 1.0059799 0.9882573 0.99301976
000070 d1 d8 7e 3f 69 4a 7c 3f 67 79 80 3f 37 61 7e 3f
       0.99549586 0.9855104 1.0037049 0.9936709
000080 76 cd 82 3f 15 4c 7d 3f a3 1f 7d 3f de 53 82 3f
       1.0218952 0.98944217 0.988764 1.0181844
000090 f1 99 7f 3f 55 d7 81 3f 5b c4 7d 3f f3 ce 80 3f
       0.9984427 1.0143839 0.9912774 1.0063156
0000a0 5c 78 7e 3f 01 1b 84 3f fd 13 81 3f 54 86 80 3f
       0.99402404 1.0320741 1.0084225 1.0040994
0000b0 3c 16 7e 3f 0b 1a 81 3f 09 4c 80 3f 0b 2c 83 3f
       0.99252677 1.0086073 1.0023204 1.0247816
0000c0 7d f7 7f 3f 06 b0 7f 3f d1 85 7b 3f 27 42 7d 3f
       0.9998701 0.99877965 0.9825106 0.98929065
0000d0 6b 76 7c 3f d7 f4 82 3f 24 d7 85 3f 31 4a 80 3f
       0.9861819 1.0230969 1.0456281 1.0022641
0000e0 dd a8 7c 3f a8 b2 7c 3f 6c 89 7d 3f 47 04 7b 3f
       0.98695165 0.9871011 0.99037814 0.980534
0000f0 cb 09 7d 3f 39 b7 82 3f 23 d8 7e 3f 7e ea 85 3f
       0.9884307 1.0212165 0.9954855 1.0462186
000100 08 f3 81 3f b0 75 7d 3f f4 d0 80 3f 39 a7 7d 3f
       1.0152292 0.990077 1.0063767 0.99083287
000110 af ad 7f 3f 82 9d 7b 3f 6a 7d 80 3f 82 47 7e 3f
       0.99874395 0.9828721 1.0038273 0.9932786
000120 82 20 80 3f b1 3d 85 3f 97 15 7d 3f 78 e7 7f 3f
       1.0009921 1.0409452 0.9886107 0.9996257
000130 16 4b 81 3f b2 0d 7c 3f cd 4d 7e 3f 4b 57 7d 3f
       1.010104 0.984584 0.99337465 0.98961323
000140 d8 44 7f 3f 60 c7 80 3f 6a 8e 7a 3f 71 2e 81 3f
       0.9971442 1.0060844 0.97873557 1.0092298
000150 c8 13 7d 3f ae 3a 7f 3f c6 06 81 3f 63 25 7e 3f
       0.9885831 0.99698913 1.0080192 0.992758
000160 fa ca 80 3f 19 4b 7d 3f 21 b3 7f 3f ea 13 81 3f
       1.0061944 0.98942715 0.99882704 1.0084202
000170 bd 4c 80 3f 4d cf 7d 3f 60 a1 87 3f 5c 98 81 3f
       1.0023419 0.9914444 1.0596123 1.0124621
000180 05 8c 80 3f fe 11 80 3f dd 8c 80 3f ae 2b 7f 3f
       1.004273 1.0005491 1.0042988 0.99676025
000190 90 e5 84 3f 28 95 80 3f dd 90 7e 3f 72 7d 81 3f
       1.0382557 1.0045519 0.99439794 1.0116408
0001a0 a0 9b 7e 3f d9 0c 82 3f ec 23 80 3f 15 e9 7c 3f
       0.99456215 1.0160171 1.0010962 0.98793155
0001b0 48 72 83 3f f2 68 7c 3f 97 e9 80 3f 9d bb 83 3f
       1.0269251 0.98597634 1.0071286 1.029163
0001c0 f0 17 82 3f 24 b5 7c 3f 8a 26 7c 3f 6f 94 80 3f
       1.0163555 0.987139 0.98496306 1.0045298
0001d0 28 d9 7e 3f 21 a4 84 3f 42 98 80 3f ba fa 7e 3f
       0.99550104 1.0362588 1.0046465 0.9960133
0001e0 dd ff 81 3f 59 fb 82 3f d3 09 80 3f 5f 59 7b 3f
       1.0156208 1.0232955 1.0002998 0.98183244
0001f0 bd be 7c 3f f3 6a 7f 3f 13 de 81 3f e7 c4 80 3f
       0.98728544 0.99772567 1.0145897 1.006009

net.2.bias f4 [128]
000000 e6 a0 8c 3b 62 27 a2 3b e2 0a ae bb ff 75 03 3c
       0.0042916415 0.0049485425 -0.005311356 0.008023738
000010 53 7c ad bb 18 dd 25 bc 83 bb b5 3b 1a 7b 9f 3b
       -0.0052943616 -0.010123514 0.005546035 0.00486697
000020 09 82 82 bc 26 28 39 b9 77 6a b8 3b 5b 41 a1 b9
       -0.015931146 -0.00017657931 0.005627926 -0.00030757007
000030 a4 0c d4 3b 13 4a a4 3b ce 27 17 ba 35 bd 88 3c
       0.0064712334 0.005013713 -0.0005766124 0.016691783
000040 df 86 75 bc dd 29 5e bb 10 92 55 3b 7f 0f 08 bc
       -0.014985769 -0.0033899464 0.003258828 -0.008304476
000050 5a 63 17 bc cc 4e 40 3b 80 ef 31 ba a2 d8 0a bc
       -0.009239996 0.0029343842 -0.00067877024 -0.008474501
000060 4b a9 0f bb 58 66 73 3b e7 16 c7 bb b8 39 2d bc
       -0.0021920975 0.003713986 -0.006075728 -0.010572843
000070 90 1b bc bb 3c fb 0d bc c9 64 75 3a fc f8 af 3b
       -0.0057405904 -0.008665856 0.00093610265 0.0053702574
000080 53 de c9 bb 5d d9 56 3c df 1c 30 bb 37 f5 c2 3b
       -0.0061605363 0.013113347 -0.0026872677 0.005949642
000090 e8 9b 28 bc 55 5f dc bb 90 bc 40 bc ec c4 b2 bb
       -0.010291077 -0.0067252317 -0.011763707 -0.005455604
0000a0 91 14 88 ba 5c 1d 14 bb eb b4 ce bb 19 9d 70 bb
       -0.0010382106 -0.0022600507 -0.006308188 -0.0036714731
0000b0 c6 55 e4 3b 97 49 5d b8 ef b9 f8 b9 5a de f9 3a
       0.006968233 -5.2759042e-05 -0.00047440777 0.0019063458
0000c0 4d cb 5a 3c 8f 95 9b 3a 5f 2b b2 bb 87 74 3f bc
       0.013354135 0.0011870133 -0.005437299 -0.011685497
0000d0 4e 6c 16 b9 81 24 10 bb 92 a1 1b bc ae 8c b4 bb
       -0.00014345461 -0.0021994414 -0.009498971 -0.0055099344
0000e0 5a 24 29 bc 7d b2 d2 bb 16 20 0d bb 0a 6e 18 39
       -0.010323608 -0.006429969 -0.0021534017 0.00014536842
0000f0 db a8 36 3c 94 a2 4b bb 3c d4 14 bc a4 3c a5 3a
       0.011148657 -0.0031072246 -0.009083804 0.0012606573
000100 9e ad cc 3b b9 19 18 3c 31 9f 89 3b 37 90 f2 3b
       0.0062462827 0.0092834765 0.0041998853 0.0074024457
000110 d7 85 98 3a 9a 91 e4 3b 30 f5 3f bb f3 3e d0 3b
       0.0011636567 0.006975365 -0.002929043 0.0063551604
000120 bb b8 8d 39 20 02 5d bb c3 4d 20 bc 9c 90 f1 3b
       0.0002703125 -0.003372319 -0.009784165 0.007371975
000130 fe 3c 3a 3c c4 3a 63 bc eb ce 94 ba 2c f6 19 3c
       0.011367081 -0.013868991 -0.001135317 0.009397071
000140 14 a3 bb bb c5 2e 6d bb 64 85 60 bc 3e 85 89 3b
       -0.0057262275 -0.0036191207 -0.013703678 0.004196792
000150 38 f2 0e 3c 37 c3 80 3b 21 3d fc bb 73 6c 90 3b
       0.008724742 0.0039295214 -0.007697717 0.0044074594
000160 ee 30 a5 3b 0a b4 3a 3c 52 e2 b4 3a 30 9a c0 3a
       0.0050412333 0.011395464 0.0013800359 0.0014694389
000170 0d e7 07 bc 79 c6 31 3c db 52 e0 bb 95 2b c2 3b
       -0.008294833 0.010850542 -0.0068458146 0.0059256055
000180 21 0c 9f bb e7 53 66 ba 47 50 92 3a bd 25 5c 3b
       -0.004853741 -0.0008786306 0.001116284 0.003359183
000190 43 31 56 3c 76 22 78 3b 60 72 40 3c c0 8c 1e ba
       0.013073268 0.0037862337 0.011746019 -0.0006048195
0001a0 c7 64 9b 3b e1 36 19 bc 7c 86 12 bb 05 22 65 3c
       0.004742238 -0.009351463 -0.002235799 0.013985162
0001b0 59 f2 ab b9 ac b7 09 bc 37 04 d2 ba 1f 25 37 3a
       -0.00032796225 -0.008405607 -0.0016022985 0.00069864275
0001c0 54 55 47 bb 56 70 22 3c f5 50 bb 3b 2a ff 2a bb
       -0.003041585 0.009914478 0.005716438 -0.002609203
0001d0 99 7f 16 bc cf 62 26 3b 8e 6a b0 ba a8 8d 94 3b
       -0.009185695 0.0025388484 -0.001345949 0.0045334883
0001e0 ed 08 64 3b 36 20 cd 3a 9c aa 5e 3a e8 ea 14 bc
       0.003479536 0.0015649858 0.00084940507 -0.009089209
0001f0 89 bb 1b 3b 18 78 f4 3b dd 93 cc 3b e0 6c c0 bb
       0.0023762903 0.0074606054 0.0062432126 -0.005872354

net.3.weight f4 [128, 128]
000000 41 14 97 bc c8 d9 18 3d c5 77 36 3d b8 e0 3c bd
       -0.018442275 0.037317067 0.044547815 -0.046112746
000010 60 c0 56 3d ea 83 48 bd 5c 78 a3 bb e2 42 95 3d
       0.052429557 -0.048953928 -0.004988713 0.072881475
000020 50 fa c5 3c 09 f4 44 bd 31 22 01 bc 3c ab 9c 3d
       0.02416721 -0.048084293 -0.007881687 0.07649848
000030 c8 1a 9c 3d 10 ff 53 3d e8 95 17 3d 47 60 3a 3d
       0.076222956 0.05175692 0.037008196 0.045501973
000040 01 fd 67 3d a3 17 80 3b 46 c8 b0 bd 8b 99 bd 3c
       0.056637768 0.0039090677 -0.08631949 0.023144504
000050 a9 a0 c8 ba 79 d0 62 3d 21 a0 1a 3c fd 57 61 3d
       -0.001530667 0.055374596 0.009437592 0.055015553
000060 9d 71 65 3d 62 7f 97 bd 8d 66 35 3d 25 c1 9c 3d
       0.056016553 -0.07397343 0.044287253 0.07654027
000070 c3 f0 17 3c 40 16 6c 3d eb 11 95 bd cd f8 bb bb
       0.009273711 0.057638407 -0.07278808 -0.0057364465
000080 61 c9 44 3c 69 71 11 3d 08 27 72 bd 42 76 7c 3b
       0.012010903 0.035508547 -0.059119254 0.0038522636
000090 55 ad 85 3d b9 9b 12 3d 67 6a aa 3d ab b2 8e bc
       0.06527201 0.03579304 0.08321076 -0.01741918
0000a0 d2 99 7c bc 8c 83 25 bd 24 d4 71 3d d0 b1 e1 bb
       -0.015417533 -0.040408656 0.059040204 -0.006887652
0000b0 80 82 f0 bc 16 55 87 3d 3a 39 44 bd f8 2e 86 bc
       -0.029359102 0.06608026 -0.047906138 -0.016379818
0000c0 f4 f3 e3 3c 0f 13 2f 3b 43 2a 11 3b f4 08 24 bd
       0.027826287 0.002671424 0.0022150434 -0.0400476
0000d0 4a 47 96 3d 04 e6 06 3d 71 a8 15 bc 7f 9b 18 3d
       0.07337816 0.032934204 -0.009134398 0.037257668
0000e0 23 ba 38 3d d0 ea a7 3d 80 83 12 bd 51 86 53 bd
       0.04509939 0.08199084 -0.03576994 -0.051641766
0000f0 7b 0b 05 bd ee 48 9d bd 34 19 34 3d 15 d5 91 bd
       -0.03248165 -0.07679926 0.043969348 -0.0712072
000100 2f 27 81 bd 17 ed 00 bd 3a 4f 9e bc 22 93 9e bd
       -0.06306302 -0.031476106 -0.019324888 -0.07742907
000110 7b d9 2a bd 08 92 58 3d 6e a2 1c 3d 91 3b ea 3b
       -0.04171131 0.05287364 0.038240843 0.007148214
000120 5b 4c 71 3c 22 e8 51 3d 0c ff b9 bd 3d 1e 65 3d
       0.014727677 0.05124677 -0.090818495 0.05593704
000130 2b 82 c2 3d 28 a4 e4 bc b8 37 2b bd 79 7a b6 3d
       0.09497484 -0.027910307 -0.041801184 0.089100786
000140 2c 63 28 3d bf ef 61 3d f9 5c 27 3d e0 3b 17 bc
       0.041110203 0.05516028 0.04086015 -0.009230584
000150 6d 92 a6 3d e2 92 5e 3d 10 ca 74 3a 18 51 16 bd
       0.08133397 0.054339297 0.0009337971 -0.03669843
000160 9d 1f 2e 3c d0 70 b2 bd 00 d9 fa 3b d1 a2 3d bc
       0.010627654 -0.087129235 0.007655263 -0.011574463
000170 08 d9 55 bd 1f 0b 15 bc 85 1a bc 3c b5 28 3e 3d
       -0.05220893 -0.00909689 0.022961864 0.04642554
000180 b2 f7 2a 3d 10 70 99 bd d0 64 df 3b 43 cf 01 3d
       0.041740127 -0.07492077 0.0068174377 0.0316918
000190 dd a6 21 bd 22 dc b3 bd 27 ea 58 3d bf 62 7c bc
       -0.039465774 -0.087822214 0.05295768 -0.015404402
0001a0 8f db 62 3d 14 b0 8b bd c7 22 1a bd 12 57 7f 3b
       0.05538517 -0.068206936 -0.037630823 0.003896181
0001b0 ad 3a 87 3d 95 0a 80 bd cd c2 8c 3d 6f e8 c5 bc
       0.066029884 -0.06252018 0.06873093 -0.024158685
0001c0 04 2b 31 bd 7b e8 88 3d c7 30 23 bd 9b fe 2e bd
       -0.043253914 0.06684967 -0.03984144 -0.04272328
0001d0 c5 7f 0f 3d 19 f0 5d 3d f1 05 4b 3d eb af 9a bd
       0.03503396 0.054184053 0.049566213 -0.07553085
0001e0 70 46 91 3a 18 40 2e 3d 86 0d 84 3d 05 2e 4c 3c
       0.0011083614 0.042541593 0.06447892 0.012462144
0001f0 5c 78 a1 bd 02 29 a3 3d 9e ae a8 3d 85 35 31 bb
       -0.07884285 0.07966806 0.082364306 -0.0027039957
000200 52 10 0e 3d 8a 23 43 3c 56 9c a2 bb 60 25 c8 bb
       0.034683533 0.011910329 -0.0049624844 -0.006107971
000210 3f d8 9d bc ec 4e 0f bd b4 6e 3a 3d a5 df 61 3d
       -0.019268153 -0.034987375 0.04551573 0.055144925
000220 01 73 02 3d 33 bc fb bc 4a 3a 57 3b 24 03 83 bd
       0.031847958 -0.030729389 0.003284114 -0.063970834
000230 bb 7b 87 bc 68 77 15 bd 56 f2 0d 3d e4 a4 c0 bd
       -0.016538491 -0.036490828 0.034654938 -0.094064504
000240 f8 bb a5 3c b3 b8 89 bd ad 81 77 bd 96 05 4b bd
       0.020231232 -0.06724682 -0.060426403 -0.049565874
000250 c2 a7 b7 3d 47 f3 36 3d 50 c9 2c bd 74 5f 8d 3c
       0.08967544 0.0446656 -0.042184174 0.01725743
000260 85 5d 1b bd 6f 56 2a 3d e8 49 6d 3d f4 ca 01 3d
       -0.037930984 0.041586336 0.05793181 0.03168769
000270 cc 53 69 3c 0a c9 c6 bb 60 c9 4c 3b 75 bc 75 3b
       0.01424117 -0.006066446 0.0031247959 0.0037496362
000280 e3 ed 3f 3d f8 a6 47 3d 86 ea 61 3d c3 58 a2 bd
       0.046857726 0.04874322 0.0551553 -0.07927086
000290 15 5b 2a 3d 53 92 41 bd f7 39 89 3d 8b d1 af bd
       0.04159077 -0.047258686 0.06700509 -0.08584889
0002a0 c6 41 37 3d 66 cc 80 bd 14 fc 6e bc 88 52 80 3c
       0.04474046 -0.06288986 -0.014586467 0.015664354
0002b0 54 44 b7 3d f2 73 65 bd 6f 4c 10 bd e9 d4 37 bd
       0.089485794 -0.056018777 -0.035229143 -0.04488078
0002c0 34 52 e7 bc c8 ad 9f bd 19 24 a4 3b da 3e 85 3d
       -0.02823744 -0.07796818 0.005009186 0.065061286
0002d0 bb f7 00 3d 2f 93 0e bd 4a 6f 4e 3d 64 33 bc bc
       0.031486254 -0.034808334 0.050399102 -0.022973724
0002e0 53 cf fd bc 62 3b 45 3d 27 be a8 bd 3b 1a d6 3c
       -0.030982649 0.048152335 -0.08239394 0.026135555
0002f0 d7 5e 32 3d 01 44 87 3d 2b d2 86 3d 07 6c 48 3d
       0.043547478 0.066047676 0.06583055 0.048931148
000300 eb 24 a8 bb aa db 8e bd 32 e6 28 bd d5 15 6f 3d
       -0.005131354 -0.06975491 -0.041235156 0.05837043
000310 3c 8d 99 bd b1 66 bc 3c 28 54 12 3d f8 3f 97 3d
       -0.074976414 0.022998186 0.03572479 0.07385248
000320 7e 73 39 3d fd 15 e1 3d a0 74 5b 3d 25 b2 9a bd
       0.045276158 0.10990522 0.05357802 -0.075535096
000330 a4 c0 83 bd ce 92 fe bc 42 0b ad bc c9 cf bb bc
       -0.06433228 -0.031075861 -0.021123532 -0.022926228
000340 5b a3 62 bd 12 b0 eb bc 63 28 18 3d c7 51 74 bd
       -0.05533157 -0.02877048 0.03714789 -0.0596483
000350 8d 89 59 3d 0e 77 8d 3d 64 53 68 3d 39 d0 0a 3c
       0.053109694 0.069074735 0.056720152 0.008472496
000360 ac aa b2 3d 6a b4 25 3d 17 a9 7b 3c d8 99 ed 3c
       0.08723959 0.04045526 0.015360138 0.029004022
000370 b6 6e de 3d 06 e9 09 bd c0 e2 bd bc cb da 4f bd
       0.1086096 -0.033669494 -0.023179412 -0.050745767
000380 73 34 93 3d 12 5f 63 3c f5 dc 99 bd 1f 2e 48 3d
       0.07187738 0.013877647 -0.07512847 0.04887211
000390 17 55 81 bd bc bd 37 3c fe 9b a5 bd 8a 68 00 bd
       -0.06315058 0.01121467 -0.08086394 -0.031349696
0003a0 d2 ca 6a bd 88 25 07 bc 70 94 80 3d 0a 87 b6 3c
       -0.05732233 -0.008248694 0.06278312 0.022281189
0003b0 dd a5 21 3d ef ca 55 3d f6 f1 4d 3d 59 9f 72 3d
       0.03946482 0.052195486 0.05027958 0.059233997
0003c0 dd b0 b7 bc 16 67 2c 3d 04 b8 a9 3b 0a 52 23 3d
       -0.022423202 0.042090498 0.005179407 0.03987316
0003d0 2f 82 74 3d 52 3a 54 3d f3 ca e9 3c 04 03 81 3d
       0.059694465 0.05181343 0.028539157 0.06299403
0003e0 b8 81 93 3d 14 af 57 bd db 05 99 bd 39 7a a4 bd
       0.07202476 -0.052657202 -0.0747182 -0.080311246
0003f0 af 71 66 3d 69 35 8a bd 24 80 45 3c 8d 53 20 3b
       0.05626076 -0.067484684 0.012054477 0.0024463863

net.3.bias f4 [128]
000000 cf 11 97 bc 35 0e a1 bd b6 c7 09 bc 92 b4 b8 3d
       -0.018441109 -0.07864038 -0.008409431 0.09018816
000010 bf 32 2b bd 56 bd 08 3d a4 c9 14 3d 61 64 98 3c
       -0.041796442 0.03338369 0.036325112 0.018602552
000020 3e c3 1f bd 92 d0 da 3c 96 20 a7 bd f9 98 96 bc
       -0.039004557 0.026710782 -0.08160512 -0.01838349
000030 be c6 88 3d f9 02 00 bc cb 13 22 bd db cc 83 bd
       0.06678532 -0.007813209 -0.039569657 -0.064355575
000040 bd de 26 bd e3 66 85 3d 8f c8 2d 3d fd 9e 9c bd
       -0.040739764 0.06513765 0.042427596 -0.07647512
000050 b6 f2 b5 bd 89 e6 f8 bc b9 83 ea 3c d7 3a 6b 3d
       -0.08884184 -0.030383365 0.028627263 0.05742916
000060 b6 eb b0 bd 23 ea 3d bd 1f 7a fa 3c b6 86 2e 3d
       -0.08638708 -0.04636587 0.03057581 0.04260894
000070 8f 67 0b 3c f5 1a 2d 3d 86 0e 7f bd 6b 3c 53 bd
       0.008508577 0.042262036 -0.06226971 -0.05157129
000080 7b a2 92 bd bd 57 7f 3d 4f f8 26 bc b3 4e d0 3c
       -0.07159897 0.062339533 -0.010191037 0.025428152
000090 6b 85 03 3d d8 31 7f bd 63 e6 8a 3d a8 9f 70 3c
       0.03210966 -0.062303394 0.06782224 0.0146865025
0000a0 22 fb 2f 3d 65 bf a8 3d 75 02 c5 bb c6 34 24 3b
       0.04296411 0.082396306 -0.006012256 0.002505587
0000b0 a8 1a d7 3c 14 f0 e8 bb 13 06 92 bd ac 87 35 bc
       0.026257828 -0.0071086977 -0.07130065 -0.01107971
0000c0 17 68 5f bd 4e 39 0b 3d e1 6b 30 3d e4 ae 7f 3d
       -0.054542627 0.033990197 0.04307163 0.062422648
0000d0 22 95 03 bc d8 b2 a5 bd 78 63 f7 bc ed 3d 86 bd
       -0.0080311615 -0.08090752 -0.030198798 -0.0655478
0000e0 37 23 64 bd e3 93 ba bd 4a 07 d3 3c c2 a4 53 bd
       -0.055697646 -0.091102384 0.025760312 -0.051670797
0000f0 e9 be 97 3b 42 7f 72 bd be 80 5b bd 48 26 5c bb
       0.0046309126 -0.059203394 -0.053589575 -0.0033592153
000100 c7 12 1f bd 9a 4c 28 bd ae 46 15 3b 0d a4 ce bc
       -0.038836267 -0.041088678 0.0022777724 -0.02522471
000110 f6 ce 4c 3d 79 3b 2a bd 97 a0 f7 bb 47 6d 89 bc
       0.05000206 -0.041560624 -0.0075569856 -0.01677574
000120 e3 2d 86 3d b8 61 27 3d f3 4a 4c bd 4e d2 64 bd
       0.06551721 0.040864676 -0.049876165 -0.055864625
000130 06 6c 3b 3d 8e 5c 65 3d 7e 30 92 bd 9e 30 91 bb
       0.045757316 0.05599647 -0.071381554 -0.0044308444
000140 9d e0 89 bc e3 9a 8d bd 7d 4d 25 bd a9 f3 92 3d
       -0.016830737 -0.06914308 -0.0403571 0.07175381
000150 91 5a 90 bd 5e 59 7a bd 4d 68 53 3d 1c b5 a2 bc
       -0.07048524 -0.061120383 0.05161314 -0.01986175
000160 70 a0 62 bd 30 4d 9e bc 2d 09 32 bd a6 97 b9 bc
       -0.055328786 -0.019323915 -0.043465782 -0.02265532
000170 a0 62 87 3b d6 f4 aa 3d 21 4f ce bb 7f ac b4 bd
       0.00413163 0.0834748 -0.006296054 -0.088219635
000180 bb 83 3f 3d 2d c0 14 bd 72 eb 71 bb a4 18 ab bd
       0.046756487 -0.036316086 -0.0036914018 -0.08354309
000190 f6 92 86 3d df 66 f9 bc 7f c5 31 bd d3 35 a3 bd
       0.06570999 -0.03044456 -0.043401238 -0.079692505
0001a0 ad fb 96 bd 83 fe 5c bd d9 fe 33 3c 2d 61 9d bd
       -0.07372222 -0.05395366 0.010986053 -0.076845504
0001b0 8a 69 85 3d 0c 9d 25 3d 0e 4e 20 3d a2 d0 67 bd
       0.065142706 0.040432975 0.03913694 -0.056595452
0001c0 89 6c 98 3c a7 59 2c bd 0a 1b 02 3c 10 23 80 bd
       0.018606441 -0.042077687 0.007941017 -0.06256688
0001d0 b5 f1 86 bd 7f 86 93 3d f1 6c 53 3d 96 0f ae 3d
       -0.06589071 0.072033875 0.051617566 0.084990665
0001e0 5a c1 27 3d d7 11 81 3d 00 0d 87 3c c3 a3 22 3d
       0.04095588 0.06302231 0.016485691 0.039706957
0001f0 4f 35 18 bd dc 9b b0 3b 81 5d b1 3c 91 78 d0 bc
       -0.037160214 0.0053896736 0.021651031 -0.025448116

net.5.weight f4 [128]
000000 49 48 80 3f 03 69 78 3f 30 c9 82 3f aa cf 80 3f
       1.002206 0.97035235 1.0217648 1.0063374
000010 b0 1a 80 3f 43 46 83 3f 06 32 7f 3f 85 71 80 3f
       1.0008144 1.0255817 0.99685705 1.0034643
000020 35 ee 7e 3f 65 81 7e 3f fa 16 85 3f c8 2f 87 3f
       0.99582225 0.9941619 1.0397637 1.0561457
000030 f6 7f 83 3f 60 25 80 3f a0 63 7f 3f af c2 80 3f
       1.0273426 1.0011406 0.9976139 1.0059413
000040 a9 88 80 3f fe 93 80 3f 35 c6 90 3f a4 de 7f 3f
       1.0041705 1.0045164 1.1310488 0.999491
000050 4b ce 81 3f e1 1e 7f 3f d5 5d 7d 3f 55 86 7d 3f
       1.0141081 0.9965649 0.989713 0.990331
000060 59 7e 7e 3f 33 85 82 3f 35 8d 81 3f 7c 31 81 3f
       0.9941154 1.0196899 1.0121218 1.0093226
000070 44 65 80 3f 20 aa 80 3f 13 de 7d 3f 15 86 7d 3f
       1.0030904 1.0051918 0.99166983 0.9903272
000080 08 2b 81 3f 18 7e 8c 3f a0 29 85 3f 68 6e 80 3f
       1.0091257 1.0975981 1.0403328 1.0033693
000090 df 3a 81 3f ee 20 80 3f df d2 82 3f 73 d5 7f 3f
       1.0096091 1.0010049 1.0220603 0.9993507
0000a0 61 83 83 3f d3 1b 81 3f c5 5c 8d 3f 44 83 7e 3f
       1.0274469 1.0086616 1.1043936 0.99419045
0000b0 44 ce 80 3f 04 bd 7d 3f ad c1 7d 3f d4 55 7c 3f
       1.0062947 0.9911654 0.9912365 0.98568463
0000c0 b6 b9 7d 3f cc 5b 80 3f 37 34 90 3f 7c b8 84 3f
       0.991115 1.0028014 1.1265935 1.03688
0000d0 c8 7a 80 3f 69 dd 80 3f c7 3c 80 3f 3f 5c 81 3f
       1.003747 1.0067569 1.0018548 1.0106276
0000e0 40 30 7c 3f 70 2e 83 3f 92 25 7a 3f 4c de 80 3f
       0.98511124 1.0248547 0.9771358 1.006784
0000f0 c6 76 81 3f 5e 9c 7e 3f 33 53 80 3f 16 00 7c 3f
       1.0114372 0.9945735 1.002539 0.9843763
000100 c9 82 7b 3f bd 57 80 3f c6 81 85 3f ba 82 7f 3f
       0.9824644 1.0026776 1.0430229 0.9980885
000110 cc ed 7d 3f 27 cb 7e 3f 4e 80 84 3f 02 1e 80 3f
       0.99190974 0.99528736 1.0351655 1.0009158
000120 2f 81 89 3f b5 24 7f 3f 61 c5 7d 3f 66 6b 80 3f
       1.0742549 0.99665385 0.991293 1.0032775
000130 48 ca 7f 3f c4 21 7d 3f 89 ce 7e 3f e2 6c 7c 3f
       0.9991803 0.9887965 0.995339 0.9860364
000140 1e a5 80 3f ff 58 80 3f 5c 38 7f 3f 20 cd 80 3f
       1.005039 1.002716 0.9969537 1.0062599
000150 c8 d5 7e 3f db ff 7e 3f fc 4b 80 3f b4 f9 7b 3f
       0.99544954 0.99609154 1.0023189 0.9842789
000160 69 29 82 3f b6 45 80 3f f1 13 80 3f da 26 82 3f
       1.0168887 1.0021274 1.0006086 1.0168107
000170 de b2 7d 3f b4 5d 83 3f 70 27 7d 3f d9 7c 80 3f
       0.99101055 1.0262971 0.988883 1.00381
000180 bd 36 95 3f 5e 37 7e 3f 2d 88 81 3f 6f ae 85 3f
       1.165733 0.99303234 1.0119683 1.0443858
000190 1d 33 7f 3f 58 69 85 3f a3 72 7c 3f c6 18 7c 3f
       0.9968737 1.0422773 0.9861242 0.984753
0001a0 08 8b 80 3f 3e 14 83 3f 93 5e 82 3f df e0 7f 3f
       1.0042429 1.0240552 1.0185112 0.999525
0001b0 b6 a3 7f 3f 0d 9c 80 3f 3a 39 81 3f 55 16 87 3f
       0.9985918 1.0047623 1.0095589 1.055369
0001c0 9d 75 82 3f 78 2e 7c 3f dd a6 7e 3f e0 1c 85 3f
       1.0192143 0.98508406 0.99473363 1.0399437
0001d0 58 ee 85 3f d8 a3 82 3f dd 6b 7c 3f 16 e3 80 3f
       1.0463362 1.0206251 0.98602086 1.0069301
0001e0 4e c0 7e 3f b6 4d 7d 3f 30 28 84 3f 9d 08 80 3f
       0.99512184 0.989467 1.0324764 1.0002629
0001f0 d9 f7 7e 3f 44 57 81 3f 71 c2 81 3f 33 ff 7f 3f
       0.99596936 1.0104756 1.0137464 0.9999878

net.5.bias f4 [128]
000000 3d 91 c2 3b b4 c0 8a bb 3f 0b 93 ba db 63 4e 3c
       0.005937724 -0.004234398 -0.0011218562 0.01259705
000010 18 55 ac 3c f9 83 a8 bb 42 65 c1 3b 81 a5 91 ba
       0.02103667 -0.0051426855 0.0059019635 -0.0011111946
000020 d6 b6 41 3c 77 7d 17 bb 42 c6 88 3c 72 cd ca 3b
       0.011823377 -0.0023115554 0.0166961 0.006189042
000030 ed 03 25 bc 42 b2 39 3b 10 9a 9a 3b 06 d0 11 3c
       -0.010071737 0.002833501 0.0047180727 0.008899694
000040 1e ca c3 bb 14 04 7b 39 1a 73 28 3c 25 13 9c 3b
       -0.005975022 0.00023938745 0.010281349 0.0047630244
000050 34 58 e1 ba d6 b1 9b 3b a0 f7 ee 3a 80 c1 fa 3a
       -0.0017192424 0.0047514243 0.0018231757 0.0019131154
000060 2a 39 09 bc 5b a0 6f bc f2 5a 06 3c f6 70 89 bc
       -0.008375445 -0.014625634 0.008200394 -0.016777497
000070 4c 2f bf bb d0 57 d7 b7 b5 ae fa bb 60 88 20 3c
       -0.0058344956 -2.5670888e-05 -0.007650221 0.009798139
000080 39 ec 67 bc a0 cb 25 3a c6 1d e0 bb b2 b5 ab bb
       -0.014155441 0.0006324593 -0.006839487 -0.0052401656
000090 23 87 b9 bb c2 27 04 bc 08 52 f6 3b 6f ef cc 3b
       -0.0056618615 -0.00806612 0.007517103 0.0062541286
0000a0 06 e3 62 bc 99 f6 57 bc 6b cf b0 bb 6f a5 3b 3c
       -0.013848072 -0.013181352 -0.00539582 0.011453017
0000b0 4b 94 50 3c 8d ed d2 bb ad eb 9c 3b 01 67 1a 3b
       0.012730668 -0.0064370097 0.004788837 0.002355993
0000c0 0a 6b 48 3c 8d 9c fa bb 63 da 2a bc d6 ef 23 bc
       0.012232551 -0.007648057 -0.010428044 -0.010005912
0000d0 ba 57 4e bb e0 d7 cf bb 75 fc ad 3b e5 95 84 bc
       -0.0031485395 -0.006342873 0.0053096362 -0.016184757
0000e0 7a 60 38 3b 07 40 64 bb 4b c1 d2 3c 4c 69 1d bc
       0.0028133676 -0.0034828202 0.025726935 -0.009607624
0000f0 58 77 38 bc ec df b4 3b c8 6c 01 39 e2 4b e9 bb
       -0.0112589225 0.0055198576 0.00012342923 -0.0071196416
000100 c1 b3 9b 3c 55 4c 5e bb 8a dd c8 bb 71 21 97 3a
       0.019006612 -0.003392001 -0.006129925 0.0011530352
000110 06 f7 ee 3a 23 02 77 3b 44 a5 21 bb 61 76 5b bc
       0.0018231578 0.0037690483 -0.0024665156 -0.013394923
000120 0a e7 8e 3b 5a a6 7c 3b 8c f3 47 bb 71 58 24 bb
       0.004361038 0.0038551302 -0.0030510155 -0.002507713
000130 67 da 5b bc dd ef 84 3b 5c 7d 97 3b 10 68 04 3c
       -0.01341877 0.0040569142 0.0046230983 0.008081451
000140 5b fc 1e bc ae a0 c0 3b 1c 2a 2f 37 3b ce d1 bb
       -0.009703721 0.0058785295 1.0440617e-05 -0.0064027584
000150 37 88 a8 3b d7 77 08 3c 9d 10 25 3b 7d f8 2b bc
       0.005143191 0.008329353 0.0025186904 -0.010496256
000160 44 4c 9b ba 5a 8f 5c 3c 9a 30 ab ba 7a c5 d5 3b
       -0.001184829 0.013461912 -0.0013060749 0.006523785
000170 89 86 4a bc 43 d8 a2 bb cc dd 84 3c eb 06 85 3a
       -0.012361177 -0.004969628 0.016219042 0.0010149156
000180 d8 62 8d 3c 60 90 b8 3b 5f 7d a3 3c 9d 8d a9 3b
       0.017259046 0.005632445 0.019957243 0.0051743523
000190 13 6a d3 3b 7d be 22 bb 83 f8 76 3c 26 7a e3 3b
       0.006451854 -0.0024832778 0.015073898 0.0069420515
0001a0 c6 b2 c7 3b 3e 85 1b bc 2d 99 1d 3b 2d ef 9c 3a
       0.0060943095 -0.009492217 0.0024047599 0.0011973135
0001b0 15 62 8d bb 52 89 0b bc df 16 73 bc 7d 94 7e bc
       -0.004314671 -0.008516626 -0.014836996 -0.015538332
0001c0 97 fb cf 3a 36 66 55 3c 65 b2 b5 bb 1c f2 ad bc
       0.0015867826 0.013024857 -0.005544948 -0.02123361
0001d0 9d 08 7b b9 15 5e 0c bc eb d6 ab bc 56 ee 88 bb
       -0.00023940434 -0.008567353 -0.020976504 -0.0041788025
0001e0 62 7c 56 bb 73 7e 09 bb 8b da 98 3a 8a f0 27 bc
       -0.0032727947 -0.002097991 0.001166181 -0.01025022
0001f0 70 07 3a 3c 53 9b 09 3c 8b 7e c6 b9 e9 02 16 ba
       0.011354312 0.008398849 -0.00037859785 -0.00057224795

net.6.weight f4 [64, 128]
000000 0d e3 d6 bb 79 40 f6 3b 73 c6 ce bb 17 ec 04 bd
       -0.0065578283 0.00751501 -0.006310278 -0.032451715
000010 5f fe a9 bc 48 f2 df bd 92 61 9c 3d 44 d8 b3 bc
       -0.020751176 -0.10934883 0.076357976 -0.02195371
000020 4f 24 b0 bd 81 ee 80 bd b1 09 28 be 4c 03 e2 3c
       -0.08600675 -0.06295491 -0.16409947 0.027589463
000030 90 04 2c bd d9 4e f0 bc 5e 58 46 3d fc 99 16 bd
       -0.04199654 -0.029334472 0.048424117 -0.036767945
000040 35 3a 88 bc 40 15 fd 3d 50 ca 7c be 42 70 4c bd
       -0.016629318 0.12357569 -0.24686551 -0.049911745
000050 35 12 d1 3d ba 40 0d 3d be 52 11 3d 61 73 77 bd
       0.10208551 0.034485556 0.0354793 -0.06041277
000060 63 3c c4 3d 01 56 dc 3a cd 81 63 bc f9 8b 6a bd
       0.0958183 0.0016810299 -0.013885927 -0.057262395
000070 76 31 01 bd 35 4c 83 bb 92 47 85 3d d1 b2 76 3d
       -0.03154131 -0.0040068873 0.065077916 0.060229126
000080 b5 33 4c 3d ef d9 21 bd a7 58 a6 3d df 8e 64 bd
       0.049854 -0.03951448 0.08122378 -0.055800315
000090 e1 52 3c 3d cd 89 35 3e 43 77 24 bc 3b 4f 4e bd
       0.045977477 0.17728348 -0.0100382 -0.05036853
0000a0 ac 26 9c bd a2 02 a9 bd c3 59 78 3b e9 9b 8c bd
       -0.076245636 -0.08252455 0.00378953 -0.06865675
0000b0 ec ef 83 bc c0 93 a7 bc fe 8b 72 3d 37 a3 9c 3d
       -0.016105615 -0.020456195 0.05921554 0.07648318
0000c0 02 f0 7a 3d e8 50 5e 3d 94 bd a1 bd a7 03 8f 3d
       0.061264046 0.054276377 -0.07897487 0.069831185
0000d0 fb 6d 8b bd 06 74 0f bd 1b d7 9e bd eb 2d f3 3c
       -0.068080865 -0.035022758 -0.07755872 0.029684981
0000e0 59 1a 83 bd 87 00 1c 3d 84 73 3e bc 1e fd ec 3c
       -0.0640151 0.03808644 -0.011624221 0.02892929
0000f0 43 5c 4e bc 06 62 d6 3c 30 7e 8e 3b ba eb 43 3d
       -0.012595239 0.026169788 0.004348539 0.04783223
000100 aa 18 9a bd ba e5 a2 3c 09 e4 9d bc aa 9b 4c 3d
       -0.075242355 0.019884933 -0.019273775 0.04995314
000110 be 98 76 bd b0 3f b6 3d a5 5f 6d bd 33 24 ad 3d
       -0.06020426 0.08898866 -0.05795254 0.0845417
000120 bb b6 33 3d 53 52 0a 3a 45 b2 97 bd 09 1a b2 3d
       0.043875437 0.00052765495 -0.07407049 0.08696372
000130 1a bb 8d bd 2d a6 1a 3d 01 25 98 3d a7 28 9f bb
       -0.069204524 0.037756134 0.07428933 -0.004857141
000140 5c 3c 6a 3d 62 0a ed 3c ea 7c 96 3c 2a 8b 94 3d
       0.05718647 0.028935615 0.01837011 0.07253106
000150 43 e3 ff 3c eb 58 94 bd 04 19 00 bb dd 3a ad 3d
       0.031236297 -0.07243522 -0.001954616 0.08458493
000160 e5 d5 78 3d 82 77 81 bd 4b dd 72 3a d6 08 aa bd
       0.06075086 -0.063216224 0.00092645426 -0.083024666
000170 d4 18 9a bd 8a b8 b6 3c 3c 40 9a 3d 93 d0 f9 3c
       -0.07524267 0.022304792 0.07531783 0.030494964
000180 a6 b6 01 be c3 60 b3 3d 4f 60 f8 bc ae a9 f7 3d
       -0.12667331 0.0875869 -0.030319361 0.12092911
000190 ab 04 f8 3c 9b 21 b5 3c 43 05 64 3d 99 5d 95 bd
       0.030275663 0.02211075 0.05566908 -0.07293243
0001a0 8c 98 8e bd 52 50 c9 3d 01 fa 59 3d df 06 b0 3d
       -0.0696269 0.09829773 0.053216938 0.085950606
0001b0 1f 19 fb bb 44 52 82 bd be 80 9e bc 2b db 33 bd
       -0.007662907 -0.06363347 -0.019348498 -0.043910187
0001c0 49 2b 0e be 43 a1 5f 3d 25 af e0 ba 79 88 c0 bd
       -0.138837 0.05459715 -0.0017142041 -0.0940103
0001d0 8e 34 ae 3d fb 29 4e bb 03 58 a7 3d 69 90 e9 bc
       0.08506118 -0.0031458128 0.08171084 -0.028511243
0001e0 11 bd d7 3c 43 9d 4e bd 4d 19 6f 3d 6f 60 05 3a
       0.026335271 -0.050442945 0.058373738 0.0005087917
0001f0 1f f2 70 3d 20 f7 13 3d fa 85 bd 3c d7 ee 05 bd
       0.058824655 0.03612435 0.023135174 -0.03269848
000200 85 59 71 3d 59 20 72 bd 08 35 9c bd 10 e4 cf 3b
       0.058923263 -0.05911288 -0.076273024 0.006344326
000210 9f c3 af bd 56 7c 8b bd f1 a7 9e bc 5e 4c 19 bd
       -0.08582234 -0.068108246 -0.01936719 -0.037426345
000220 cd 39 2f bc 8b 74 f1 bc a2 75 0c 3e f3 bc f1 bc
       -0.010694933 -0.029474517 0.13716748 -0.029509043
000230 a1 18 c6 39 fe 35 8b bd ab 73 84 bd 27 01 f8 bb
       0.00037783853 -0.067974076 -0.064673744 -0.0075684967
000240 ce f9 54 bc 9a 5d 02 3d 14 e7 b9 3c 4c ef de bc
       -0.012999011 0.031827547 0.022693194 -0.027213715
000250 23 4f 45 3c 0b e0 61 3d a8 f3 0f bd 96 93 f3 ba
       0.012042793 0.055145305 -0.035144478 -0.0018583413
000260 e4 76 c4 3d d7 75 89 3d ab 86 84 bd 60 43 cc bc
       0.09592989 0.06711929 -0.064709984 -0.02493447
000270 22 58 31 3d 49 ba 6c 3d 49 ac a4 bd e1 44 ed bb
       0.04329694 0.057794843 -0.08040673 -0.007240877
000280 3e ce 8a 3d a4 91 bd bb 9e 4d be bc 27 00 91 bd
       0.06777619 -0.005785184 -0.02323037 -0.07080107
000290 e0 b2 91 3c cd ba 20 3e d7 2d 60 3d f3 1e 33 ba
       0.01778549 0.15696259 0.054731216 -0.000683292
0002a0 66 e0 77 bc c2 f8 60 bd 99 4f a0 bc 08 f4 47 bd
       -0.015129184 -0.054924734 -0.019569205 -0.04881671
0002b0 5c d3 90 bd 19 1e 22 bc 57 d2 36 bd 22 08 9b bd
       -0.070715636 -0.009894871 -0.04463419 -0.075699106
0002c0 f6 cf 0e 3d 8e 24 b0 3d 05 12 c1 3d 76 16 2f 3d
       0.034866296 0.08600722 0.09427265 0.04274603
0002d0 54 fc ef 3c de 5f 18 3d 68 20 b0 3c 9f 4c 51 3d
       0.029295124 0.0372008 0.021499828 0.051098462
0002e0 4e 16 e6 bc be c6 b4 3c 3b 22 4b bd 9e bc 91 bd
       -0.028086808 0.022067424 -0.04959319 -0.07116054
0002f0 fd f8 50 bc 5d 9c 43 3c f9 96 6e 3c b0 f9 e4 bc
       -0.012754676 0.011939135 0.014562362 -0.027951092
000300 8d 31 1d 3d 90 65 98 3d 03 47 7d bc 30 c9 84 bc
       0.038377333 0.074412465 -0.015458825 -0.016209215
000310 f0 d9 98 bd 33 26 43 3c 5b 0a 7b 3d a9 0f 0c bd
       -0.07463443 0.011910963 0.061289173 -0.034194622
000320 8b 07 83 3d 3e 50 b7 3d ab ca 66 3d 7b 12 5c 3d
       0.06397923 0.08950852 0.056345623 0.05372856
000330 98 b2 a0 3b bc 1d 23 bd a9 c6 bb 3d a2 ab c3 3c
       0.0049041025 -0.03982328 0.09168751 0.023885552
000340 34 5b e6 3a 26 9e 9b 3b 55 34 a6 bc b6 03 67 bc
       0.0017574788 0.0047490774 -0.020288626 -0.014100006
000350 12 f0 23 3d 4d de b2 bb d6 5f 97 3d 4d 3c a3 3d
       0.04002387 -0.005458629 0.07391326 0.07970486
000360 52 10 6c bc 16 33 91 bd 9b cc 6a bd 8d f6 e1 bd
       -0.014408188 -0.07089822 -0.057324033 -0.11033354
000370 f5 c8 d7 bb 58 6b 6f 3c 03 6b c8 bb 4e ed 41 3d
       -0.0065852352 0.014612995 -0.0061162724 0.047345452
000380 9e 41 ae bd 8a e4 38 bd a6 8a 2a bd 5a 4a ef bd
       -0.08508609 -0.045139827 -0.04163613 -0.11684103
000390 ac 44 d5 bb ae 83 a4 bd de 79 2a bd ef 94 81 bd
       -0.0065084305 -0.080329284 -0.041620128 -0.06327235
0003a0 05 9f a2 bd 27 41 10 3d 43 e6 60 bd 5d ab 3a bb
       -0.07940487 0.035218384 -0.054907095 -0.0028483488
0003b0 05 65 a9 bd 4e 80 80 bd d1 fa 13 3d 52 84 97 bd
       -0.08271221 -0.06274472 0.03612787 -0.07398285
0003c0 19 4b 6d bd 01 15 db 3c a1 90 c3 3d 8d a0 a6 3d
       -0.057932947 0.026743414 0.0954907 0.081360914
0003d0 19 08 15 3d c3 a2 94 ba eb 8a ab 3d 47 f3 7b 3d
       0.036384676 -0.0011340011 0.08376106 0.061511304
0003e0 49 d4 0a 3d 62 4f 8e bd c7 d2 57 bd 28 b4 4d 3d
       0.033893857 -0.06948735 -0.052691247 0.05022064
0003f0 95 6b 97 3d 6f f7 a4 bd 77 45 c3 3d 54 d1 4a bd
       0.073935665 -0.08055007 0.09534734 -0.049516037

net.6.bias f4 [64]
000000 68 2d 83 3d 14 8d 05 bd 09 62 e8 bc 5f 4b 77 3d
       0.06405145 -0.032605246 -0.02836706 0.060374614
000010 f2 09 3b 3d b6 94 85 bd f3 b2 57 3c 36 8e 0e 3d
       0.04566378 -0.06522505 0.013165223 0.03480359
000020 f0 fc 24 bc 17 8d a2 bb 59 59 33 3c d1 f7 12 bd
       -0.010070071 -0.004960667 0.010946595 -0.035880867
000030 3f ab 15 3d 35 62 6c 3d ac fe e4 bc 0f 65 17 3d
       0.036540266 0.057710845 -0.027953468 0.03696161
000040 64 ce 89 bd 0d b0 9b bd 6e 75 c0 bd dd 6c 53 3c
       -0.06728819 -0.076019384 -0.09397398 0.012904373
000050 2e 36 51 3c 09 4b 0e bb 67 02 a7 bb 35 c3 11 3d
       0.012769265 -0.0021712205 -0.005096722 0.035586555
000060 ee 49 04 3d 0a 9f cf 3b 0e a0 75 bc e0 cd 9b 3d
       0.032297067 0.0063360976 -0.014991773 0.07607627
000070 a5 aa 8b bc 60 08 5a 3d ee 23 55 3d 24 9f 8d 3d
       -0.017049143 0.053230643 0.05203622 0.06915119
000080 31 8c f7 3b f1 74 49 bc ed 28 3f 3d 51 f0 26 bc
       0.007554554 -0.012295947 0.04666989 -0.010189132
000090 f7 9d 00 3d 02 52 06 bc da 4d 35 bc f6 4e 53 bd
       0.031400647 -0.008198263 -0.011065925 -0.051588975
0000a0 90 fe b5 bb 88 b2 81 bd 72 9a 8e 3d e3 57 7c bd
       -0.005554028 -0.0633288 0.06963052 -0.061607253
0000b0 e6 3d bc bd a0 01 70 3d c3 2f 4a 3d 13 59 4c 3c
       -0.09191494 0.0585953 0.049361955 0.012472409
0000c0 ef b2 8b 3d bb 6d 40 3d dd 19 fa 3b d6 f6 05 3d
       0.06821238 0.046979647 0.0076324777 0.032706104
0000d0 4e e9 85 bd 71 6d 8d bd a6 34 81 3d e7 4c 9f ba
       -0.0653864 -0.0690564 0.0630887 -0.0012153656
0000e0 53 2a 45 3d b5 c0 05 bd 3b ca c3 bd 27 78 52 3c
       0.048136067 -0.032654483 -0.09560057 0.012846029
0000f0 ba 9b 80 3c be 58 61 bd fe 6e ab bd c4 2f 7d 36
       0.015699256 -0.05501627 -0.083707795 3.772774e-06

net.8.weight f4 [64]
000000 c0 08 e5 3f 1b ba f6 3f 1a 1b d3 3f e1 9e ea 3f
       1.7893295 1.9275545 1.6492646 1.8329736
000010 6e 0e da 3f df 1d e9 3f 67 5b bb 3f aa e1 f7 3f
       1.7035654 1.8212241 1.4637269 1.9365742
000020 38 34 ea 3f b0 04 00 40 79 af f0 3f 35 7b fa 3f
       1.8297186 2.000286 1.880355 1.956885
000030 90 1b 00 40 fc ab f8 3f 0e df 07 40 be 88 fa 3f
       2.0016823 1.9427485 2.1229892 1.957298
000040 2c 91 0e 40 52 3e 04 40 fe 5c f3 3f c5 63 d0 3f
       2.2276106 2.0663037 1.9012754 1.6280447
000050 8b d3 04 40 f3 14 df 3f b6 b6 cd 3f 12 0b c1 3f
       2.0754116 1.7428268 1.6071384 1.5081503
000060 e4 26 01 40 a9 ae cc 3f 84 05 fc 3f 86 ea f4 3f
       2.0179987 1.5990802 1.9689183 1.9134071
000070 56 6a 08 40 ac d0 04 40 33 22 f3 3f 49 e0 d4 3f
       2.1314902 2.0752363 1.8994812 1.6630946
000080 40 ed 00 40 71 38 f1 3f a7 72 04 40 3b 02 0a 40
       2.0144806 1.884535 2.0694978 2.1563861
000090 58 84 f0 3f 9e dd fd 3f 66 f3 f7 3f 10 ad 04 40
       1.8790388 1.9833257 1.9371154 2.073063
0000a0 8b 46 f2 3f 0f 01 00 40 1e dd da 3f 5e cc f7 3f
       1.8927778 2.0000646 1.709873 1.9359243
0000b0 7f 0a 03 40 97 bd f3 3f 27 27 e6 3f a0 af c2 3f
       2.0475156 1.9042233 1.7980698 1.5209846
0000c0 b2 e5 d4 3f 45 7b ed 3f 26 09 01 40 82 7c 06 40
       1.6632597 1.8553244 2.0161834 2.1013494
0000d0 26 50 f7 3f 1d 78 f3 3f 11 80 e0 3f 7c 10 06 40
       1.9321334 1.9021031 1.7539083 2.0947561
0000e0 f4 68 06 40 c6 29 ea 3f df 61 01 40 b8 8e ef 3f
       2.1001558 1.8293998 2.0215986 1.8715429
0000f0 cc 62 e9 3f da eb ed 3f 3b df df 3f 86 c7 fe 3f
       1.8233275 1.8587601 1.749 1.990464

net.8.bias f4 [64]
000000 9a af 0f 3f 0a e3 ff 3e 64 9b 03 bf 69 ec 18 bf
       0.5612732 0.49977905 -0.5140898 -0.59735733
000010 81 3f 06 bf f2 fc 01 bf 82 30 c2 3e 51 8b 0b bf
       -0.5244065 -0.5077659 0.37927634 -0.54509455
000020 f5 f4 12 bf 5c 46 08 3f f7 cb 07 bf 9a b7 05 3f
       -0.57405025 0.5323236 -0.530456 0.5223328
000030 21 e2 0e bf 31 bc 5b 3e 1a 4c 13 bf e7 a1 07 3f
       -0.55813795 0.21458508 -0.57537997 0.5298142
000040 08 47 20 bd c4 fe 0a bf 5a c9 06 3f f5 e4 11 bf
       -0.03913024 -0.5429499 0.5265099 -0.56989986
000050 88 6b 0b 3f 73 f9 08 bf 89 54 06 bf 24 13 0a bf
       0.54460955 -0.5350563 -0.5247274 -0.53935456
000060 a1 71 0b bf 2a 70 09 3f 03 63 10 bf 3a 67 0f bf
       -0.5447026 0.53686774 -0.5640108 -0.56016886
000070 9b 07 17 3f 19 b7 10 3f d2 b3 0b bf 3e 28 0c bf
       0.5899598 0.56529385 -0.5457126 -0.54748905
000080 0a 98 0b bf 8a a3 12 bf ea 02 04 bf 01 ba 27 3f
       -0.5452887 -0.5728079 -0.51566947 0.65518194
000090 9e 3e 19 bf b4 eb 0d bf cd d3 c7 be 92 1e 08 3f
       -0.5986117 -0.5543778 -0.3902878 0.53171647
0000a0 77 a2 29 bf 60 02 00 3f 31 83 f4 be b9 30 0e 3f
       -0.66263527 0.50003624 -0.4775634 0.55543095
0000b0 35 c2 17 3f 01 b5 0b bf 4c e2 fb 3e 67 21 da 3e
       0.5928071 -0.54573065 0.49196088 0.4260361
0000c0 1e d6 0e bf 72 63 ef be 31 b4 0b 3f 1d cb 0a bf
       -0.55795467 -0.46755558 0.54571825 -0.54216176
0000d0 2e 5a 05 bf 76 89 08 bf 1d 72 00 bf 8c fe fe be
       -0.5209073 -0.5333475 -0.50174123 -0.4980358
0000e0 0c f2 2d 3f f0 a7 04 bf e5 ff 0f 3f 27 49 c4 be
       0.6794746 -0.5181875 0.5624984 -0.3833706
0000f0 f6 25 07 bf f6 57 00 bf f7 b0 09 bf ff 16 04 bf
       -0.527923 -0.5013422 -0.5378565 -0.5159759
