game/model/models/q_net_400_500_64_32.pkl (torch, 31120 bytes, 8 tensors)

net.0.weight f4 [64, 8]
000000 ca e6 b3 bf 4e 31 06 bf 79 7d 1b 3f cd 88 ca 3e
       -1.4054806 -0.52418983 0.6073833 0.39557496
000010 e6 53 d9 bd cd 09 da 3f 5b bd c0 bb eb 82 8a bf
       -0.106117055 1.7034241 -0.005881948 -1.0821203
000020 12 32 0f 3e 6c c7 81 bc 9a ff 05 bf 44 a0 26 bd
       0.13983944 -0.015842162 -0.5234314 -0.040680185
000030 61 03 24 bf f3 94 9d 40 b0 14 ca bf 99 72 11 bf
       -0.64067656 4.9244323 -1.5787563 -0.5681549
000040 d3 5c 47 be 78 de 4f be f2 c8 30 be ea 24 e5 3d
       -0.19469003 -0.20299709 -0.17264155 0.111886814
000050 26 08 9e 3e 5b 41 2a 3b 7b dc 7f be 49 3e 5a be
       0.30865592 0.0025978896 -0.2498645 -0.21312822
000060 44 44 6f 3e d1 0c 48 be 26 47 61 3e 93 c3 29 be
       0.23365885 -0.19536139 0.21999797 -0.16578512
000070 a4 6d a9 3e 12 1a bb be d2 41 30 bf e1 78 89 3d
       0.33091462 -0.36543328 -0.68850434 0.06712509
000080 a2 06 ba bd 51 d4 ed 3c 41 f5 46 3e 64 c2 9f 3e
       -0.09083296 0.029031904 0.19429494 0.31202996
000090 6e 72 70 3f 2c 50 6b c0 1c 38 38 bf 52 5b 7b 40
       0.93924606 -3.6767683 -0.71960616 3.9274487
0000a0 ac bf 94 3e 6f e0 94 be 70 a6 ca 3e e7 5b 2f be
       0.29052484 -0.2907748 0.39580107 -0.17124902
0000b0 25 51 c4 be fe 2e 9f 3f 57 3a 77 3e b8 be 86 bf
       -0.38343158 1.2436216 0.24143349 -1.0526953
0000c0 50 5a d4 3d bf c7 fb bc 0d 87 ce 3d bd e1 d2 be
       0.10368788 -0.030734895 0.10084353 -0.4118785
0000d0 f9 f6 32 be da f9 9a 3f 49 2d 1b be b5 1e a1 bf
       -0.17477025 1.2107499 -0.15153994 -1.2587496
0000e0 40 85 47 3c 4e 26 88 be 83 2b b0 3d 34 68 b6 be
       0.012177765 -0.26591724 0.08602049 -0.35626376
0000f0 52 88 16 bd 64 e7 70 be ba aa 13 bd 38 78 6e be
       -0.0367511 -0.23525769 -0.03605149 -0.23288047
000100 74 40 3e be ab b4 a4 be 1d c8 18 3d ca e8 44 3e
       -0.18579274 -0.3216909 0.037300218 0.19229427
000110 c4 54 b3 be d3 60 df bc f6 8d aa 3e 29 b3 f9 3d
       -0.3502561 -0.02726785 0.33311433 0.12192375
000120 50 e0 45 3e 2e b1 1c 3d 15 6a 26 bf 88 38 3e 3d
       0.1932385 0.03825491 -0.6500562 0.04644063
000130 5a 3f bf be c2 96 2f 40 33 00 04 c1 b7 35 a8 3f
       -0.3735302 2.7435765 -8.250049 1.3141392
000140 a8 e6 37 bd db f7 42 3e 62 d2 f8 3d ec f5 9a 3e
       -0.044897705 0.19039862 0.12149502 0.30265749
000150 d6 66 f0 3e e0 b3 80 bf 1e c6 cd bf df 75 ed 3f
       0.46953458 -1.0054893 -1.6076086 1.8551596
000160 5f 64 96 bf 6f f7 76 3e 04 4c e9 3d c3 9f 06 3f
       -1.1749381 0.24117826 0.11391452 0.5258753
000170 ae 40 77 3f 04 b6 24 c0 60 c1 ce bf a2 a5 a4 40
       0.9658307 -2.5736094 -1.6152763 5.145219
000180 77 8c e5 bd c2 12 59 3f a2 cc 1e bf 49 af 5c bd
       -0.11208432 0.8479425 -0.62030995 -0.053878102
000190 1e a1 e4 3e 14 c8 94 c0 b3 75 8e 40 a9 43 63 3f
       0.44654173 -4.6494236 4.4518676 0.88775116
0001a0 36 89 37 be 12 e5 b3 bc dd 15 d5 bd ea 57 0f be
       -0.17923436 -0.021959815 -0.10404561 -0.1399838
0001b0 48 5e 6d be bc b2 58 bd 3d 9e 96 3e 7c ba a7 be
       -0.23180497 -0.05290483 0.294176 -0.32759464
0001c0 5b 02 c1 bd 83 44 04 3f b6 f3 98 be 8e 81 aa 3d
       -0.094242774 0.5166704 -0.29873437 0.08325492
0001d0 4c 5b d2 bd ac 02 47 c0 a2 1f bd 3f d8 7a 9c 3f
       -0.1027132 -3.109538 1.4775279 1.2224989
0001e0 f7 8e fc bd c9 21 da 3c 7a 37 ad 3e fe 95 19 3f
       -0.12331956 0.026627438 0.33831388 0.59994495
0001f0 8a 6c e9 3e ed 1c af bd ae 37 b4 bf 28 fd e0 3f
       0.4559062 -0.08550439 -1.4079492 1.7577257
000200 47 f9 d3 bf 86 08 0d 3f c0 00 de be 9e 9c 39 bd
       -1.6560448 0.5509113 -0.43359947 -0.045315377
000210 18 f4 86 3e 77 73 b2 c0 9f 11 9e bf 17 7f df 3f
       0.26358104 -5.576595 -1.2349128 1.746066
000220 a6 3f 3c bd bd fe 24 be 91 bb 19 3e a4 7a 2b 3f
       -0.045959137 -0.161128 0.15012957 0.6698401
000230 75 29 1a 3f b9 db 83 c0 fc d6 13 c0 74 f4 6c 40
       0.6021951 -4.1205716 -2.3099966 3.7024202
000240 87 d7 a2 be 02 13 19 3e ee c2 92 be f3 73 da bd
       -0.3180506 0.14948657 -0.28664345 -0.10666647
000250 dd dd 3e be b8 25 35 3e 39 a3 bb 3d 99 09 66 be
       -0.18639322 0.1769017 0.091619916 -0.22464599
000260 6b 4a b4 bd 12 9c 80 bb 27 73 59 3e 06 a1 26 3f
       -0.088032566 -0.003924855 0.21235333 0.6508945
000270 78 fb 1d 3e 22 67 db bf 7b 17 26 bf 0d b6 1e 40
       0.15427959 -1.7140849 -0.6487958 2.4798615
000280 21 bf 84 bf 7c 6c 9d bd fb 91 3b 3e c6 da 12 3f
       -1.0370828 -0.076867074 0.18317406 0.5736507
000290 ff 6c b9 3e 28 44 ad c0 63 b9 b2 c0 df c5 9c 40
       0.3621597 -5.41457 -5.58513 4.899154
0002a0 76 ac 03 bc 00 c9 9e 3e 3f 2a 9b bd a2 55 c6 bd
       -0.008036723 0.31012726 -0.07576417 -0.09684302
0002b0 bb 51 8e 3d 8a 27 86 40 55 a7 c4 c0 ac 8e b7 3f
       0.069491826 4.1923265 -6.1454263 1.4340415
0002c0 15 0d e4 bd 87 9a d0 bd 64 6b a2 3e a6 9e be 3e
       -0.11135308 -0.10185724 0.31722558 0.37230414
0002d0 7c e6 02 3f 78 f6 ce bf 1d be c5 3e 77 9f 4f 3f
       0.5113294 -1.6168966 0.38621607 0.811027
0002e0 9d 84 d3 bc 0d 59 aa 3d 64 24 c0 3d 36 00 16 bf
       -0.02582007 0.08317766 0.09381941 -0.5859407
0002f0 8f c1 5b 3d 4c e8 d6 3f 29 5c b9 3f a9 05 15 c0
       0.05365139 1.6789641 1.448125 -2.3284705
000300 6a 93 b3 be 89 72 ef be 94 be a7 3e 9c 29 95 3e
       -0.35073406 -0.4676707 0.32762587 0.29133308
000310 de a6 13 3f 4c a4 60 3f 4f 61 b5 3e 24 ec 05 3e
       0.57676494 0.877507 0.35425803 0.13078362
000320 f4 71 42 be 9d 2e 0d 3e 46 9a 95 be e6 8d a7 3e
       -0.18988782 0.13787313 -0.29219264 0.32725447
000330 71 7c 37 bd 5f 9c a3 be ce 8f 57 bd 8e 4d 62 3e
       -0.04479641 -0.3195524 -0.052627377 0.22099897
000340 12 19 57 bd e3 89 89 bd d2 bd 34 3e 29 df f3 3e
       -0.052514143 -0.06715753 0.17650536 0.47631195
000350 8b 3b 9e 3e bb 82 a9 be 4a b0 54 c0 a7 d8 ce 3f
       0.30904803 -0.33107552 -3.3232598 1.6159867
000360 0f 13 92 bd 1c 85 7e 3e 1f c8 70 3e b6 e4 33 bf
       -0.071325414 0.24855465 0.2351384 -0.7027086
000370 69 85 e8 be e3 77 b7 be 13 24 a0 40 37 ae 87 c0
       -0.45414284 -0.35833654 5.0044036 -4.2400165
000380 a3 ac 85 be 50 31 dc bc d4 97 a0 be 2a 95 66 3e
       -0.26108274 -0.026878983 -0.31365836 0.22517839
000390 58 4e 68 be 3d 1a d9 3d 67 d8 73 bd 9b 4f 96 be
       -0.22686136 0.10600708 -0.05953255 -0.2935761
0003a0 e1 a7 42 be 2e fd 90 be fc ef 11 bb c3 61 ac 3d
       -0.19009353 -0.2831816 -0.0022268286 0.08417084
0003b0 6f fc a9 be 32 ea 5f 3e 15 97 73 be 4c a5 76 be
       -0.33200404 0.21866682 -0.23788102 -0.24086493
0003c0 03 b5 ed bd 93 93 b2 be 7b 8b fc 3c d4 6a 33 3d
       -0.11606791 -0.34878215 0.030828228 0.04380305
0003d0 3b a6 1b 3e 90 16 6b bb 5f 46 d8 bc 68 83 0c be
       0.1520013 -0.0035871603 -0.026400743 -0.13722003
0003e0 b9 79 50 be c2 9a fe bd f8 f1 79 be 28 e4 21 3e
       -0.20358934 -0.124318615 -0.2440871 0.15809691
0003f0 41 36 9f be 1d 20 97 be b5 50 9e be be d3 ae be
       -0.3109608 -0.29516688 -0.3092095 -0.3414592

net.0.bias f4 [64]
000000 3d 41 29 be 65 ce 13 bf 31 b7 f3 3d 8c e1 01 3d
       -0.16528793 -0.5773681 0.11900175 0.03170924
000010 e6 0a 24 3f df dd 62 be 32 76 a6 be 3b 2e 99 3e
       0.6407913 -0.2215495 -0.3251205 0.29918084
000020 9d 22 55 3e 23 98 aa bd e8 21 ba bd 2e 7c 07 3f
       0.20813985 -0.08329799 -0.09088498 0.5292386
000030 cb 87 0c be 76 63 08 be 13 7a 05 3f 46 0e fd 3e
       -0.13723676 -0.13319191 0.52139395 0.49424952
000040 61 76 2a 3e 2b e7 fc 3e b7 b7 28 3e ec 2f 9c 3e
       0.1664672 0.49395117 0.16476332 0.3050531
000050 06 dc 19 3f 67 2c 8e bd ac 25 85 bd 7e 7f 1b bf
       0.60101354 -0.06942063 -0.06501326 -0.6074141
000060 d6 b5 76 3e dd f1 74 be 27 49 ae 3e 3e 64 28 bf
       0.24092802 -0.23920389 0.34040186 -0.6577796
000070 0c a9 1b bd aa 60 90 be 17 8a 73 bd 25 cc 8f be
       -0.038003013 -0.2819875 -0.059457865 -0.28085437
000080 34 f0 6e 3e cd 99 1b be a2 0b 08 3e 71 07 fe 3e
       0.23333818 -0.15195389 0.13285688 0.49615052
000090 36 01 d4 be 1e a4 f0 bd 44 b9 15 be 4c f5 87 be
       -0.41407174 -0.11750053 -0.14621454 -0.26554334
0000a0 c0 bd 9d be 33 6c f6 3d 0a e2 b9 bc aa 8c 2f 3e
       -0.3080883 0.12032356 -0.022690792 0.17143503
0000b0 c8 05 fe ba 7f e8 7b 3f 31 42 2c bf 79 8d d9 bd
       -0.0019380385 0.98401636 -0.672885 -0.10622687
0000c0 3a a7 e6 3e d1 9d f3 bd 65 e3 99 bd 18 db 97 3e
       0.4504946 -0.118953355 -0.07514075 0.29659343
0000d0 63 14 46 3e 66 3a 2a bd 6c dc ef be 7b e5 89 3e
       0.19343714 -0.0415596 -0.46847856 0.26932892
0000e0 96 70 6a bd 3c 61 14 be 09 49 5d 3e 0a a6 29 3e
       -0.057236277 -0.14490217 0.21609892 0.16567245
0000f0 ec 15 3b be a9 a3 97 be c0 bf 03 bf 15 28 9f be
       -0.18270081 -0.2961705 -0.5146446 -0.31085268

net.2.weight f4 [64, 64]
000000 27 23 a2 3f 1e 16 81 3e ec 0b 5b bd 73 1b c0 bd
       1.2666978 0.25212187 -0.053478166 -0.093802355
000010 6b ca b6 bd 5e 1e 10 be ef 9b ff bc 27 2f 84 3c
       -0.08925327 -0.14074084 -0.031202285 0.016135765
000020 c2 01 2b ba f7 6c 9f bf 32 0b 83 3b 16 67 9e bd
       -0.0006523394 -1.2455128 0.0039991373 -0.07734506
000030 d7 05 20 3e 5c 9b 82 bd 29 cc df 3e 78 7d 9c be
       0.15627228 -0.06377289 0.4371045 -0.30564475
000040 26 5e c2 3f 95 ea 22 be 1e c4 c5 bd 15 c9 8a be
       1.5184982 -0.15909798 -0.09656547 -0.27106538
000050 4e 7c 00 3f 18 e0 05 be 46 b7 e1 bd 61 9f e3 bd
       0.50189674 -0.13073766 -0.11021285 -0.111143835
000060 27 55 44 3f a8 48 f1 3c 42 8e 50 be 76 fb c5 bc
       0.7669243 0.02945359 -0.20366767 -0.024167757
000070 60 24 74 3d 70 43 20 bc 34 22 be bd 98 52 8f bd
       0.059605002 -0.009781703 -0.092838675 -0.069981754
000080 cc de 35 3d 62 5d 85 3d b7 2b 46 bc e2 90 83 be
       0.04440193 0.06511952 -0.012095383 -0.25696474
000090 2b 8b b7 3c 32 1b 9e 3e 6c 81 67 3d 99 f6 41 3a
       0.022405228 0.30880123 0.05651991 0.00073991116
0000a0 de 88 b0 bd 10 06 b9 bd fb fd 87 3d 4c 18 87 bd
       -0.08619855 -0.090343595 0.0664024 -0.06596431
0000b0 80 79 4d bd 66 50 86 3d 33 e9 97 3e c1 3c 5a 3d
       -0.0501647 0.065583035 0.29670104 0.053280596
0000c0 34 4f 92 3e 8e e5 22 be 94 44 8a 3d 10 6d 7a bd
       0.28576052 -0.1590788 0.067513615 -0.061139166
0000d0 28 dd 05 3b 1d 7d 32 3c e8 ca 5b 3e 40 7d 48 3d
       0.002042601 0.010894087 0.21464121 0.048947573
0000e0 da a8 3a bc 94 15 78 3d 85 04 61 3e a5 91 b9 bd
       -0.011392796 0.060567454 0.2197438 -0.090609826
0000f0 a2 22 2f 3d 9e c6 c4 3c 3e ed 15 bd 28 36 fc bd
       0.042757638 0.02402049 -0.036603205 -0.12315017
000100 30 65 97 bc 80 ad e1 3c 70 1c 64 3c 72 6e fc 3d
       -0.018480867 0.027548552 0.013922796 0.12325753
000110 ac 1f c4 bd 54 d0 80 bd bc 43 c8 bd 70 10 21 3c
       -0.095763534 -0.062897354 -0.09778544 0.009830579
000120 46 b9 b7 3d 94 a2 7b 3d 30 47 ea bd 46 b8 f8 3d
       0.08970885 0.061434343 -0.11439359 0.12144522
000130 d0 79 2e 3c a4 7b e9 3d d4 82 9c bd 0c f4 93 bd
       0.01064916 0.11400536 -0.07642141 -0.072242826
000140 40 9e c9 3d 76 c6 dd bd 48 14 ce bd 64 2a 70 3d
       0.09844637 -0.10828869 -0.10062462 0.058634177
000150 90 27 00 bc 18 55 78 bd a0 77 f2 bc a4 c9 b5 3d
       -0.007821932 -0.060628027 -0.029598057 0.088763505
000160 9c a1 83 bd 20 ab 50 bd 72 ec b0 3d 28 31 f7 bc
       -0.06427309 -0.050944448 0.08638848 -0.030174807
000170 90 23 79 3d f8 c8 21 3d 84 fb 66 bd 80 4f e1 3a
       0.06082493 0.0394983 -0.056392208 0.001718983
000180 80 04 5c 3c 00 8b 1c 3d 68 d3 4e 3d 70 a5 90 3d
       0.013428807 0.0382185 0.05049458 0.07062805
000190 ec 33 46 bd 38 4a a8 bc cc c5 76 3d 60 ec e3 3b
       -0.04838936 -0.020543203 0.060247228 0.0069556683
0001a0 d4 8f a4 bd 60 db 97 bb 18 30 ae 3c 90 bb ca 3c
       -0.080352455 -0.004634306 0.021263167 0.02474764
0001b0 08 2f 90 bd 00 19 1f bb 60 88 ba bd b0 38 f3 3d
       -0.070402205 -0.0024276376 -0.09108043 0.11876047
0001c0 30 23 27 3c 12 13 e3 bd a4 aa 71 bd 90 99 6b bd
       0.01020126 -0.11087622 -0.059000626 -0.057519495
0001d0 00 c2 f8 39 ce 8c cc bd c2 95 d6 3d 1e a2 82 3d
       0.00047446787 -0.09987794 0.10477783 0.06378578
0001e0 80 d9 50 bd a4 c2 5d bd 2e 3f 8b bd b6 40 e2 3d
       -0.050988674 -0.054140702 -0.0679916 0.11047499
0001f0 82 5d dc 3d 3e f9 9a bd 4e 24 91 bd 34 2b ee 3d
       0.10760023 -0.075670704 -0.07087003 0.11629334
000200 d8 52 bd 3a 48 7e c2 3c 68 fa be 3d 31 83 df 3c
       0.0014444245 0.023741856 0.09325105 0.027284237
000210 10 24 4c 3d ef ea 23 bc 3f 0f 2d bc 20 d7 e1 3c
       0.04983908 -0.010004743 -0.010562717 0.0275684
000220 8e 4b e4 bd c8 b0 d6 bd 01 b0 0f be e1 e0 df bd
       -0.111472234 -0.10482937 -0.14031984 -0.10931564
000230 74 b3 83 3d 94 c7 68 3d 5f be b1 3d 90 9b e7 bd
       0.06430712 0.056830958 0.086788885 -0.11308968
000240 e0 49 63 3c b7 5c 3d 3d 10 4d 85 3d db 30 ca bd
       0.013872594 0.046230998 0.06508839 -0.098726
000250 03 4f fc ba 34 33 07 be 3a 60 43 bd 2d 3b d2 3d
       -0.0019249622 -0.13203126 -0.04769919 0.10265193
000260 0a f9 99 3d 1a 50 e8 3d e8 d4 02 3d 42 ed dd 3b
       0.075182036 0.11343403 0.031941324 0.006772668
000270 0e 1a a0 bd 06 1b a8 bd d0 c9 6e 3d f4 a9 46 bd
       -0.078174695 -0.08208279 0.058297932 -0.048501924
000280 00 46 d0 bb ac 5e 7e 3d 62 8e 12 be 5c b7 94 bb
       -0.006356001 0.062102005 -0.14312127 -0.0045384597
000290 07 a2 3e bd fc 18 10 3d 28 0a fb 3c 3e b5 a9 bd
       -0.04654124 0.035180077 0.030644491 -0.08286522
0002a0 94 14 f9 bd 78 7f da bd 17 db 32 3b 15 40 8c 3d
       -0.12162128 -0.10668844 0.0027291232 0.0684816
0002b0 50 ea a6 bc 43 73 86 bd 3e 56 fc 3d e2 ec a3 3d
       -0.0203754 -0.06564953 0.12321137 0.08004166
0002c0 f1 ba 92 3d 26 27 19 bd e6 f1 3f bc 28 d0 df 3d
       0.071645625 -0.03739085 -0.011715388 0.109283745
0002d0 b8 48 a5 bd da 70 ff bc ac 3d 19 be ce e4 c0 ba
       -0.080705106 -0.031181742 -0.14964932 -0.0014716627
0002e0 25 f1 88 bd 60 20 c7 3d e0 f1 ca ba 7e cb 9d bd
       -0.0668662 0.09722972 -0.0015483461 -0.07704829
0002f0 bc a1 69 bd 1c 24 1a be fe 7e bd bc 72 20 82 3d
       -0.057039008 -0.15052837 -0.023131844 0.06353845
000300 84 f1 94 3f 17 1d c3 3d d2 01 f4 bd a4 55 4d be
       1.1636205 0.09527033 -0.1191441 -0.200522
000310 52 da 91 3d 18 6b b7 3d 85 1e 65 bd 1e 3d bd bd
       0.071217194 0.089559734 -0.05593731 -0.09240173
000320 ac 3e 35 3d a8 0e 11 3e 9e 09 16 be 8e cf 31 3e
       0.04424922 0.14165747 -0.14652106 0.17364332
000330 f3 d6 92 bf b0 95 22 bd a7 3e 8c be f8 82 c9 3e
       -1.1471847 -0.039693534 -0.2739155 0.39357734
000340 3c ca 38 3d db f1 38 3e 16 b4 c7 3d f9 6c 03 be
       0.04511474 0.1806101 0.097511455 -0.12834539
000350 a2 ec 22 3f b0 d3 3e be 04 34 a4 3c 9c 9b fc bd
       0.63642323 -0.1863544 0.020044334 -0.12334368
000360 5f 87 35 40 fc 84 fb 3d 06 2c 9c bd ed c0 04 be
       2.8363874 0.12281224 -0.07625584 -0.1296422
000370 5a be df bd e6 36 b4 3d 00 2e 2c 3b 20 37 f0 bb
       -0.109249786 0.087995335 0.0026272535 -0.00733079
000380 ea d7 d6 bd ea 38 95 3d 1b 75 84 ba fc cc af be
       -0.10490401 0.07286246 -0.0010105701 -0.34336078
000390 49 0b 4e be 35 af 8b 3e 80 6b 3f bd fd 1d 8a be
       -0.20121492 0.2728211 -0.04673338 -0.26976004
0003a0 0d 30 20 bd 6c c3 ee bd a3 a3 4c be 54 2c 50 be
       -0.039108325 -0.116583675 -0.19984297 -0.2032941
0003b0 2e 44 c4 bd c1 8b a0 bb b2 1e ff 3f b3 fb 1a bf
       -0.09583317 -0.0048994725 1.9931242 -0.6054031
0003c0 17 c4 a3 3e 0f fd 15 be 25 af ac be de 9d ef 3d
       0.31985542 -0.14647315 -0.33727375 0.11700033
0003d0 6a 76 c3 3c 44 fb 80 be fa fe b1 3e 58 c9 2d 3d
       0.023860175 -0.251917 0.34764844 0.042428344
0003e0 53 86 38 bd 4c 60 5c bd 33 9f df 3e 79 26 d9 3d
       -0.045049977 -0.053802773 0.43676147 0.10603041
0003f0 58 5a cc bd 98 97 49 bd f2 a4 4e be f8 62 92 bc
       -0.09978169 -0.049216837 -0.20180109 -0.017869458

net.2.bias f4 [64]
000000 a6 88 74 be 98 a2 9a 3c ef d8 0b be 8b 9c 18 be
       -0.23880252 0.018876359 -0.13656972 -0.14903466
000010 1f a9 9d bd d6 c0 98 3e 88 fb 21 bd d1 a6 37 3e
       -0.07698273 0.29834622 -0.03954652 0.17934729
000020 df b3 2a bd 00 cc c1 3d ce 1f 2b 3e 9f ff a6 bd
       -0.041675445 0.09462738 0.16711351 -0.081542246
000030 1f 4d 95 bd c9 03 63 be ff 67 86 be 06 9a b1 bd
       -0.072901 -0.22169413 -0.26251218 -0.08671956
000040 4f c7 c2 3d 27 95 36 3e 38 a3 9f 3d 3c ba a6 3e
       0.09510671 0.17830335 0.077948034 0.3256396
000050 78 6b 64 3d 49 6c e3 be 60 31 b6 be 52 ec 52 3d
       0.055766553 -0.44418553 -0.35584545 0.051494904
000060 4e 97 29 bd c8 3e 39 3d 98 74 b2 bd f8 93 d1 bd
       -0.04140406 0.04522589 -0.08713645 -0.10233301
000070 71 3a 32 be 74 0b 14 3e d0 16 b4 3c ad 27 fb 3d
       -0.17405106 0.14457494 0.021983534 0.12263427
000080 08 d8 84 be 8c b7 ed 3c 1f ce 9d 3d 3c 24 fd bd
       -0.2594607 0.029018186 0.0770533 -0.12360427
000090 1e 46 cf 3c 65 aa b0 3e 00 dd 51 3e 92 15 12 be
       0.02530199 0.34505 0.20494461 -0.14266041
0000a0 94 fe e6 be b4 b0 92 bd 4d 93 47 3d 35 c7 49 bd
       -0.45116103 -0.0716261 0.04872446 -0.049262244
0000b0 8c 02 a0 3d de c3 85 bd 7a ce e7 b9 53 aa 87 3d
       0.07812986 -0.06531499 -0.0004421359 0.06624284
0000c0 26 e4 8c 3e 3f 38 35 be 8d 9d d4 3d d9 64 07 be
       0.27517813 -0.17697237 0.10381613 -0.13222064
0000d0 cc 1e 81 3d 5d 90 52 be c3 1c 69 bc c2 1f a1 3d
       0.06304702 -0.20562883 -0.014228049 0.078673854
0000e0 41 b3 ef 3e b5 49 8d 3d b0 00 2e be 61 08 99 3c
       0.46816447 0.06898824 -0.1699245 0.018680753
0000f0 58 4e 4f 3d ec 64 54 bd f4 63 f9 bd 17 b4 76 be
       0.050611824 -0.05185406 -0.12177268 -0.24092136

net.4.weight f4 [32, 64]
000000 34 f7 42 bf 00 75 1d 3c 88 f7 d3 3d 50 90 9d 3f
       -0.7615845 0.0096104145 0.10349947 1.2309666
000010 55 be eb 3d 2c 88 20 3b 88 2b a9 3d 27 a5 b1 3f
       0.11510912 0.0024495227 0.08260256 1.3878525
000020 f3 60 8c 3d 30 f3 41 bd dd 5b 42 be d5 4f c6 bf
       0.06854429 -0.047351062 -0.18980356 -1.5493113
000030 b7 3b 33 3d 31 a3 e6 bc a2 56 9f bf e0 b9 fa 3c
       0.04375812 -0.028153988 -1.2448313 0.03060621
000040 b6 57 9a bd d6 08 b3 3d b8 1e de bc 9b 54 ac 3e
       -0.07536261 0.0874192 -0.027114257 0.336583
000050 d5 17 1d 3f 7c e9 ee 3c f7 47 c2 bd 81 8b d9 bd
       0.6136449 0.029164068 -0.094863825 -0.106223114
000060 51 2e 56 c0 20 70 9a 3b 54 38 08 c1 cd 95 97 be
       -3.346577 0.0047130734 -8.513752 -0.29606476
000070 d3 17 ef be 29 19 31 3e cc 98 ad 3d 4d 0e 42 3e
       -0.46697864 0.17294754 0.08476409 0.18950768
000080 bb 17 18 3d b3 80 48 bc 0e 07 27 3f c0 69 89 bb
       0.037132006 -0.012237716 0.6524514 -0.0041935146
000090 9d f0 8b bd 08 22 5b 3e fb 6c 21 be b8 e6 85 bf
       -0.06833003 0.213997 -0.15764229 -1.0461035
0000a0 5d 81 cd be e3 16 f1 3d 38 57 d5 bd c9 af 8d 3e
       -0.4013776 0.117719434 -0.10417026 0.27673176
0000b0 23 ae 77 ba b0 ea 00 3d 9a 4c 86 bd 87 77 f4 bd
       -0.00094482506 0.031473815 -0.06557579 -0.119368605
0000c0 ce 11 ee 3d 6e 2f be bd f6 53 23 c0 c9 60 ea 3c
       0.1162449 -0.0928639 -2.5519996 0.028610604
0000d0 5f 31 ab 3d 88 05 21 3f 8b 81 59 bd cc b7 90 bb
       0.08359026 0.62899065 -0.053102057 -0.0044164415
0000e0 37 39 91 3e 4f c0 2f 3e b2 fd d7 bd 81 a5 29 be
       0.28363964 0.17163204 -0.105464354 -0.16567041
0000f0 dc ad 07 3d de d2 09 3e 80 e1 2f bd fe 95 e0 bd
       0.03312479 0.13459346 -0.042939663 -0.10966109
000100 46 1a c5 3c f0 e1 eb 3c 3b 96 15 3c bd 45 7f be
       0.02406038 0.028794259 0.009130056 -0.24928947
000110 d4 9f 61 3d a6 57 45 be 21 15 a0 bc 98 67 e8 3e
       0.055084065 -0.19271716 -0.019541325 0.45391536
000120 e6 bd e1 3d c8 3f d8 3d b0 07 fa 3e f9 66 e6 3d
       0.110225484 0.1055904 0.4883399 0.11250109
000130 77 9d 8c 3d 3b 68 a8 bf e1 43 7e 3e 81 30 85 3d
       0.068659715 -1.3156809 0.24830581 0.06503392
000140 da 03 bd 3d 64 dc a2 bd 00 5d b2 3b 70 50 64 bf
       0.0922925 -0.079521924 0.0054432154 -0.8918524
000150 0e 80 52 3f 9d f2 11 3e e8 75 50 c0 9b 73 cb 3b
       0.82226646 0.14252706 -3.2571964 0.0062088496
000160 d1 4c 8e bf b0 d7 6b 3c 9f 23 f5 3d 1f 1f 80 3f
       -1.1117193 0.014394686 0.11969685 1.0009497
000170 c5 b0 60 bf 40 f9 d9 be 34 2e 8f bd 89 b9 14 bf
       -0.8776973 -0.42572975 -0.069912344 -0.58095604
000180 4d e6 bf 3d 7f 8b d0 3c fa 57 87 3f 5a 3c aa 3d
       0.09370098 0.025457142 1.0573723 0.083122924
000190 35 a7 d1 bd f1 a9 5e be 44 ba 35 bf 91 b2 c2 3d
       -0.1023697 -0.21744515 -0.70987344 0.09506715
0001a0 88 5d 17 3f 26 8b 5a 3c 90 99 0b 3b 4f fa 44 3d
       0.5912709 0.01333884 0.0021301247 0.048090275
0001b0 8b 62 d1 3d 70 6a 3d 3c 4d 31 97 3d 42 0e 56 bf
       0.10223874 0.011561021 0.0738245 -0.83615506
0001c0 4e 2e 83 3e de b3 40 3e 13 2a 2a 3f c7 37 a2 bd
       0.25621265 0.18818614 0.6647045 -0.07920795
0001d0 1f fa 1d 3d 07 94 4c 3f 69 f7 42 3e c9 75 48 be
       0.038568612 0.7991337 0.19039692 -0.19576181
0001e0 9f 06 78 bf 92 9d a6 3e a8 ff 8b 3e 0f 1f 7f 3d
       -0.96885103 0.32542092 0.27343488 0.06228548
0001f0 f4 0e 41 3d cc 46 2e 3d 34 da 66 3d fb dc 8f be
       0.0471334 0.042547986 0.05636044 -0.28098282
000200 40 13 4a bb 76 8b e8 3d e2 e9 95 3d 76 fc f3 bd
       -0.0030834228 0.11354725 0.0732 -0.119133875
000210 90 ac 00 bc 30 f1 f1 bd 78 af bb bc 70 3b fc 3c
       -0.007853642 -0.11813581 -0.022910818 0.03079006
000220 5e 7c ac 3d 40 ea a6 bc c2 09 dc 3d fc cb 8f 3d
       0.08422159 -0.020375371 0.10744049 0.07021329
000230 cc 92 c2 3d a8 75 8a bc 18 f5 e6 bc 40 d4 37 3c
       0.095006555 -0.016901806 -0.028193042 0.011220038
000240 74 12 54 bd 0a ad c9 bd 8c ae 63 3d ca 71 b4 bd
       -0.05177541 -0.09847458 0.055586383 -0.08810766
000250 48 4d a7 bc 74 79 a1 3d f0 19 ba 3d 58 48 3b bd
       -0.020422593 0.078844935 0.090869784 -0.04572329
000260 38 57 8c 3c cc 6f 55 3d 30 8b 34 bc 50 af d7 3d
       0.017131433 0.05210857 -0.011019513 0.10531485
000270 e4 4e aa bd b8 0e bb 3c 80 10 99 3a 90 9b ac 3c
       -0.083158284 0.022834167 0.0011677891 0.021070272
000280 32 12 ea bd 68 59 b1 3c 5a 20 86 bd e8 fe 98 bc
       -0.11429252 0.021649078 -0.06549139 -0.018676236
000290 a4 2f e0 3d ac 31 03 bd f4 a0 90 bd 76 41 90 bd
       0.10946587 -0.032029793 -0.07061949 -0.07043736
0002a0 b0 88 3d bc 6e df d6 3d 42 2a bb 3d 10 3c 37 bc
       -0.011568233 0.104918346 0.091389194 -0.011183754
0002b0 08 31 ad bc 00 33 63 3d 36 2a bd bd 16 80 fb 3d
       -0.021141544 0.05546856 -0.09236567 0.1228029
0002c0 b8 5c e7 3c e0 25 6b 3d 5c 99 bf bd 26 bf 8d 3d
       0.028242454 0.057409167 -0.09355423 0.06921224
0002d0 02 dc 8f bd 32 5e b3 3d 96 9e 90 bd da 56 b7 3d
       -0.07024385 0.08758201 -0.07061498 0.089521125
0002e0 c0 a0 24 3b 90 48 85 bd 6c e2 45 bd 34 ab 72 bd
       0.0025120229 -0.06507981 -0.048311636 -0.059245303
0002f0 08 a7 ff bc b4 b0 b1 3d 40 c9 c3 3b a4 3a e2 bd
       -0.031207576 0.086762816 0.0059749186 -0.11046341
000300 bb 6c 87 3d a4 9a d4 3d 96 32 c4 bb ec 74 9d 3e
       0.066125356 0.10381058 -0.0059874756 0.30753267
000310 d6 1f db bc 04 dd 30 3e 0e c8 e1 3d 21 6c 66 3e
       -0.026748579 0.17271811 0.110244855 0.22502185
000320 6a bd c2 3d da 27 f7 3d 28 23 ba 3e 49 56 6d 3e
       0.09508784 0.12068148 0.36354947 0.23177446
000330 7f 81 b8 bd 86 8f 67 3e 66 a0 6a 3e 3b a5 e2 3c
       -0.090090744 0.22613344 0.2291275 0.027666679
000340 86 da 1f 3d 2f dd dc 3d a8 c0 16 3d 49 c1 04 3f
       0.03902676 0.10784375 0.036804825 0.5185743
000350 4d 0f 23 3f cf b8 bc 3d 9e 50 c6 bc 0d 34 02 be
       0.6369522 0.09214937 -0.024208363 -0.12715168
000360 b4 18 cd 3e 54 de d1 bd 2b fe 9b be 15 be 1b 3f
       0.4005791 -0.10247484 -0.30467352 0.6083692
000370 07 7e 65 3e 06 20 24 bc 14 05 23 3d b7 be 66 3e
       0.22411357 -0.010017401 0.039799765 0.2253369
000380 de 80 82 bd 9e 7f d7 3c 6c 5c 60 3f 20 3b d3 3d
       -0.06372236 0.02630597 0.87641025 0.103140116
000390 91 69 02 be 17 5d 13 3e 86 ae 28 3e ac 26 82 bc
       -0.12735583 0.1439098 0.16472825 -0.01588758
0003a0 a8 e3 ba 3e 86 12 b2 3b 95 51 e5 bd 38 f3 06 3e
       0.36501813 0.005434337 -0.11197201 0.13178718
0003b0 43 43 e2 3d e8 aa c8 bc 15 38 b6 bc 6e 54 56 3e
       0.110479854 -0.024495557 -0.022243539 0.20930645
0003c0 1d 25 4a 3f fa 3d 2e bd 14 0b 86 3c 6c 9f ee 3d
       0.7896288 -0.042539574 0.016362704 0.11651501
0003d0 27 72 ad 3d dd 9c 24 3f 1b c1 c9 3d 59 b8 68 be
       0.084690385 0.64301854 0.09851285 -0.22726573
0003e0 e3 1c 88 3d 38 bb 0a be a9 c9 6a bd d8 c7 28 be
       0.06646135 -0.13547981 -0.057321224 -0.16482484
0003f0 80 4b 8f ba 36 78 ed bd 44 e4 07 bd 26 23 48 bc
       -0.0010932535 -0.11595194 -0.033176675 -0.012215411

net.4.bias f4 [32]
000000 c0 8a 3c 3e 47 62 88 be 70 05 11 3c de 3e 20 bd
       0.18412304 -0.2663748 0.008851394 -0.039122455
000010 69 c0 e1 3d 51 44 3e 3e fd f4 ee 3d 16 f0 18 bd
       0.110230274 0.18580748 0.116678216 -0.03733834
000020 8e 8a 85 3e 32 c7 d7 bd c7 64 04 3e e1 7f 54 3d
       0.2608227 -0.1053604 0.12929069 0.051879767
000030 56 db c7 bc 92 c8 4f 3d 5b b5 81 3e 7d 35 48 3d
       -0.02439658 0.050728388 0.25333676 0.048879135
000040 96 06 2f be 24 18 5d bb 80 b5 73 3e 50 b0 32 3e
       -0.17092356 -0.0033736313 0.23799706 0.1745007
000050 9c 57 5b 3e 98 fd ee bc b4 41 45 3e 9c a8 ad 3e
       0.21420139 -0.029173657 0.19263345 0.339177
000060 7b 19 a4 3d ad 0e 15 be bc f8 00 3e b3 0d f4 bd
       0.080126725 -0.1455638 0.12594885 -0.119166754
000070 43 1e c4 3d dc 2b 08 be 49 a6 ac 3e 58 0d c9 bd
       0.095760845 -0.13297981 0.33720616 -0.09816998

net.6.weight f4 [3, 32]
000000 de c3 a7 3d c9 9d f3 bf aa 45 bd bd 8a 1f 9e bd
       0.081916556 -1.9032527 -0.09241803 -0.07720859
000010 20 20 48 40 a9 15 b3 3e f5 10 1a 3e f9 d7 17 3e
       3.1269608 0.34977463 0.15045531 0.14828481
000020 98 1a 1d bf 15 44 81 3e 54 81 a5 3d 42 37 df bc
       -0.61368704 0.25247255 0.08081308 -0.027248029
000030 77 8c 19 bd 24 76 d0 bf 91 8c 02 be 6a 7b 3b be
       -0.037487473 -1.6286054 -0.12748934 -0.18308797
000040 e6 89 d1 bf f4 bb 88 be 04 4d 51 3f ee f5 72 3e
       -1.6370208 -0.26705897 0.8175814 0.23726627
000050 d0 83 ce bf d1 8b a3 bf bf 5e cb 3d 3f 24 1c 3e
       -1.6133976 -1.2777044 0.09930181 0.15248202
000060 cc 64 d4 bf 2f 63 2a be 6b bc d6 3d 77 a2 8d 3d
       -1.6593261 -0.16639398 0.104851566 0.06915753
000070 6c c6 12 be 87 d5 66 bd ec 1e 8a 3d 31 b6 13 3d
       -0.14333504 -0.05635598 0.06744179 0.036062423
000080 85 91 50 3f cf de 05 c0 96 42 06 be 13 82 d2 3e
       0.81472045 -2.0917242 -0.13111338 0.41114864
000090 ba e2 03 40 81 0c 13 bc 26 32 2e 3e b6 b4 8d 3e
       2.0607133 -0.008975149 0.17011318 0.27676934
0000a0 38 65 26 bf 21 9e 84 be 6c 35 ab 3e f3 a9 c2 bd
       -0.649982 -0.25901893 0.33439195 -0.095050715
0000b0 31 c2 eb 3d df ec ff bf d1 70 b2 3e 85 0c aa 3d
       0.115116484 -1.9994162 0.34851697 0.08303169
0000c0 f4 51 c7 be ab b0 a8 be 8d 16 9b 3e 39 53 30 be
       -0.38929713 -0.32947287 0.30290642 -0.17219247
0000d0 a8 ab d8 bf d5 a8 af bf 01 ff 38 3e 71 79 c2 3e
       -1.6927385 -1.3723398 0.18066026 0.37983277
0000e0 d0 62 5f c0 1b 15 b2 be 16 67 e7 be d8 23 b0 bd
       -3.490406 -0.34781727 -0.45195836 -0.08600587
0000f0 d8 c2 40 bb e9 35 7a bd b3 74 ea be f9 37 da bd
       -0.002941301 -0.06108657 -0.4579216 -0.10655207
000100 1e 07 44 3e c1 0e ce bf 25 7c da b9 b7 34 b5 3d
       0.1914334 -1.6098253 -0.00041672695 0.08847945
000110 9e 99 6f 40 86 d1 c6 3e b3 3e 2f 3e 15 e4 ae be
       3.743751 0.3883173 0.17113762 -0.34158388
000120 ec ca 2a bf 2d a4 07 3f 67 14 08 3e 6d 2f e3 3d
       -0.66715884 0.5298489 0.13289033 0.1109303
000130 24 35 49 3d 0a d0 f9 bf cf 64 97 be 3c f8 a9 bc
       0.049122944 -1.9516613 -0.29569098 -0.02074825
000140 d2 e9 06 c0 c4 4d 76 3c 25 0f d9 3e 21 11 b4 3d
       -2.1080213 0.015033189 0.42394367 0.087923296
000150 68 18 d2 bf ac 10 aa bf 19 a3 0e 3e 8c 91 36 3e
       -1.6413698 -1.3286338 0.13929404 0.17828959
000160 36 55 4f c0 6e 70 55 be f2 0a 66 3d 43 bb 6f 3d
       -3.2395759 -0.2084367 0.056162782 0.058528196
000170 b2 fe 49 bd d0 1d b6 3d 5e 48 9f 3e 0b ec 90 bc
       -0.049315162 0.08892405 0.311099 -0.017690679

net.6.bias f4 [3]
000000 84 ba 13 3e fe 72 63 3e a9 97 3f 3d
       0.14426619 0.22211835 0.046775494
