game/model/models/q_net_450_50000_128_64_normalized-nonDueling_EPOCH_200.pkl (torch, 113018 bytes, 14 tensors)

net.0.weight f4 [128, 8]
000000 19 ab 09 bd 31 9f 4e be 7c 84 55 be d3 d4 94 3e
       -0.033610437 -0.20177914 -0.2085132 0.29068622
000010 f2 2e 40 be 00 3d 2c be 3b 3b 4f be 17 43 04 3e
       -0.18767908 -0.16820145 -0.20237438 0.12916218
000020 49 45 4f 3e 3a 29 94 3d 12 89 7d 3e 8a cf 48 3d
       0.20241274 0.07234426 0.2475932 0.04902605
000030 ab 07 ac be ed 70 e9 3c 37 39 c7 3d 5b ac 99 be
       -0.335996 0.02849623 0.0972771 -0.3001431
000040 c1 3c c3 3e ff 4f 45 3e 06 47 d2 bc a6 d9 83 3e
       0.3813229 0.19268797 -0.025668632 0.2575199
000050 df b8 c8 3d 4f 91 a5 3e b0 88 f5 3d b5 9e 84 be
       0.09800886 0.32337424 0.11988962 -0.25902334
000060 3c aa 28 3e 1d 5a ff bd b6 4c 4c 3e ca 14 92 bd
       0.1647119 -0.124683596 0.19951138 -0.071328714
000070 eb 1a 82 3e fa 28 a9 be a6 f4 60 3e e7 45 6c be
       0.25411162 -0.33039075 0.21968326 -0.2307354
000080 04 d3 15 be b7 0c 10 bd 08 70 a3 3e f8 e7 b0 be
       -0.14631277 -0.035168376 0.3192141 -0.34551978
000090 3b ae 33 be 8e 9e 2d 3e 27 0d aa 3e b6 d8 95 be
       -0.17546932 0.16955015 0.3321316 -0.292669
0000a0 c5 e4 8a 3e 4a ec f4 3d c3 30 6a 3e b7 a4 18 3e
       0.27127662 0.11959131 0.22870164 0.14906584
0000b0 f9 04 1e be 2b cc 0b bd 9a 1e 8b be fd f5 0a 3e
       -0.15431584 -0.034130257 -0.27171785 0.135704
0000c0 59 80 c8 be 3c 52 8f be 5d b3 89 3e dd a1 29 be
       -0.39160421 -0.27992427 0.26894656 -0.16565652
0000d0 45 98 77 be cb 7c 98 be 78 e8 85 3e c6 cc c7 bd
       -0.2417918 -0.2978271 0.26153922 -0.09755854
0000e0 80 a5 be be 5c 07 c0 3d 10 5f 9e 3e fe aa a0 be
       -0.3723564 0.09376404 0.30931902 -0.31380457
0000f0 83 ce 80 ba d9 e1 c1 bc 4e d7 6b 3e e0 89 e8 3c
       -0.000982717 -0.023667263 0.23031351 0.028386056
000100 9f 99 15 be b1 fc dd 3d ed 2b fd bd cf f8 18 3c
       -0.14609383 0.10839213 -0.12361894 0.009336664
000110 6a 88 c0 3d 1a d1 10 be 73 3b af 3d ae c6 1b be
       0.09401019 -0.14142266 0.08556261 -0.15212509
000120 95 49 f8 3e 12 8c 39 bd 47 26 44 3e 6f 90 e7 bd
       0.4849364 -0.045299597 0.19155227 -0.113068454
000130 64 d7 ad 3e ab ab b8 3c 31 5b 37 bc 46 40 ab bd
       0.33953393 0.022542795 -0.011191175 -0.083618686
000140 c6 d5 ba be fc 2f b4 be b4 fa de bc 90 f1 8e be
       -0.3649122 -0.3519286 -0.027219154 -0.27918673
000150 90 7d 9a 3e ce fe a5 3e fd 95 77 bd 77 75 c2 3b
       0.30173922 0.32420963 -0.060445774 0.005934413
000160 6d b7 bb 3e 39 53 6c 3e 9a 02 1b 3e 9c 13 02 3d
       0.3666338 0.23078622 0.15137711 0.031756982
000170 58 69 80 3e a9 d5 24 3d d7 bb 67 3e a3 4c a4 3d
       0.2508037 0.040242825 0.22630249 0.0802243
000180 ec a1 b4 3d c7 23 26 3d 33 2b db 3c c4 b7 3c 3e
       0.08819947 0.040561464 0.026753997 0.18429476
000190 d4 a5 9e bd 84 5f ad 3d 5e 12 83 3e 39 ef 9e 3e
       -0.07746473 0.08465484 0.2559995 0.31041887
0001a0 9e 2b 16 be 35 83 5c bd a5 44 4e be 19 52 3e 3e
       -0.14665076 -0.053836066 -0.20143373 0.18586005
0001b0 a0 2d 5c be 8d 9d 82 be 15 ff 71 3e 74 9e 25 3e
       -0.2150178 -0.25510827 0.23632462 0.16173726
0001c0 e0 44 47 be c2 4e a2 3e 5d 53 29 be f0 e7 a8 3e
       -0.19459867 0.31700712 -0.16535707 0.32989454
0001d0 b4 40 a1 be 5c a4 76 bd 51 87 62 3e 1f 88 8a be
       -0.31494677 -0.06021534 0.22121932 -0.27056977
0001e0 62 22 53 3e d6 90 ab be a4 e3 2f be 95 2c 99 3e
       0.20618585 -0.3350894 -0.17176682 0.29916826
0001f0 35 64 23 3e c9 fa a0 be 8a 4e 1d 3e c6 7b 7b bd
       0.15956195 -0.31441334 0.15361992 -0.061397336
000200 4c 2c 99 bd 1d e1 2f 3d 05 3a 83 be ad 62 bf bd
       -0.07479152 0.042939294 -0.25630203 -0.09344993
000210 3a c0 6f be 0c 88 94 bd 31 70 04 3e 12 b6 76 3b
       -0.23413172 -0.072525114 0.12933423 0.0037645143
000220 06 37 f0 3c a5 01 c7 3d 28 a1 c2 3d db 9a a9 be
       0.029323112 0.097171105 0.09503394 -0.33125958
000230 38 b9 6c 3e 88 83 83 3e 19 43 31 be 7f 49 37 be
       0.2311753 0.25686288 -0.17310752 -0.1789913
000240 26 8a 6c be 02 44 7e 3e 71 ea e9 3d 0b 8c 1d be
       -0.23099574 0.2483063 0.11421669 -0.15385453
000250 e4 d3 78 3e 88 fb 9d be c2 b4 9f bd d3 40 88 bd
       0.2429958 -0.30855966 -0.07798149 -0.06652989
000260 ac 20 e3 3d f1 c3 e5 3c 3d f5 9d be 6e 52 a6 be
       0.11090216 0.028047534 -0.30851164 -0.32484764
000270 0b 51 a8 be 4e 95 23 be be 24 6d 3e 1f 9e 47 bd
       -0.3287433 -0.15974924 0.23158547 -0.04873478
000280 bb 17 9c 3d bd 05 49 be 2d 86 45 bd 64 d2 89 3e
       0.07621714 -0.19631095 -0.048223663 0.26918328
000290 67 ca 8d be cd 1c 31 be 0b 92 de bc 8c 29 9f bd
       -0.27693483 -0.17296143 -0.027169248 -0.07771596
0002a0 24 1b ab be 10 44 4f 3d cb 42 0c 3e 41 52 10 be
       -0.33419144 0.05060202 0.13697354 -0.14093877
0002b0 ad 82 85 3d 9f 29 42 be b8 55 3c be c8 82 17 3e
       0.06519065 -0.1896119 -0.18392074 0.14795983
0002c0 61 7f 15 3e 16 1c 28 3e b2 3f 09 3e 78 74 cb 3d
       0.14599372 0.16416964 0.13403204 0.09934324
0002d0 13 fa 67 be 87 80 a4 be f8 a5 b1 be b7 9a ac be
       -0.2265399 -0.3212931 -0.34696937 -0.33711788
0002e0 a4 0b ac 3e 98 ff 09 3e 34 c9 0c be 6f 75 63 be
       0.3360263 0.13476408 -0.13748628 -0.22212766
0002f0 22 6c 75 3d c7 00 b9 be 2f 7a 1e be 76 1a 5c 3e
       0.059917577 -0.36133406 -0.15476297 0.21494469
000300 13 54 a4 bc 37 67 8e bd b2 ea 77 be 50 47 11 be
       -0.020059621 -0.069532804 -0.24210623 -0.1418736
000310 b6 8f 59 be 15 74 b2 be 63 e4 91 3e 47 a4 30 3e
       -0.21246228 -0.3485419 0.28494558 0.17250167
000320 81 c9 b5 bd f6 a2 c5 3d 7f af 8c 3e 19 c9 90 be
       -0.088763244 0.09650223 0.27477643 -0.28278425
000330 ce ab 0a 3e fc 78 8d 3e cd d9 8f 3e d6 76 47 3e
       0.13542101 0.27631366 0.28095856 0.19478926
000340 3c f7 3e 3e 52 fd 93 bc 94 d5 09 3c a1 e1 54 3e
       0.18649 -0.018065128 0.008412737 0.20789196
000350 f0 9d a5 3e 89 ad 61 3e 8a 22 45 3d a6 9d 0c bd
       0.3234706 0.22038855 0.048128642 -0.034330033
000360 f9 90 f8 3d aa 00 bf 3d 6c 21 ad 3c a2 85 82 be
       0.12137026 0.093262985 0.0211341 -0.2549258
000370 94 6c a8 3e 0f 4a f3 3d 18 db f3 bd cb 41 94 3c
       0.3289534 0.1187936 -0.11907023 0.018097779
000380 e4 dc 46 be fc 98 bc bc 43 2b be bd 4c 95 a1 be
       -0.194202 -0.023022167 -0.09285595 -0.31559217
000390 69 98 fb 3c ce c4 e6 bd d8 42 b1 3d f8 ce 4d 3e
       0.030712323 -0.11268006 0.086553276 0.20098484
0003a0 56 b8 92 3e 9c af d7 bd 60 a8 8b be 33 99 8e be
       0.28656262 -0.10531542 -0.27276897 -0.27851257
0003b0 76 34 97 bd 2c 23 27 3c 78 08 81 be f2 79 a9 3e
       -0.07383053 0.010201257 -0.25201774 0.3310085
0003c0 5d 68 88 3e e6 fb 05 3e 5a 69 24 3e b4 cb a0 be
       0.26642123 0.13084373 0.16055813 -0.31405413
0003d0 a9 61 90 3d 51 16 48 be e0 07 12 3d 71 47 86 be
       0.07049877 -0.19539763 0.03565204 -0.2622638
0003e0 08 6b b2 bd c0 2b c2 3c b1 41 9a be 52 20 96 3e
       -0.08711821 0.023702502 -0.30128244 0.29321533
0003f0 f1 6c 89 3e eb 01 3e bd 6c 01 27 3e 1f 6c 0f 3e
       0.26840928 -0.046388548 0.16309136 0.14006089

net.0.bias f4 [128]
000000 29 f2 b0 3e 2c b3 28 3e 97 83 62 3c e8 a1 8f be
       0.34559754 0.16474599 0.013825319 -0.28053212
000010 10 70 79 3e d9 c8 19 3d f0 62 91 3e 6a ad 38 3d
       0.24359155 0.03754506 0.28395796 0.045087256
000020 15 99 99 be 79 45 a3 bc 01 57 a5 3e 13 24 ea 3d
       -0.29999605 -0.019930588 0.3229294 0.11432662
000030 2a bf d2 3d 3e 91 8c be c5 73 23 3e da ab 40 be
       0.10290368 -0.2745456 0.15962131 -0.18815556
000040 11 b7 50 bd 90 61 69 3e a5 ed 2e be 3f b6 a3 3d
       -0.050955836 0.22791123 -0.17082842 0.07993745
000050 f0 d9 c3 bc 64 e7 1c 3e e8 35 33 be 48 9a 50 3e
       -0.023907632 0.15322644 -0.17501032 0.20371354
000060 25 80 ea bc 94 28 3c 3e c7 0b a8 3e dc 31 37 bd
       -0.028625557 0.18374854 0.32821485 -0.044725284
000070 3a 54 83 be 74 2c 28 3e fd cc 2e bd 11 f7 8c be
       -0.25650197 0.16423208 -0.04267596 -0.27532247
000080 31 12 1c 3e 05 3a 6f 3e 57 c8 1a be 91 ed 84 3e
       0.15241314 0.23361976 -0.15115486 0.259625
000090 34 e1 58 3d 6f ab 1e bc 54 61 7e be ef 2c 03 be
       0.052949145 -0.009684428 -0.24841815 -0.1281011
0000a0 d1 62 a0 be d0 aa 9e 3c a3 b0 00 3d 04 0f c5 3d
       -0.3132539 0.01936856 0.031418454 0.09622005
0000b0 b1 f3 8a 3e 76 56 67 3d dc 27 ca 3d b6 f5 85 be
       0.27139047 0.05647894 0.09870884 -0.26164025
0000c0 ac b4 68 bd cb 0f c5 bb 8a e1 9f 3d ac 2b 14 3d
       -0.056812927 -0.0060138456 0.0780669 0.03617446
0000d0 55 d6 56 be 17 2a 09 3e 68 d3 a0 be cb e2 57 be
       -0.20980199 0.13394962 -0.3141129 -0.21082608
0000e0 8c 4e 7d 3e bf 64 06 3e 8c 8e 69 3e 84 cf 46 bc
       0.24736995 0.13124369 0.22808284 -0.0121344365
0000f0 f5 c4 45 bd 26 dd 19 be 2b ab 9f 3e df dc 4b bd
       -0.048283536 -0.15025768 0.31185278 -0.049771186
000100 b4 7f 06 be 53 94 57 bd e3 4d 9d 3e e8 e8 45 3e
       -0.13134652 -0.052631687 0.30723485 0.19327128
000110 6c ef 3c be de 6f 93 3e 2c 90 3c 3c ee cc 36 3e
       -0.18450707 0.28796285 0.011508983 0.17851612
000120 0b b7 9e be ba 70 43 3e 91 bc ea 3d f6 84 26 3e
       -0.30999026 0.1908597 0.114617474 0.16261658
000130 7d 4c 35 be 50 d1 ea 3d e6 ff fa bd 0b 06 bf 3d
       -0.17704959 0.114657044 -0.1225584 0.093273245
000140 55 0e 9b be 9a f3 de 3c c3 3a 11 be ac c7 87 3e
       -0.30284372 0.027215768 -0.14182572 0.26519525
000150 f9 2e a6 3e fb 9a cd ba 94 b1 31 3e e2 87 14 be
       0.32457712 -0.0015686447 0.17352897 -0.1450496
000160 0e 44 82 3e 9a ba 86 be 29 0c 29 3e b5 5a 9c be
       0.25442547 -0.2631424 0.16508545 -0.30537954
000170 42 3a 9d be bf 2b 47 3d 2f 09 02 3e 74 de a2 3c
       -0.3070851 0.048625704 0.12698816 0.019881465
000180 60 91 59 be bd fb 56 be 11 cb 58 be 29 96 53 3d
       -0.21246862 -0.20994468 -0.21171214 0.051656876
000190 6b 49 e4 3c c3 9b 3c 3d 53 1f a7 3e dd 2f 4a 3d
       0.02786704 0.046046983 0.32641086 0.049362052
0001a0 ac 26 22 3e 92 b3 ee bd 63 11 31 be d2 3b 81 be
       0.15835065 -0.11655344 -0.17291789 -0.25240952
0001b0 93 85 74 3d 8e 0b 83 be a2 5f 8f 3c d2 22 36 3d
       0.0596977 -0.25594753 0.017501656 0.0444668
0001c0 73 ce a3 3d a2 30 8b 3c b0 e6 15 3e f1 ff 88 be
       0.079983614 0.016990963 0.14638782 -0.26757768
0001d0 c8 aa 9c 3e e8 ff 54 be 3f a8 3c 3d c8 99 1f bc
       0.30599046 -0.20800745 0.04605889 -0.009741254
0001e0 0f 41 19 bd 16 08 9c 3e 84 52 25 3e c2 08 37 3e
       -0.03741556 0.3047492 0.16144758 0.17874435
0001f0 12 05 3b be e4 a4 92 be 93 d1 5d 3e 93 32 92 be
       -0.18263653 -0.28641427 0.21661977 -0.2855421

net.2.weight f4 [128]
000000 fe e3 7e 3f d0 b9 7e 3f 63 37 80 3f 54 48 80 3f
       0.9956664 0.9950228 1.0016903 1.0022073
000010 41 a7 7b 3f 7f ff 7f 3f ec 69 80 3f c6 1a 80 3f
       0.98302084 0.9999923 1.0032325 1.0008171
000020 6f ab 80 3f d4 04 85 3f 95 ef 80 3f 29 95 80 3f
       1.0052317 1.0392098 1.0073115 1.004552
000030 cb 2e 7d 3f b6 1d 7e 3f 99 82 7c 3f f9 6b 7e 3f
       0.98899525 0.99264085 0.98636776 0.99383503
000040 8d ff 7b 3f 85 70 7b 3f ad 1c 7e 3f 62 fd 80 3f
       0.98436815 0.98218566 0.99262506 1.0077326
000050 40 61 7e 3f 60 15 81 3f c1 3f 80 3f fa 11 7e 3f
       0.9936714 1.0084648 1.0019456 0.9924618
000060 15 2b 80 3f 14 a4 7b 3f 63 81 7e 3f 68 e2 7e 3f
       1.0013148 0.9829724 0.9941618 0.9956422
000070 49 6a 7e 3f 6c ff 7f 3f cd 9b 7e 3f ca c2 7e 3f
       0.9938093 0.9999912 0.99456483 0.99515975
000080 21 b6 7c 3f b9 f2 7c 3f 4b f8 7d 3f a8 3b 7f 3f
       0.98715407 0.98807865 0.9920699 0.99700403
000090 99 65 80 3f 42 54 7d 3f 5a a9 7e 3f 57 e0 82 3f
       1.0031005 0.9895669 0.9947716 1.0224713
0000a0 2a 02 7f 3f a8 c3 7f 3f fd e4 7f 3f e9 22 83 3f
       0.9961268 0.9990792 0.99958783 1.0245029
0000b0 26 55 7e 3f 05 73 82 3f 92 76 7e 3f 7b 81 80 3f
       0.99348676 1.0191351 0.99399674 1.0039514
0000c0 4f 0e 89 3f 9c 0e 87 3f e4 b1 7c 3f e3 3b 7c 3f
       1.0707492 1.0551333 0.9870894 0.9852888
0000d0 7f 90 7e 3f 9f 41 80 3f 4f 9c 80 3f e9 ba 7e 3f
       0.99439234 1.0020026 1.0047702 0.9950395
0000e0 cf 35 80 3f cb b0 7f 3f 5a 1d 7e 3f c9 cb 80 3f
       1.0016421 0.9987914 0.99263537 1.006219
0000f0 a8 0c 81 3f 7c 8d 7e 3f f7 88 7c 3f 8f b3 80 3f
       1.0081987 0.9943464 0.9864649 1.0054797
000100 0c a7 82 3f 25 5c 7c 3f 1f 54 80 3f 73 38 80 3f
       1.0207229 0.985781 1.0025672 1.0017227
000110 60 5c 7e 3f 2f d0 85 3f af 0c 80 3f 24 31 86 3f
       0.99359703 1.0454158 1.0003871 1.0483747
000120 a9 b4 81 3f 1d 09 81 3f b3 33 7f 3f 50 8e 7d 3f
       1.0133258 1.0080906 0.9968826 0.99045277
000130 ae e2 7e 3f dc 3c 80 3f 5c 40 7f 3f 8a ba 81 3f
       0.99564636 1.0018573 0.9970758 1.0135052
000140 16 e6 81 3f 4e a8 80 3f 26 06 80 3f 47 9f 81 3f
       1.0148342 1.0051363 1.0001876 1.0126733
000150 1b b5 7c 3f 50 e1 7a 3f 5e 36 7d 3f 57 56 80 3f
       0.98713845 0.9800005 0.9891108 1.0026349
000160 b3 63 7d 3f fb 7d 7d 3f 3f 12 82 3f 2f ef 7c 3f
       0.98980254 0.99020356 1.0161818 0.98802465
000170 0e 7d 80 3f 24 37 82 3f e5 d0 82 3f 68 d5 7e 3f
       1.0038164 1.0173078 1.022 0.9954438
000180 6c 01 80 3f 90 37 8b 3f d9 2e 81 3f 65 aa 7f 3f
       1.0000434 1.0876331 1.0092422 0.99869376
000190 04 8d 7f 3f 5b 12 81 3f 8c 0c 82 3f 65 18 88 3f
       0.9982455 1.0083727 1.0160079 1.0632445
0001a0 d4 31 85 3f 46 7d 83 3f d2 31 80 3f 08 70 7f 3f
       1.0405831 1.0272605 1.0015204 0.9978032
0001b0 b9 26 80 3f 52 e2 7f 3f ae be 7f 3f 0d 43 7e 3f
       1.0011817 0.9995471 0.9990033 0.9932106
0001c0 59 a6 80 3f d6 67 7d 3f 19 93 81 3f 4b c6 7d 3f
       1.0050765 0.98986566 1.0123016 0.99130696
0001d0 fb 95 7d 3f 72 bb 7c 3f 43 ac 80 3f 87 45 82 3f
       0.9905698 0.9872352 1.005257 1.0177468
0001e0 3d 9a 80 3f 8d 9e 7e 3f 94 38 7c 3f dc 0a 7f 3f
       1.004707 0.9946068 0.9852383 0.99625945
0001f0 7e 89 89 3f 85 07 7f 3f 63 63 7d 3f 92 7c 80 3f
       1.0745084 0.9962085 0.9897978 1.0038016

net.2.bias f4 [128]
000000 79 67 aa 3b 67 c0 5f 3b 8b 30 1f bc e3 55 7f ba
       0.005200323 0.003414178 -0.009716163 -0.0009740276
000010 ba 4a 50 bb 07 c3 24 bc 68 6c e5 3b 29 cf 10 bb
       -0.0031782822 -0.010056264 0.0070014484 -0.0022096133
000020 e8 c1 a9 bb 08 8b 4e bb 6e 40 76 bc be 51 a0 bb
       -0.005180586 -0.0031515975 -0.01503001 -0.004892557
000030 66 0b 57 bc f0 24 f3 3b b3 e2 18 3b 0f 3f 02 3c
       -0.013125276 0.007420175 0.0023328483 0.007949605
000040 d2 c1 75 3c f2 f5 35 bb cb f8 f5 3b 9c 28 90 bb
       0.014999824 -0.0027765003 0.007506465 -0.0043993723
000050 cc 00 c1 3b 19 c7 0c 3b c8 29 0e bb 31 3d a6 ba
       0.0058899876 0.0021480976 -0.0021692384 -0.0012683031
000060 48 50 15 3b d6 60 7d bc ac 94 b8 bb f1 d4 1f ba
       0.0022783447 -0.015464982 -0.0056329574 -0.00060970994
000070 85 cb ce 3b d4 da 60 3b 81 7c e8 3b 81 e3 a2 3b
       0.0063108825 0.003431012 0.00709492 0.0049709682
000080 5d a7 eb bb 45 40 60 3c 25 2d 08 3c 1f f6 68 bc
       -0.007191582 0.013687198 0.008311545 -0.014218836
000090 93 18 ee 37 8d 0b 91 ba 37 44 54 3c 0c f0 33 bc
       2.8383254e-05 -0.0011066064 0.012955717 -0.010982525
0000a0 a6 08 7e 3b 19 4e 95 3b 60 87 08 bb a7 2a 94 ba
       0.003876248 0.004556429 -0.0020832643 -0.0011304215
0000b0 eb 2a 38 bc 89 aa 89 bb 2a 7a 09 bb 82 f3 76 bb
       -0.011240701 -0.0042012376 -0.0020977356 -0.0037681763
0000c0 db c3 08 bc 15 a2 03 3b 27 34 13 3b 84 09 10 3b
       -0.008347477 0.0020085622 0.0022461505 0.0021978328
0000d0 c3 04 c4 3b 1e b6 ae bb ed a0 45 3b e1 dc bb 3b
       0.005982013 -0.0053317687 0.0030155734 0.005733118
0000e0 2f 27 4d 3a d4 8a c2 3b e8 2f 2f bb c2 ae 0d 3c
       0.0007825968 0.0059369598 -0.0026731435 0.008647623
0000f0 48 e3 a9 bb f4 4a 48 3c 9a 23 7a bc cd 13 b5 3b
       -0.0051845647 0.0122249015 -0.015267277 0.005526042
000100 d0 e4 2d bb 98 5e 60 3c a4 2e c1 bb ea 85 05 3b
       -0.0026534088 0.013694428 -0.0058954526 0.0020374008
000110 d2 94 e3 3b aa 28 57 3a d6 7d ea ba 53 c8 fb 3b
       0.006945231 0.00082076585 -0.0017890285 0.0076837926
000120 2a 9f 85 3b 13 2b dd bb 5e c5 8e bb 28 b3 0f bb
       0.0040778117 -0.0067495196 -0.004357024 -0.0021926854
000130 f8 6f 8f 3b 0b 85 02 3b ac 8d 5d 3b cb 78 83 bb
       0.0043773614 0.0019915726 0.0033806367 -0.0040122024
000140 c9 a1 08 3c 38 dc 09 3c 12 77 8f 3b 32 69 7e bb
       0.008339354 0.008414321 0.004378208 -0.0038820026
000150 a7 e4 3c bc 29 21 8c 3c 21 f4 65 ba 85 1f 3c bb
       -0.011529124 0.017105656 -0.0008772035 -0.002870531
000160 3f 6a 1c bc 4e eb 1a 3c ab bd 04 bb e3 d2 3c 3c
       -0.009546815 0.009455515 -0.0020254652 0.011524889
000170 35 f1 8d bb be df 5d 3b 0a 5c 2d 3b f1 87 f4 3b
       -0.0043317326 0.0033855285 0.0026452565 0.0074624945
000180 a2 fe 3d ba 1d 3b 9f bb 9d 2d 2f bb 70 2e 18 bc
       -0.0007247721 -0.004859342 -0.0026730068 -0.009288415
000190 cf bf b5 ba 3e 70 e3 3a bb 12 60 bb a6 f7 91 bb
       -0.0013866368 0.0017352176 -0.0034190852 -0.004454571
0001a0 e0 70 b0 3a 67 05 8b 3b 30 64 3d 3b 6a 00 07 3b
       0.0013461374 0.0042425874 0.0028898828 0.0020599612
0001b0 6c 51 be bb af 6f 0f 3a 93 3c 38 3c f4 ba d4 3b
       -0.005808046 0.0005471659 0.011244911 0.006492013
0001c0 67 04 f7 3b ef 51 e7 3b 47 c1 36 bb 28 7a 0d 3c
       0.0075383666 0.007059328 -0.0027886198 0.008635081
0001d0 c8 0d d6 bb c6 19 6b 3c 92 64 aa 3b 5b f5 ae bb
       -0.0065324046 0.014349407 0.005199977 -0.0053393072
0001e0 82 ed 2a 3c cb 25 2f bb af 6c 21 bc 7e 3a 3f 3b
       0.010432603 -0.0026725407 -0.009852572 0.0029179151
0001f0 0f bd 11 ba 79 73 82 3b af 29 28 3c 0d 00 75 bb
       -0.0005559483 0.0039810506 0.010263844 -0.0037384063

net.3.weight f4 [128, 128]
000000 73 ad 23 3c 5e 4c c9 bb 43 4c c6 bd 74 98 6a 3d
       0.009990084 -0.006143137 -0.096825145 0.057274297
000010 1c 84 7d 3d b5 5d 2c bc 81 a2 37 bd 69 3e b3 3d
       0.061893567 -0.010520388 -0.04483271 0.08752138
000020 3c ee 87 bb f4 8d 26 be 71 37 9f 3d 99 01 b2 bd
       -0.004148273 -0.16265088 0.077742465 -0.08691711
000030 97 0f 52 3d 82 4c aa bd 05 7c a5 bd 87 88 98 3d
       0.0512844 -0.08315374 -0.080802955 0.074479155
000040 db 1b f7 bc b2 94 62 bd 1d dd 70 bd cd 1b 3d bc
       -0.03016465 -0.05531759 -0.05880462 -0.011542273
000050 48 01 b3 3d e6 dc f2 3b 5c c2 72 3d d8 57 a0 bd
       0.08740479 0.007411587 0.059267387 -0.07829255
000060 dd ec 8b bd 7a a7 33 bd 37 cb ad bd 50 fc 50 3d
       -0.068322875 -0.04386089 -0.08486026 0.051021874
000070 9a 2d 03 3d 9b 90 25 bd ef 81 81 3d f0 7a 08 bd
       0.03202591 -0.04042111 0.06323611 -0.033320367
000080 af 82 8f bc b7 fc 5a bc b1 5c ea 3c 15 d9 48 bd
       -0.01751837 -0.013365916 0.028608652 -0.04903515
000090 b8 c3 4a 3d 42 66 41 3c 50 83 98 3d ad a1 c1 3d
       0.04950306 0.011804165 0.07446921 0.09454665
0000a0 52 73 61 3b f5 35 fd 3c fb 99 9c 3c f6 4b 2f be
       0.0034401012 0.030909518 0.019116392 -0.1711882
0000b0 59 6c 9f bc da 0a 6b bd f7 02 cb bc bb 2d 55 3d
       -0.019460844 -0.057383396 -0.024781687 0.052045565
0000c0 fa d9 22 3e e5 3d 77 3e ae 52 27 3d 3c 1f 5b bd
       0.15903464 0.24144705 0.040850334 -0.053496584
0000d0 58 b6 6d bd fe c1 fe 3c f0 67 8f bd 0d 58 46 3d
       -0.058035225 0.031098362 -0.070022464 0.048423816
0000e0 7b e5 77 3c c9 a6 c8 bd 67 4a 24 bd 6e 61 25 39
       0.015130396 -0.09797437 -0.040110018 0.00015771922
0000f0 57 2f 21 be e8 d6 cb bd f7 68 a0 3d ae 53 96 3d
       -0.15740715 -0.099530995 0.078325205 0.073401794
000100 a7 e0 54 bd 0c 47 20 bd 88 db 6f bd 6c 04 2b bd
       -0.051972058 -0.039130256 -0.05855897 -0.041752264
000110 0b df 18 3d aa 63 73 3d d8 fa a0 3c 4f db 3b 3d
       0.037322085 0.05942122 0.019650862 0.045863446
000120 6e 03 0e 3d c6 62 53 3a ab 69 c5 3d a6 52 a8 bc
       0.03467124 0.00080637296 0.09639295 -0.020547222
000130 74 ea b6 bc da 37 97 bc 50 7f 0d bc 66 20 37 bd
       -0.022328593 -0.01845925 -0.008636311 -0.044708632
000140 52 0f 75 3c af 9e 17 bc 43 dc 95 bc 0b b7 b7 3d
       0.014957266 -0.009254142 -0.018293506 0.089704596
000150 f2 75 02 3d cf f2 5e bd db 4d f1 3c f6 be a7 3b
       0.031850763 -0.05443078 0.02945607 0.0051192
000160 53 c1 5f 3d 8c 06 81 3b 23 54 a4 3d 45 f5 65 3c
       0.054627728 0.003937548 0.0802386 0.014035528
000170 2f 47 6b bd 92 68 82 3d e0 3e 0b be 68 da 29 3d
       -0.057440933 0.063676015 -0.13598204 0.041468054
000180 70 ec 88 bd e5 f5 4c 3a 88 b6 86 3d 41 38 0e bd
       -0.06685722 0.00078186236 0.06577784 -0.034721617
000190 85 09 2c 3c c1 6a 3d 3c b1 35 80 bd 65 38 45 b9
       0.0105003165 0.011561097 -0.06260241 -0.00018808393
0001a0 08 92 c8 3d e7 23 0b bc de a7 d9 bd c2 2a b0 3d
       0.09793478 -0.0084924465 -0.10627721 0.086019054
0001b0 64 f0 66 3d 4e 6e ad 3d 56 66 ee bd 25 61 ba bd
       0.056381598 0.084683046 -0.11640613 -0.0910056
0001c0 93 b5 88 bd 64 37 7b 3d df 43 14 3d 05 47 d2 bb
       -0.066752575 0.06133212 0.03619754 -0.0064171576
0001d0 b8 67 c5 bc f1 9b bb bd f3 b3 41 bc 56 64 92 ba
       -0.024097309 -0.09160603 -0.011822688 -0.0011168818
0001e0 32 16 cc bc c4 0d 8e bd 6d 1b 2a 3d 0e ad 88 3d
       -0.024912927 -0.06936219 0.04153006 0.066736326
0001f0 d3 d9 3a 3e 58 4d 40 3d 94 2d 66 bd 2f 25 90 3d
       0.18247156 0.04694876 -0.05619581 0.07038342
000200 e7 3c 82 3c eb db 77 3c a4 99 26 bd d0 5a 10 ba
       0.015898181 0.015128116 -0.040673867 -0.0005506696
000210 14 4d 99 bd b2 4e 96 3d a1 82 88 3a ec bb 96 3d
       -0.074854046 0.07339229 0.0010414907 0.07360062
000220 9d b4 ab bd fc 9c 40 bc 58 c6 7c bd a8 6a 0a bd
       -0.083840586 -0.011756178 -0.061712593 -0.03379312
000230 6a ff c7 3c 18 ad 91 bd 2a 1d 94 bc bd f5 92 3d
       0.024413783 -0.07113093 -0.018080313 0.07175777
000240 da 93 91 3d cd b2 a9 3d 5e 8a 3a 3d 4a 0a 28 bd
       0.071082786 0.08286057 0.045542113 -0.041025437
000250 7d 20 a1 3d 3c 1d 24 3d 56 55 d7 bb ce 2e 86 3b
       0.07867525 0.040066943 -0.006571452 0.004094935
000260 4f c6 5b bd 77 ac 83 3c 56 c5 16 3d 6f 9b ce bc
       -0.05365592 0.016073449 0.036809288 -0.0252206
000270 7f e6 61 bd 7f f6 87 3d 84 af 98 3d 6c 7d df 3b
       -0.05515146 0.06638812 0.07455352 0.0068203714
000280 33 9c 8b bd 4d 4a af 3d 2c 6c 18 3d 7e 28 44 bd
       -0.06816902 0.085590936 0.037212536 -0.04789018
000290 51 e8 22 bd ba 72 a2 bd 13 1d 12 bd 27 08 b1 bd
       -0.039772335 -0.079320386 -0.03567226 -0.08644133
0002a0 b7 55 0d bd 64 d4 ac bd 69 2c 3a bb 5d 5c 05 bd
       -0.034505572 -0.08438948 -0.0028407818 -0.032558788
0002b0 33 dc 96 bd 49 79 0c 3c 60 fc 5a bd b4 07 3f bd
       -0.073662184 0.0085738385 -0.05346334 -0.046638206
0002c0 6c 91 15 bd db 72 0e 3d 63 92 6b 3d e7 a8 15 bc
       -0.03651564 0.034777503 0.057512652 -0.009134508
0002d0 13 16 f0 3c 2f 0f 41 bd 23 d5 39 3d 05 71 a1 3d
       0.0293074 -0.04713362 0.04536928 0.07882885
0002e0 0d e5 9d 3b e8 27 5d bd dd fb a0 bc 88 e8 5c bd
       0.0048185647 -0.053993136 -0.019651348 -0.053932697
0002f0 79 5d 4c bd 42 16 79 3d be c1 3a bc 76 4b 72 3d
       -0.04989383 0.060812242 -0.011398731 0.059153996
000300 2b ed 88 bd 55 97 b7 3c 18 27 0a 3c cd 6a 27 3d
       -0.06685861 0.022411028 0.008432172 0.040873338
000310 30 d4 aa bc 0b 47 54 bd 3d dc 07 bd c9 3b 83 bd
       -0.020853132 -0.051825564 -0.03316902 -0.064078875
000320 d8 0d 93 bd b5 13 1a 3d 2f 72 16 bd 00 03 4b 3d
       -0.07180375 0.03761645 -0.036729988 0.049563408
000330 50 f4 85 bd 43 dd af bd ee 5a a9 bd 9a 76 98 3d
       -0.065407395 -0.08587124 -0.082692966 0.074444965
000340 89 55 3e 3c eb 5f 88 bc 4b b7 ae bd 6f a7 97 3d
       0.011617073 -0.0166473 -0.08531054 0.07404982
000350 bf f6 44 bd b2 b8 6e bd 61 b0 ce 3c 60 da 95 bc
       -0.048086878 -0.058281608 0.025230588 -0.018292606
000360 ea fc 80 bd 3b 35 74 3d 5b 6b a4 3d 16 0e af bc
       -0.062982395 0.059621077 0.08028289 -0.021369021
000370 33 d3 96 3d 81 52 1f 3d ac 95 b1 3d a0 e4 9a bc
       0.07364502 0.03889704 0.08671126 -0.018907845
000380 f0 22 7a bd 17 3c 87 3d 45 d1 09 bd d3 b4 73 3c
       -0.061068475 0.06603258 -0.03364684 0.014874655
000390 7e ea 0b 3d 5c 02 0c 3b 44 88 99 bd d7 ec 71 bd
       0.034159176 0.002136371 -0.07496694 -0.05906376
0003a0 d2 66 3b 3d c0 68 a1 bd 19 7c 4c bd 9b 28 93 3d
       0.045752354 -0.078813076 -0.049923036 0.07185479
0003b0 ee 4e 9c 3c ac 03 41 3d 9f 36 ec 3c 74 5c b4 bd
       0.019080605 0.047122642 0.02883464 -0.088066965
0003c0 6e b0 16 bc 06 79 d3 3c b8 6c a0 bc 41 c5 43 bb
       -0.009197338 0.025814544 -0.019583091 -0.002987221
0003d0 81 56 2e 3c d1 de a6 3c a0 30 74 3d 1f f5 7d bd
       0.010640741 0.020369919 0.059616685 -0.062001344
0003e0 79 40 ba bb ff 28 b2 3d 99 9f 24 bd dc 21 0e 3d
       -0.0056839553 0.08699226 -0.040191267 0.03470026
0003f0 b5 1e 06 3d 60 7c 80 bc f9 d8 93 bc d9 5c ac 3d
       0.03274413 -0.015684307 -0.018047797 0.08416147

net.3.bias f4 [128]
000000 8c b4 8e 3d c3 fa 7c 3c d9 b6 a0 bd 50 8a 95 3d
       0.0696803 0.015440646 -0.078473754 0.07301772
000010 8f eb 83 3d 77 27 ae 3c 28 cb ec 3c e5 ad 83 3d
       0.064414136 0.021259053 0.028905466 0.06429652
000020 f0 5e 32 bb 36 21 85 bd 1e 08 96 3d 63 81 b3 bc
       -0.0027217232 -0.06500475 0.07325767 -0.021912282
000030 81 5d d8 3c f5 6d ac 3d 52 b4 97 3d 50 fc a9 bd
       0.026411774 0.0841941 0.0740744 -0.08300078
000040 21 e1 92 3d c6 ed 31 bd cf e1 76 bd a0 45 ab bc
       0.07171846 -0.04343965 -0.06027394 -0.020907223
000050 66 08 7a bd ea 9f d3 3c 01 01 11 bd 1c c9 7d bd
       -0.061043166 0.025833089 -0.035401348 -0.06195937
000060 21 19 59 3d de 7d 11 bc ca 5f 81 bd 90 a9 0d 3c
       0.05300248 -0.008880107 -0.063170984 0.008646384
000070 5a 93 dc bc 44 b5 77 3d 19 e8 07 bd e0 7d 8b bc
       -0.026925731 0.060475603 -0.03318033 -0.017027795
000080 0c 60 f4 3c bd d4 4d bd 97 ab 7e 3c de 15 90 bd
       0.029830955 -0.05025171 0.01554384 -0.07035421
000090 04 34 05 3d cf 6d d3 3c 9e 3c 99 3d 0b 65 2d 3b
       0.03252031 0.025809197 0.07482265 0.0026457931
0000a0 15 67 28 3d 7d 5d 09 3c fc a1 87 bd 80 7b c1 bd
       0.04111393 0.008384106 -0.06622693 -0.09447384
0000b0 63 e3 9d bd 47 0e 28 bd 21 f3 26 3d cc 5a 77 bd
       -0.07709386 -0.04102924 0.04075921 -0.060389325
0000c0 22 27 62 3d 5e 3c 83 3d 26 d9 07 3d dc d5 61 3d
       0.0552131 0.064079985 0.033166073 0.055135593
0000d0 8e 4b 92 3d c6 fd b3 bc 1e 9d ac 3d 60 eb 38 bc
       0.07143317 -0.021971595 0.08428405 -0.0112865865
0000e0 d2 b8 69 3d ef 5a 94 3d 1c f2 b9 ba 6a 90 64 bd
       0.057061024 0.07243907 -0.0014186534 -0.055801786
0000f0 82 a6 88 bc eb a0 51 bd 6a 7c 47 3d db e6 73 3c
       -0.01668096 -0.051178854 0.048702635 0.014886583
000100 e0 f4 47 3c 17 83 1d 3d e0 5a d4 3c 14 3f 7b 3c
       0.012204379 0.038455095 0.025922239 0.015334863
000110 22 1a 3e 3d 44 1a 65 3d c1 18 87 bd c5 8b 7a 3c
       0.04641164 0.055933252 -0.06596518 0.015292113
000120 dd 63 5e 3d 82 f8 98 3d 50 0b 7e bd 06 75 ed bc
       0.054294456 0.07469274 -0.062022507 -0.028986465
000130 65 1a 02 bd 9c d4 fd bb 94 e4 26 bd 06 1a 58 bd
       -0.031763453 -0.0077462923 -0.040745333 -0.052759193
000140 25 86 a3 bd 5a a6 ac bc 0e 1b fc bb a6 c4 8c bd
       -0.079845704 -0.021075416 -0.007693655 -0.06873445
000150 14 a0 95 bd 65 81 43 3d ae 35 59 3d 51 4f 2b bd
       -0.07305923 0.047730822 0.05302971 -0.04182369
000160 d3 af 41 3d 14 d5 13 bd d8 05 c2 3c ff 37 4d 3b
       0.04728682 -0.03609188 0.023684427 0.0031313894
000170 79 0f 4f bd 10 c7 3a 3b 43 36 20 bd 84 6b e5 3c
       -0.050551865 0.0028499998 -0.039114248 0.028005369
000180 5f e8 86 3c fe ae 09 bd ce be 79 bd bd e7 60 3c
       0.016468225 -0.03361415 -0.06097298 0.013727126
000190 db e1 7a 3d 5e 24 ab bc 67 93 79 3d ba 28 7c 3d
       0.06125055 -0.020891365 0.06093159 0.061562277
0001a0 ec 17 b3 bd 2e 6c d4 3c 3c 21 56 3d fd c8 9f 3c
       -0.08744797 0.02593049 0.05227779 0.019505018
0001b0 a0 35 93 bd 26 94 67 3d 35 69 af 3d ca f9 15 ba
       -0.071879625 0.05653777 0.085649885 -0.00057211204
0001c0 d7 84 ae 3d 88 be 79 bc 6b 06 82 bd 6c 01 e2 bc
       0.08521431 -0.01524318 -0.063488804 -0.027588569
0001d0 d5 6c a2 bd cf d9 8c 3d 0a 1c 1c 3d 00 17 54 bd
       -0.07930914 0.06877481 0.038112678 -0.051779747
0001e0 dc 61 aa bd 59 a6 26 3d 42 36 3f bd 11 c1 03 3d
       -0.083194464 0.040685985 -0.046682604 0.032166544
0001f0 f2 c9 8a bd c3 3b 94 3d 4e b9 22 3d 81 c2 25 bd
       -0.06776799 0.07237961 0.0397275 -0.040468697

net.5.weight f4 [128]
000000 7a 71 a1 3f f1 29 7e 3f 00 47 7b 3f 28 02 81 3f
       1.2612755 0.9928275 0.9815521 1.0078783
000010 16 28 82 3f fe 5f 82 3f 7a 31 88 3f 24 1c 7f 3f
       1.0168483 1.0185544 1.0640099 0.99652314
000020 c0 82 7e 3f 0a e0 7f 3f bc 95 86 3f f4 60 81 3f
       0.9941826 0.9995123 1.0514445 1.0107713
000030 c0 c1 7e 3f 19 98 82 3f b1 e7 81 3f 1e 16 80 3f
       0.9951439 1.0202667 1.0148832 1.000675
000040 d7 38 78 3f cf dc 79 3f 0d 13 7a 3f 94 44 79 3f
       0.9696173 0.9760255 0.9768532 0.97370267
000050 f0 91 80 3f ca 76 7f 3f 21 f8 7a 3f 5f 1d 80 3f
       1.0044537 0.9979063 0.98034865 1.0008963
000060 c3 ce 8c 3f c7 33 a1 3f 8d f7 81 3f f6 2a 7d 3f
       1.1000599 1.2593926 1.0153672 0.9889368
000070 1a 68 83 3f 4d e7 7e 3f 4d 52 7c 3f 8f fe 7e 3f
       1.0266144 0.99571687 0.9856308 0.99607176
000080 27 27 80 3f 18 ba 7d 3f 56 24 7f 3f 30 9c 7e 3f
       1.0011948 0.9911208 0.9966482 0.99457073
000090 19 2f 74 3f 12 5b 8a 3f 66 dc 7e 3f 93 9e 88 3f
       0.95384365 1.0809042 0.9955505 1.0673393
0000a0 2b 47 7f 3f 34 4b 80 3f 1f b8 80 3f e3 b6 7a 3f
       0.9971797 1.002295 1.0056189 0.97935313
0000b0 ac 01 7e 3f d8 10 78 3f 07 dc 83 3f 80 88 84 3f
       0.992213 0.969007 1.0301522 1.0354156
0000c0 46 7d 7c 3f 33 79 81 3f d6 f8 80 3f af ca 80 3f
       0.9862865 1.0115112 1.0075939 1.0061854
0000d0 e7 09 80 3f ea 3a 7b 3f bb fa 80 3f 08 54 85 3f
       1.0003022 0.9813677 1.0076517 1.0416269
0000e0 d6 0d 88 3f b9 31 89 3f 4d 7e 7c 3f 4c 12 80 3f
       1.0629222 1.0718299 0.9863022 1.0005584
0000f0 7c d0 7a 3f e9 a7 82 3f 33 44 83 3f b7 76 82 3f
       0.9797437 1.0207492 1.0255188 1.0192479
000100 16 17 80 3f 68 04 80 3f eb ad 82 3f 77 4d 85 3f
       1.0007045 1.0001345 1.0209326 1.0414265
000110 8c f9 83 3f b0 80 80 3f 4f 99 84 3f 3b 8c 80 3f
       1.0310531 1.0039272 1.0359286 1.0042795
000120 a6 fe 7f 3f d3 4e 7c 3f 1e d7 7e 3f 85 6f 7e 3f
       0.9999794 0.98557776 0.9954699 0.99388915
000130 8a 20 79 3f 2e aa 76 3f e4 d3 83 3f 52 a5 7b 3f
       0.97315276 0.96353424 1.0299039 0.98299134
000140 b6 a3 80 3f f3 76 7b 3f 79 9f 7b 3f e8 a1 88 3f
       1.0049961 0.9822838 0.9829021 1.067441
000150 55 b1 87 3f 34 fa 85 3f 9d 64 7c 3f 70 29 80 3f
       1.0600992 1.0466981 0.98591024 1.0012646
000160 79 e3 7e 3f 6a bf 7a 3f 1c 2e 7b 3f 78 58 7e 3f
       0.99565846 0.97948325 0.9811723 0.9935374
000170 4a 16 81 3f 8a 2c 7d 3f 55 2f 80 3f cd d4 81 3f
       1.0084927 0.98896086 1.0014445 1.0143067
000180 6d 75 81 3f 4f 3d 78 3f 8b 72 7d 3f ac 44 7d 3f
       1.011396 0.9696855 0.99002904 0.9893291
000190 cb 25 89 3f 6f a4 83 3f 41 4b 81 3f a4 54 80 3f
       1.0714658 1.0284556 1.0101091 1.002583
0001a0 f8 16 80 3f 01 4f 7a 3f 3a 15 7b 3f 0e 09 81 3f
       1.000701 0.977768 0.98079264 1.0080888
0001b0 5e 7e 8a 3f 0f 60 81 3f 83 16 96 3f f3 4e 75 3f
       1.0819814 1.010744 1.172562 0.9582359
0001c0 d5 d4 7e 3f d0 c3 7e 3f 63 cd 7b 3f c3 87 82 3f
       0.99543506 0.99517536 0.9836027 1.0197681
0001d0 66 7a 7d 3f 6f 17 81 3f 13 a6 83 3f 08 2c 81 3f
       0.9901489 1.0085276 1.0285057 1.0091562
0001e0 29 0a 80 3f 62 9c 81 3f ab 8f 6e 3f a0 60 81 3f
       1.0003101 1.0125849 0.9318797 1.0107613
0001f0 a0 12 7a 3f ec 5b 77 3f 5a ff 87 3f 8b b2 8b 3f
       0.9768467 0.96624637 1.0624802 1.0913862

net.5.bias f4 [128]
000000 75 cb 29 3a 3a 07 87 3c 58 91 8e bc a6 96 5b bb
       0.0006477156 0.016482938 -0.01740329 -0.0033506542
000010 dc 6c 8f 3b de cc 0b bc 87 f5 78 3c 31 28 0d 3a
       0.0043769907 -0.008532731 0.015195257 0.0005384712
000020 17 50 6c bb 05 1d 6f bc 38 ba 10 3c 0e 02 73 3c
       -0.003605848 -0.014594321 0.0088334605 0.014832033
000030 97 d7 2c bb fb fd 83 bc 56 00 1a 3d ec 79 6c bb
       -0.0026373619 -0.016112318 0.037597977 -0.0036083413
000040 4a f5 8f 39 29 82 91 bc fe 63 a6 3c 3b 2c 80 3c
       0.0002745784 -0.01776226 0.020311352 0.01564609
000050 3b 44 59 3a 76 00 a9 3b 15 a0 d6 39 f7 1f 22 bc
       0.000828806 0.0051575257 0.0004093653 -0.009895316
000060 a5 0c 5e 3b 8e 85 d5 ba 5b 7e 60 bb 82 d0 a0 3c
       0.0033882048 -0.0016290413 -0.0034255001 0.019630674
000070 79 8e 29 bc a6 22 69 bc 6b 32 8c 3c d8 6d a3 ba
       -0.01034891 -0.014229452 0.017113885 -0.0012468649
000080 c0 e8 cf bb d5 15 ab 3c 12 e9 3b bc e9 7d 6e 3c
       -0.0063448846 0.020884434 -0.0114691425 0.0145563865
000090 9c 4a 99 3b 73 91 2e 3c 25 2d 8f 38 27 ef 81 bb
       0.0046780836 0.010654795 6.82718e-05 -0.0039652768
0000a0 33 11 ff 3b 2a 95 62 3b 72 5b 7f bc 43 7a 16 3c
       0.0077840327 0.0034573772 -0.015585767 0.009184423
0000b0 33 49 8b 3c af 5e 13 3d bb 6f 09 bb dd 50 cd b8
       0.017002678 0.03597897 -0.0020971138 -9.790224e-05
0000c0 e0 b3 e7 bb c2 ba a6 3c 0f f6 07 3c 75 0d 2d 3c
       -0.0070710033 0.020352725 0.008298411 0.01056229
0000d0 a5 0b 37 3b e6 a2 20 bc 49 fb 5c 3c 55 c5 c5 bc
       0.0027930525 -0.009804463 0.013487645 -0.024141947
0000e0 d6 9a f8 bb 89 31 66 bb e6 52 6b bb 51 36 d7 bb
       -0.0075868173 -0.003512474 -0.0035907566 -0.0065677543
0000f0 21 94 e2 ba b9 6b e2 bc 2d ac e6 bb 8b 43 59 bc
       -0.0017286577 -0.027639257 -0.007039568 -0.013260732
000100 24 40 ce 3a 58 ab a7 bc 7b 72 8e 3c b0 e5 00 3c
       0.0015735668 -0.020467445 0.017388573 0.007867262
000110 05 dd 20 3c ee 54 2a bc 16 e5 3c bb cf c2 ab bc
       0.00981832 -0.010396225 -0.002882307 -0.020966915
000120 11 00 25 3c 28 b3 b1 bb 28 26 87 3c cc c8 a6 3b
       0.010070817 -0.0054229684 0.016497687 0.005089855
000130 4c 92 d9 3c e7 fb a7 3c 8f 83 49 bc 71 a6 84 3c
       0.026559018 0.020505859 -0.012299432 0.016192647
000140 bd 08 0e bc 06 5f 8d 3a 1a 14 81 ba bd 49 9e 3a
       -0.008669076 0.0010785765 -0.000984791 0.0012076419
000150 68 9a 2d bc f9 8d 58 3c 34 fa b8 38 ac c4 b1 3c
       -0.010595895 0.013217443 8.820408e-05 0.021700226
000160 ea ca 0b 3c 5e 1b 1d 3b a2 3b 27 bc 6b d0 80 3b
       0.008532265 0.002397261 -0.010207089 0.0039310954
000170 13 1e 94 bc 98 59 df 34 cb 08 08 bb b1 7b 87 bc
       -0.018080747 4.1602175e-07 -0.0020757194 -0.016538473
000180 ec e0 1c 3b c0 22 ba bb 55 18 3d 3c 27 e3 aa 3c
       0.0023937775 -0.005680412 0.011541446 0.020860268
000190 d3 87 a7 bb 47 76 d1 bc be f4 ac bb 89 6d b0 3c
       -0.005112627 -0.025569094 -0.005278199 0.021536605
0001a0 c0 3e f4 3a 6f 3c 17 bc 81 58 bc bb 34 55 2e 3c
       0.0018634424 -0.009230717 -0.005747855 0.010640431
0001b0 c8 ea 4a 3a 3f e6 f9 bc e4 c0 8a 3c a7 e6 0d bb
       0.00077406736 -0.030505298 0.01693768 -0.0021652372
0001c0 db 7d e5 3b 3b 16 3f 3c e8 57 4c bb fd f8 0d bc
       0.0070035285 0.011663015 -0.0031180326 -0.00866532
0001d0 85 39 79 3c 19 bc 85 bc e4 36 98 bc e5 20 8d bc
       0.015211468 -0.016325044 -0.018580861 -0.0172276
0001e0 49 86 27 3a b0 e1 bf bc 1a 54 ca bc 33 18 e3 bc
       0.00063905545 -0.023423046 -0.024698306 -0.0277215
0001f0 3d ba dd b9 40 2b ad 3b bd 93 bf 3c d1 f5 de bb
       -0.00042291163 0.005284697 0.023385877 -0.006804206

net.6.weight f4 [64, 128]
000000 b6 9a 76 bc a2 3d c1 3d bc 72 94 3c fd eb 81 3d
       -0.015051534 0.09435584 0.018121116 0.06343839
000010 4d 05 04 be 12 bf 9f bd 4b b4 1a 3d da fd b5 3c
       -0.12892647 -0.07800116 0.037769597 0.022215772
000020 30 80 e2 3d 9d 77 08 3e a5 71 49 3e ca 34 12 3d
       0.11059606 0.13326879 0.19672258 0.035694875
000030 3a e2 06 bd b5 c0 4f 3d cd dc 3e bd 1d 15 d6 bb
       -0.03293059 0.05072089 -0.04659729 -0.0065332786
000040 54 93 9a bc 5f b5 a0 3c e2 d9 8f 3d 4d d7 e7 3d
       -0.01886908 0.019617734 0.0702398 0.11320362
000050 86 41 82 bd a2 ab c3 3d 50 61 80 3c dd 4b 16 be
       -0.06360154 0.09554221 0.015671402 -0.14677377
000060 5f 39 c0 3d 44 f6 db 3c 31 4e 2b bd 3b 5c 97 bc
       0.09385943 0.026850827 -0.041822616 -0.018476596
000070 49 e4 21 3d ed cc 85 3d 0c 38 dd 3d 8e 4d 2d bd
       0.03952435 0.06533227 0.10801706 -0.04231029
000080 c3 fc 52 be 4b 9d c6 bd c9 c0 2b bd dd 08 fa bc
       -0.20604233 -0.0969797 -0.0419319 -0.030521804
000090 5e 22 07 bc d0 e2 46 3c ee 92 9c 3d db dd 0f 3d
       -0.00824794 0.012139037 0.07645212 0.035123687
0000a0 bb a5 97 3d 6a d0 35 3e ea 7a f1 bb b1 b5 27 bc
       0.074046575 0.17755285 -0.007369389 -0.01023619
0000b0 87 ef 03 3c 1e 99 e6 3c 15 13 9b 3d f4 66 9c 3a
       0.008052713 0.028149184 0.07571999 0.0011932538
0000c0 72 2a c2 3c f6 76 14 bd c1 a0 1f be 63 30 60 3d
       0.02370188 -0.036246262 -0.15588666 0.054733645
0000d0 d1 1a d9 3c 22 70 30 3d dd 96 ad 3d 21 92 31 be
       0.026502045 0.04307569 0.084760405 -0.173409
0000e0 08 c0 04 bd de e3 cc 3c d6 a7 85 bd d3 6e 99 bc
       -0.032409698 0.025011 -0.06526153 -0.018729603
0000f0 0c fe 8b 3d 2b b1 90 3d f5 3e 78 3c 14 7a 79 3c
       0.06835565 0.07065042 0.015151729 0.01522686
000100 91 0e e5 3d 26 28 60 bc 1b 3b 18 3c 18 a8 8a 3d
       0.11184419 -0.013681447 0.009291436 0.067703426
000110 95 77 dc 3d 4a e1 06 3d aa 67 ff 3d 02 61 ff 3c
       0.10764996 0.032929696 0.12470944 0.031174187
000120 e6 27 ac bd 07 38 a4 3d e0 57 81 bd 95 6c 2f bd
       -0.084060475 0.08018499 -0.06315589 -0.04282816
000130 35 02 b8 bd 49 3e 55 bd de 22 e7 3c 45 bc 8e bd
       -0.08984796 -0.052061353 0.028214868 -0.06969503
000140 04 71 eb bc f0 d1 ae bd 8e 87 d5 bb 7b 13 52 3d
       -0.028740413 -0.08536136 -0.0065164035 0.05128811
000150 63 ae d4 3d bf 04 f8 bd 49 f8 00 be f6 d6 b0 bd
       0.10384824 -0.1211028 -0.12594713 -0.086347505
000160 6a 0e 20 3d 06 75 4a bd 38 88 02 bd 31 71 97 bd
       0.039076246 -0.04942801 -0.03186819 -0.073946364
000170 80 35 09 3d 0f 21 ba 3d 4c 0c 21 3d bc 72 ab 3d
       0.033498287 0.09088337 0.039318368 0.08371493
000180 d0 37 07 bc ad e7 19 bd 35 d7 41 3d 63 f5 03 3e
       -0.008253053 -0.03757446 0.047324378 0.12886576
000190 f7 ab bb 3d 21 a9 f1 3c b5 cb 62 3c 77 ae 98 bc
       0.09163659 0.029499592 0.013842513 -0.018637879
0001a0 34 f3 72 bd b7 02 72 3d 22 75 f8 bc 35 b5 4c bd
       -0.059313968 0.05908462 -0.03032929 -0.0499775
0001b0 80 bd 65 3d e3 20 1f 3d 76 7f e6 bd 87 79 68 bd
       0.056088924 0.038849723 -0.1125478 -0.056756523
0001c0 75 1c 26 3d 02 65 cd 3c 09 e3 08 bd ad e5 52 be
       0.040554482 0.025072578 -0.033419643 -0.20595427
0001d0 63 ec 9f 3d 75 09 52 3d 3d 7f 11 3d 0e ce 3c bd
       0.07808759 0.05127855 0.035521735 -0.046094947
0001e0 ac 90 e8 bd 2d 96 92 3d ff 66 c8 bd 14 d0 71 3b
       -0.11355719 0.0715755 -0.0978527 0.0036897706
0001f0 e9 79 19 bd 96 b8 b6 3d 7f 87 3e 3e c8 e7 ac bd
       -0.03746978 0.08921926 0.18606375 -0.08442646
000200 58 aa 95 3c e5 a2 8b bd c1 94 8c 3c 71 d3 de bc
       0.018269703 -0.06818179 0.017160775 -0.027200432
000210 e3 c6 10 3c ac 16 16 3d de 09 88 bc 4e f5 3c bc
       0.008836481 0.036642715 -0.016606268 -0.011533095
000220 ec 5a 7d 3d 96 14 5d bd 60 4f 7c bd d6 1f 65 3d
       0.061854288 -0.05397471 -0.061599135 0.055938564
000230 49 1a ed bc c2 31 ca 3c 0e ba 39 bd 68 e7 a5 bd
       -0.028943198 0.02468193 -0.04534345 -0.08100778
000240 b8 7c d4 bc dc de 14 3d 39 c8 2d bc 59 33 3d 3c
       -0.025938377 0.036345348 -0.010606819 0.011547887
000250 e1 c5 03 bd b6 88 c6 bc 41 8b 40 bd 22 4d 24 bd
       -0.032171134 -0.02423511 -0.047007803 -0.040112622
000260 f3 bc da bb 5e 9c 06 3d 74 d5 f4 bc 46 94 40 bd
       -0.0066753565 0.032863967 -0.029886939 -0.047016405
000270 05 e9 d1 bd 6b 4c a5 3d bf f0 40 3c f1 93 23 3d
       -0.10249523 0.08071216 0.011776148 0.03993601
000280 1b b2 8c 3c 6e b9 4e 3d 46 be 61 bc 7c 53 dc 3c
       0.017174771 0.05046981 -0.013778275 0.026895277
000290 c6 3d 7b 3b 4d dc 06 3d e7 51 a8 bb 6b e2 94 bd
       0.003833638 0.03292494 -0.0051367166 -0.07269748
0002a0 cf 94 ac 3d 6a 77 b2 3b 15 2a 45 3d 64 d8 35 3b
       0.084268205 0.005446364 0.048135836 0.0027747387
0002b0 22 9f 3a bd a5 ae 97 bd 2a 87 d3 3d 19 16 28 bd
       -0.045561917 -0.07406358 0.10328515 -0.0410367
0002c0 e2 c6 4f bd 47 dc 94 3c 99 f7 2a 3d c9 fc 95 bd
       -0.05072678 0.018171443 0.041740034 -0.073236056
0002d0 e8 92 25 3d fe 2d 1a 3d 50 3b 09 3d 52 d4 d2 3d
       0.040423304 0.037641518 0.03350383 0.10294403
0002e0 61 18 2d 3d 4e a9 3d bd 4a 02 21 bd fc 94 ef 3c
       0.042259578 -0.04630404 -0.039308824 0.029245846
0002f0 ac 5f 87 3d 84 25 5c 3d 28 6a 54 3d e3 4b 06 bd
       0.06610045 0.053746715 0.05185905 -0.032787215
000300 8e 05 cd 3c 1a 25 b2 3c 19 aa 7b bd 0b fb 30 bc
       0.025027063 0.021746207 -0.061441515 -0.010802041
000310 4d 64 4e bd a0 2d 52 bc 62 e0 a1 bd 91 4e 9e 3d
       -0.050388623 -0.012828261 -0.07904126 0.07729829
000320 6e 02 35 bc 3d f7 61 bd 42 91 80 3d bd 7a c4 bd
       -0.011047943 -0.055167425 0.06277706 -0.09593723
000330 c3 f4 15 bc 37 3a 8d bd 9c ab b8 bc 9e 9f 02 3d
       -0.009152594 -0.06895869 -0.022542767 0.031890504
000340 dd 85 ba 3c 5d c9 52 bd 9a 55 58 3d 43 78 dc bd
       0.02276891 -0.051461566 0.05281601 -0.107651256
000350 72 bc ab bc 61 49 bf 3c eb 81 65 bc e1 a4 62 3d
       -0.020963881 0.02335042 -0.014008026 0.055333022
000360 85 30 c4 3d 30 bd ab 3b d2 c8 af 3b 92 19 ec bc
       0.09579567 0.0052410588 0.005364516 -0.028820787
000370 84 b4 89 3d 44 90 a3 3d 3a 84 de bd 3c d1 32 bd
       0.06723884 0.07986501 -0.10865064 -0.043656573
000380 07 d8 6b 3c ee 1a 8c 3d 0f 32 25 3c 32 b9 27 3d
       0.014394767 0.06841074 0.010082736 0.0409481
000390 29 8f d8 bd b8 41 35 bd f4 e1 60 3d f3 28 43 bd
       -0.10574181 -0.044252127 0.054902986 -0.047646474
0003a0 08 37 65 3d 20 a9 ae 3d 8a 04 92 3d 60 05 75 bd
       0.055960685 0.08528352 0.07129772 -0.05981958
0003b0 7a de 41 3d 31 20 87 3d 22 c7 5a bc ef 07 83 3b
       0.04733131 0.06597937 -0.013353141 0.0039987485
0003c0 9e 28 cd bb 6e a3 89 bd 38 1d 69 3d f0 1f 8e 3d
       -0.0062609455 -0.06720625 0.05691263 0.06939685
0003d0 04 ec 4f bd 80 ae 79 3d f0 a5 c8 3d 05 9c 52 3c
       -0.05076219 0.06095743 0.09797275 0.012854581
0003e0 e4 31 89 bd c1 43 f3 3c 83 d3 37 bd 4c 0d 27 3b
       -0.06698969 0.029695394 -0.044879448 0.0025490103
0003f0 4c e7 e1 bc d0 2a 88 bc fd 48 d4 bc a2 07 e9 bc
       -0.027576111 -0.016621977 -0.02591371 -0.028446022

net.6.bias f4 [64]
000000 32 23 8f bd f5 8e ca 3c 5f 15 ef 3c c3 b1 4e bd
       -0.06989135 0.02472637 0.029184995 -0.050462496
000010 8d d6 fb bb a5 c1 e6 3d 5d 69 c5 bd fe e8 d5 bc
       -0.0076854886 0.112674035 -0.09639237 -0.026112076
000020 6f c9 20 bc 12 33 18 bd 3c de 86 bd 6d 20 b4 bc
       -0.0098136505 -0.03715808 -0.065853566 -0.021988118
000030 44 55 49 3d ac f6 53 bc b8 96 c2 3c 80 9d 6f 3c
       0.04915358 -0.012937229 0.023753509 0.014624953
000040 a1 77 a0 bc 88 4b a4 bc e6 72 44 3c 52 77 c6 3b
       -0.019588294 -0.020055547 0.011990285 0.0060567046
000050 e0 a2 1e 3d 76 be b9 3c 04 ec 26 bd 40 ea 8c bd
       0.03872955 0.022673827 -0.040752426 -0.06880617
000060 36 2d b0 3c 6d c2 63 bc 22 6e 48 bd 64 8f 7b bd
       0.021505933 -0.013901335 -0.048933156 -0.061416045
000070 76 8c 3b 3c 50 be 9b bd dd 75 85 bd be 50 a1 3c
       0.011447063 -0.076046586 -0.06516621 0.019691821
000080 0b d6 b7 bb 67 8a 14 3d b5 6e ce 3c 69 ea 01 bd
       -0.0056102327 0.036264803 0.025199274 -0.03171769
000090 f3 76 ce bc 4a 8f 2a 3d e9 e1 13 bd 3e bc 8a bd
       -0.025203204 0.041640557 -0.036104117 -0.067741856
0000a0 b0 e7 8c 3d d4 c2 9e bc 93 ec 3d bd 1e 61 03 3c
       0.068801284 -0.01938001 -0.046368193 0.00801876
0000b0 7b 68 00 3d 8c a5 a3 3d 37 14 bc bd c5 e5 4e bd
       0.03134964 0.0799056 -0.09183543 -0.050512094
0000c0 0e 21 42 bd aa 26 09 bb 27 b3 9d bb 8e 6e 86 3b
       -0.047394805 -0.0020927587 -0.0048126164 0.0041025346
0000d0 18 73 8e bd 49 2d f3 bc 9f 1d 10 bc 12 81 53 3d
       -0.06955546 -0.02968468 -0.008796125 0.051636763
0000e0 9d 30 9d 3d 72 ed 71 bd 99 6e 1b 3d c1 45 c6 bd
       0.07675288 -0.059064336 0.03794727 -0.09681273
0000f0 79 c7 a3 bd 21 2e dc bc cf fc 55 3d 34 d8 e1 bc
       -0.07997031 -0.026877465 0.05224305 -0.027568914

net.8.weight f4 [64]
000000 87 7e f5 3f d4 41 3f 40 97 31 13 40 fe 17 cf 3f
       1.9179238 2.9883928 2.2999017 1.6179197
000010 62 9f 19 40 69 8a e0 3f 68 e9 02 40 6a 8c 0f 40
       2.400353 1.754224 2.045496 2.2429452
000020 dc 3b fe 3f b3 50 44 40 11 a0 13 40 8c 11 02 40
       1.9862018 3.0674255 2.3066447 2.032321
000030 cc 3b 3a 40 57 b3 47 40 fc 47 fa 3f e4 23 00 40
       2.9098997 3.120321 1.9553218 2.0021906
000040 bd 5b e8 3f 26 97 52 40 53 0d 23 40 f7 ee 13 40
       1.8152996 3.2904754 2.5476882 2.3114603
000050 b1 73 17 40 8a 1b 1d 40 f6 3b 12 40 a0 fa 3a 40
       2.3664362 2.4548059 2.2849097 2.921547
000060 71 96 ec 3f 14 d7 13 40 67 fc 22 40 46 34 19 40
       1.8483411 2.3100023 2.5466554 2.3938155
000070 d9 aa 32 40 e7 86 e6 3f 56 ba 2e 40 e7 f6 22 40
       2.7916777 1.8009919 2.730123 2.5463197
000080 d7 32 1b 40 61 ce 33 40 71 16 3a 40 64 ef 3a 40
       2.424978 2.8094714 2.9076197 2.9208612
000090 d0 2a f2 3f 83 ab ea 3f 41 e9 40 40 2e bd 1c 40
       1.8919315 1.8333591 3.0142367 2.4490466
0000a0 d8 f2 23 40 c2 9e 0b 40 b4 f3 38 40 e4 a9 1e 40
       2.561697 2.1815648 2.8898745 2.4791193
0000b0 a8 1f f7 3f 2c 24 2f 40 d5 73 3a 40 03 2b 3e 40
       1.9306536 2.7365828 2.9133198 2.9713752
0000c0 8b ec 3c 40 9b 11 2e 40 42 7b 4e 40 e3 bf 1f 40
       2.9519374 2.7198246 3.226273 2.4960868
0000d0 f3 cb 02 40 48 c0 fb 3f d0 83 1b 40 46 13 24 40
       2.043698 1.9668055 2.4299202 2.5636764
0000e0 ab e5 11 40 47 40 ed 3f 25 cf 20 40 db 29 21 40
       2.2796428 1.8535241 2.512643 2.5181797
0000f0 58 69 1e 40 d8 d4 2b 40 bd 99 02 40 af ef 00 40
       2.4751797 2.684866 2.0406334 2.0146291

net.8.bias f4 [64]
000000 08 a9 14 bf 95 3e 0a 3f e9 14 14 3f 27 42 0a bf
       -0.5807042 0.5400174 0.57844406 -0.5400719
000010 fc be 0c bf 79 b5 f5 be 73 55 0e bf 1b fc 14 bf
       -0.5497892 -0.47990015 -0.55599135 -0.5819718
000020 78 bb 0d bf ac 82 1a 3f 17 53 12 bf 52 4b 10 bf
       -0.5536418 0.6035564 -0.57158035 -0.5636493
000030 da a4 07 3f f7 f1 24 3f 54 28 39 bf 71 64 10 bf
       0.5298592 0.6443171 -0.7232716 -0.5640326
000040 6f 8e 11 bf 43 74 58 be 90 13 0a 3f 83 12 20 bf
       -0.5685796 -0.211381 0.539361 -0.62528247
000050 0f 39 10 bf 08 d4 18 bf 09 44 10 bf 21 60 03 bf
       -0.56337065 -0.59698534 -0.56353813 -0.51318556
000060 87 0d 11 bf e6 f3 17 bf 86 66 0e 3f cf 86 18 bf
       -0.56661266 -0.59356534 0.5562519 -0.595807
000070 2a 9b 0c bf 9c 42 0a bf e6 82 0f 3f 08 29 13 bf
       -0.5492426 -0.5400789 0.5605911 -0.57484484
000080 b3 71 12 bf fa 76 0e 3f 8e 86 4a bf c9 c2 18 3f
       -0.5720474 0.55650294 -0.79111564 0.5967222
000090 43 ff 0e bf fa 32 1c bf 32 76 c4 3d a7 63 10 3f
       -0.5585825 -0.61015284 0.095928565 0.5640206
0000a0 dc 82 a4 3e 1d ff 10 bf f9 00 10 3f 5f fc 01 3f
       0.32131088 -0.5663927 0.56251484 0.5077571
0000b0 74 46 1a bf 76 a7 18 bf 5f 79 0c 3f 2e a9 1a 3f
       -0.6026375 -0.59630525 0.548727 0.604144
0000c0 e1 3e 09 3f 11 41 1a bf b4 c0 e4 3e c3 94 1d bf
       0.5361157 -0.60255533 0.4467827 -0.6155512
0000d0 bc 24 32 bf 0d 9b 1a bf 1d 25 15 3f e8 ce 2b bf
       -0.695873 -0.6039284 0.58259755 -0.6711259
0000e0 d3 f4 d2 be 86 f3 0d bf ea ff 05 bf c5 58 1d 3f
       -0.4120241 -0.5544971 -0.5234362 0.61463577
0000f0 da 32 28 3f 1c 4d 1c bf 94 a9 15 bf b1 08 10 bf
       0.65702593 -0.6105516 -0.5846188 -0.5626326
