game/model/models/q_net_500_200.pkl (torch, 4104 bytes, 8 tensors)

net.0.weight f4 [8, 8]
-0.27960646 -0.27133834 -0.08211908 -0.28791523 0.008846074 -0.3001077 -0.21309556 -0.2517097
-0.2650023 -0.3373732 -0.11194123 -0.14943995 -0.35316074 0.26716134 -0.30298615 -0.28265384
-0.19315968 -0.25411433 -0.2761644 -0.3128585 0.028363466 0.26630923 0.16106471 0.04404536
-0.039783806 -0.018822432 -0.0487926 -0.037759572 -0.12762503 0.1850625 -0.2861244 0.24400464
0.7655017 0.007344409 0.3394184 -0.24801938 -0.4008991 5.8910966 -3.106335 -1.6521827
-0.089663185 0.24189939 0.0543761 1.1649259 1.2810693 -11.619311 3.8220363 9.946831
0.08475315 -0.30890152 0.36585754 -0.50518584 -0.47575384 3.584854 -4.6480575 -2.7153122
0.59145397 0.037365187 0.048861142 -0.6033018 -0.26060778 2.6649733 -0.9708463 -3.0922804
00000000: 9428 8fbe dcec 8abe 0c2e a8bd a069 93be
00000010: 20ef 103c b7a7 99be b935 5abe 18e0 80be
00000020: 62ae 87be 2ebc acbe 7241 e5bd c906 19be
00000030: 7cd1 b4be 5fc9 883e 0021 9bbe 01b8 90be
00000040: a7cb 45be 461b 82be 6c65 8dbe fd2e a0be
00000050: 805a e83c af59 883e 26ee 243e e868 343d
00000060: 58f4 22bd 8031 9abc c0da 47bd c8a9 1abd
00000070: 23b0 02be 0681 3d3e e67e 92be 5adc 793e
00000080: ebf7 433f 5ea9 f03b 40c8 ad3e cbf8 7dbe
00000090: a642 cdbe dd83 bc40 31ce 46c0 b97a d3bf
000000a0: 55a1 b7bd 79b4 773e 79b9 5e3d 4b1c 953f
000000b0: 14fa a33f b3e8 39c1 3e9c 7440 3826 1f41
000000c0: 0f93 ad3d 5728 9ebe ae51 bb3e dc53 01bf
000000d0: 0296 f3be 3f6e 6540 e3bc 94c0 adc7 2dc0
000000e0: 8769 173f 3d0c 193d 9f22 483d fd71 1abf
000000f0: 626e 85be ec8e 2a40 6289 78bf ece7 45c0

net.0.bias f4 [8]
0.32053366 -0.16148151 0.07474309 -0.15572514 -0.09793738 1.5719866 -0.65686655 -0.44104394
00000000: fd1c a43e 695b 25be e812 993d 6976 1fbe
00000010: 6593 c8bd db36 c93f 6828 28bf 83d0 e1be

net.2.weight f4 [8, 8]
-0.11957903 -0.14170596 -0.038240463 -0.2351186 0.8070886 -0.35758418 -2.7634654 -1.600804
-0.1832099 0.09709069 -0.1348351 -0.22451663 -0.0039328635 -0.25084046 -0.19604787 -0.10572882
0.10980144 -0.14374806 0.1463199 0.29231212 0.05034202 0.018522799 -1.45971 0.224463
0.14323008 0.2103146 -0.1353763 0.3397706 0.8513148 -0.3337782 -1.0276896 -0.9149712
-0.08967462 0.122636706 -0.09387919 0.2794207 -0.20402499 -0.6900598 -1.0998577 0.50132555
-0.15240747 0.021389097 -0.12507579 -0.24766988 0.5667669 -0.33985648 -0.7554408 -0.5567529
-0.21249753 -0.1669826 -0.17274931 0.06850794 -0.59067047 0.3138953 0.57350993 0.69970465
0.11615625 0.09705916 -0.080883205 0.1140497 -0.13255952 1.305113 0.27479196 0.25630096
00000000: dae5 f4bd 5e1b 11be 08a2 1cbd eec2 70be
00000010: 5c9d 4e3f 4615 b7be 9edc 30c0 25e7 ccbf
00000020: 609b 3bbe 7cd7 c63d 3612 0abe b0e7 65be
00000030: 40df 80bb 296e 80be c6c0 48be 5a88 d8bd
00000040: 94df e03d b132 13be e2d4 153e efa9 953e
00000050: 6f33 4e3d 20bd 973c c7d7 babf a1d9 653e
00000060: e8aa 123e b65c 573e 16a0 0abe 69f6 ad3e
00000070: c4ef 593f fae4 aabe 558b 83bf 8d3b 6abf
00000080: 54a7 b7bd f428 fb3d bc43 c0bd 3b10 8f3e
00000090: edeb 50be c2a7 30bf 23c8 8cbf df56 003f
000000a0: b410 1cbe 3038 af3c de13 00be 2c9d 7dbe
000000b0: a317 113f ab01 aebe 9164 41bf 5c87 0ebf
000000c0: f498 59be 7dfd 2abe 32e5 30be e44d 8c3d
000000d0: 2e36 17bf e2b6 a03e 8cd1 123f d81f 333f
000000e0: 54e3 ed3d f4c6 c63d 18a6 a5bd e492 e93d
000000f0: afbd 07be f10d a73f 88b1 8c3e e139 833e

net.2.bias f4 [8]
1.2934961 -0.3471262 -0.6463733 -0.18215173 -1.8408222 0.7386038 0.7189877 2.1401207
00000000: 4891 a53f 86ba b1be b878 25bf fc85 3abe
00000010: 10a0 ebbf 2315 3d3f 940f 383f bdf7 0840

net.4.weight f4 [8, 8]
-1.1981658 -0.10539742 -0.3849093 1.9268318 -1.0067439 -1.5475197 2.0185997 -0.118028656
-5.503012 -0.35262814 -0.8874481 1.0351435 0.19489387 -0.3334885 0.41651767 1.0161823
0.94107485 -0.1805716 -0.3012054 -0.23639834 0.3272868 0.5706558 0.043528583 0.01058645
-10.087617 -0.3234213 -0.19289243 0.21769565 0.00451477 -0.12348661 -0.21582967 0.5458934
1.8440946 -0.1710942 -0.23894548 0.84531265 -0.33449838 -0.5420854 1.8714907 -0.15142804
-0.01753074 -0.030391663 0.057701975 -0.2406998 -0.31002215 -0.2997088 -0.14909393 -0.3048036
-1.1225194 0.20933631 1.111055 -2.7128782 -0.017015861 1.1216938 0.32544026 0.34735045
-4.5370393 0.23218575 0.718855 -1.7981696 -0.07263568 0.78138554 0.1587442 0.21317868
00000000: 7f5d 99bf 9ada d7bd d512 c5be 6da2 f63f
00000010: fcdc 80bf 2015 c6bf bd30 0140 02b9 f1bd
00000020: ad18 b0c0 ad8b b4be cc2f 63bf 957f 843f
00000030: 4292 473e 01bf aabe ce41 d53e 4312 823f
00000040: 48ea 703f c3e7 38be 9837 9abe 6812 72be
00000050: 2392 a73e 8016 123f 074b 323d ca72 2d3c
00000060: e166 21c1 7a97 a5be 9885 45be 9ceb 5e3e
00000070: a3f0 933b 8ce6 fcbd 7402 5dbe abbf 0b3f
00000080: 4b0b ec3f 5133 2fbe 20ae 74be 6966 583f
00000090: 5f43 abbe 1cc6 0abf 028d ef3f f40f 1bbe
000000a0: a09c 8fbc f0f7 f8bc e858 6c3d 027a 76be
000000b0: 39bb 9ebe 6f73 99be 14ac 18be 380f 9cbe
000000c0: b7ae 8fbf 425c 563e 0d37 8e3f cc9f 2dc0
000000d0: d964 8bbc aa93 8f3f 1ba0 a63e ebd7 b13e
000000e0: 6d2f 91c0 1ac2 6d3e e206 383f 6c2a e6bf
000000f0: 04c2 94bd e208 483f d78d 223e 834b 5a3e

net.4.bias f4 [8]
-5.328482 -3.0060956 3.6641912 4.4243603 4.024253 -0.34955764 -1.6176568 0.9977956
00000000: ed82 aac0 df63 40c0 1c82 6a40 5c94 8d40
00000010: aec6 8040 38f9 b2be 610f cfbf 886f 7f3f

net.6.weight f4 [3, 8]
-2.910003 -1.0153995 1.1891454 2.4987202 3.7700555 0.030076206 -1.9658784 2.6872818
-2.8472927 -0.9467307 1.1647831 2.3269582 3.7538483 -0.13577248 -3.5244415 5.1633863
-2.974311 -1.130242 1.3029536 2.7375388 3.665813 0.007360935 2.5020206 -4.385027
00000000: 7d3d 3ac0 9cf8 81bf eb35 983f 08eb 1f40
00000010: 9748 7140 6062 f63c e7a1 fbbf 6dfc 2b40
00000020: 0b3a 36c0 f15c 72bf 9d17 953f e2ec 1440
00000030: 0d3f 7040 f107 0bbe 7390 61c0 763a a540
00000040: 1d5b 3ec0 c5ab 90bf 2fc7 a63f d633 2f40
00000050: ae9c 6a40 0034 f13b 1b21 2040 2452 8cc0

net.6.bias f4 [3]
3.3502018 6.4976172 1.3198627
00000000: b569 5640 7bec cf40 43f1 a83f
