game/model/models/q_net_450_50000_128_64_normalized-nonDueling-finalfinalRewardLogic_EPOCH_300.pkl (torch, 114374 bytes, 14 tensors)

net.0.weight f4 [128, 8]
0	0xbe90356c	-0.28165758
1	0xbdcddbcf	-0.10051691
2	0xbe4b364b	-0.1984493
3	0x3e4aaa83	0.19791608
4	0xbe76dcc2	-0.2410765
5	0xbd98e6c5	-0.07465891
6	0x3e9fb47e	0.31192392
7	0x3e35e6fa	0.17763892
8	0xbe793336	-0.24335942
9	0x3d3261a0	0.043550134
10	0xbea84b8c	-0.32870138
11	0xbc349cbc	-0.0110236965
12	0xbe87cd2d	-0.26523724
13	0x3e9c01b8	0.3047006
14	0x3e19e839	0.15029992
15	0x3d9e84fd	0.07740209
16	0x3de631e4	0.11239985
17	0xbeab02c7	-0.33400556
18	0x3e9bc847	0.30426237
19	0x3e609e94	0.21935493
20	0x3dc46def	0.09591281
21	0x3d419c60	0.04726827
22	0x3da93413	0.082618855
23	0xbda62eff	-0.081144325
24	0x3e00e126	0.12585887
25	0xbebe4734	-0.371637
26	0x3e184788	0.14871037
27	0xbe4a3a2f	-0.19748758
28	0xbeaeabd4	-0.3411547
29	0xbe26abc7	-0.16276465
30	0x3e965d6c	0.2936815
31	0x3e37562f	0.1790397
32	0x3e9b163e	0.30290407
33	0xbc2d85a1	-0.010590942
34	0x3e76c384	0.24098021
35	0xbe8076cf	-0.25090644
36	0xbde4ec04	-0.11177829
37	0x3e0e0452	0.13868836
38	0x3e80dbe0	0.2516775
39	0x3e51562f	0.20443033
40	0xbe365cb0	-0.17808795
41	0xbe60c22d	-0.21949072
42	0x3e046d2a	0.12932268
43	0x3e9d33f8	0.30703712
44	0xbcaa2104	-0.020767696
45	0xbd348454	-0.04407151
46	0x3e938098	0.28809047
47	0x3e9981f2	0.29981953
48	0x3ecc083a	0.39850026
49	0x3c56bf61	0.013107152
50	0xbe730680	-0.23732948
51	0x3df606fa	0.120130494
52	0xbe9656cb	-0.29363093
53	0x3e64dfc8	0.22350991
54	0x3ea22af6	0.31673402
55	0xbeadbd37	-0.33933422
56	0xbe3c0971	-0.18362977
57	0x3eaf1e88	0.3420298
58	0x3e656399	0.22401275
59	0x3c097507	0.008389718
60	0x3d356141	0.0442822
61	0xbdd71832	-0.10502662
62	0xbe18d021	-0.14923145
63	0x3eb3e5a6	0.35136145
64	0x3e457781	0.19283868
65	0xbe32ec11	-0.17472865
66	0xbd8ab02a	-0.06771882
67	0x3db910f3	0.09036436
68	0xbeb0b7c2	-0.34515196
69	0x3c905c0d	0.017622018
70	0xbe606bc0	-0.21916103
71	0xbe033fa0	-0.1281724
72	0x3e2cd581	0.1687832
73	0x3deafa9f	0.114735834
74	0xbe0e075d	-0.13869996
75	0x3de444dc	0.111459464
76	0xbe2de66f	-0.16982435
77	0x3e0f1879	0.1397418
78	0xbe2ea941	-0.17056753
79	0x3e9763e8	0.2956841
80	0x3eb10013	0.3457037
81	0xbe3c054f	-0.183614
82	0x3e9e1ab2	0.30879742
83	0xbe432e5b	-0.19060652
84	0x3e8568e5	0.2605659
85	0xbd1af4c3	-0.03783108
86	0xbe719ac5	-0.23594196
87	0x3e2eeea6	0.17083225
88	0x3e9f739c	0.3114289
89	0xbe925b9a	-0.2858551
90	0xbe5a51dc	-0.2132029
91	0x3ea398f3	0.31952628
92	0xbe5d0ba7	-0.21586476
93	0x3d3284b6	0.043583594
94	0xbddd8c3a	-0.10817762
95	0xbf00546f	-0.50128835
96	0x3eb0e670	0.3455081
97	0xbe8e0d7d	-0.27744666
98	0x3e8ae56e	0.27128166
99	0x3e91fc52	0.28512818
100	0xbe97ac8b	-0.29623827
101	0x3e00025e	0.12500903
102	0x3d7ac138	0.061219424
103	0xbe89e55c	-0.269328
104	0x3e2c0891	0.16800143
105	0xbe81d28e	-0.25355953
106	0xbd1a755e	-0.037709586
107	0x3e61d91b	0.22055475
108	0x3e9922d7	0.29909393
109	0xbe994622	-0.2993632
110	0x3dc7f3b4	0.097632796
111	0xbdac7d34	-0.08422318
112	0xbdeae22c	-0.1146892
113	0xbe0a0be5	-0.134811
114	0xbeafc8d5	-0.3433291
115	0xbe775758	-0.24154413
116	0xbd344dad	-0.04401939
117	0xbe085944	-0.13315302
118	0xbe422b35	-0.18961795
119	0xbe8a5e11	-0.27024892
120	0xbd183d90	-0.037168086
121	0x3e1372f9	0.14399327
122	0x3d254beb	0.040355604
123	0xbe725183	-0.23663907
124	0xbe7dc6f0	-0.2478292
125	0xbe1ea820	-0.15493822
126	0x3e711074	0.23541433
127	0x3eaaa71a	0.33330613
128	0xbe8111ee	-0.25208992
129	0x3ea52245	0.32252708
130	0xbdd27a87	-0.102772765
131	0xbde90235	-0.11377374
132	0x3e9c4dea	0.30528194
133	0x3e88023f	0.26564214
134	0x3e8b0c35	0.2715775
135	0xbe04a7ff	-0.1295471
136	0x3e004626	0.1252676
137	0xbe928abc	-0.2862147
138	0xbe8f9dce	-0.28050083
139	0x3e9da00f	0.30786178
140	0xbea4ce0b	-0.32188448
141	0xbe8d5422	-0.2760325
142	0x3e1ff660	0.15621328
143	0x3e6c71c3	0.23090272
144	0x3d54bb55	0.051936466
145	0xbe9a669f	-0.3015642
146	0xbeab7122	-0.3348475
147	0x3e1c4357	0.15260063
148	0x3cfeec36	0.031118494
149	0xbe833276	-0.25624436
150	0x3e110734	0.14162904
151	0x3dcf892d	0.10133586
152	0x3ebbaa35	0.36653295
153	0x3e9fffbd	0.312498
154	0xbe2b00d0	-0.16699529
155	0xbea8d46c	-0.32974565
156	0x3de19151	0.11014045
157	0xbdd78f5b	-0.1052539
158	0x3e849f44	0.2590276
159	0xbe18c161	-0.14917518
160	0xbdb77040	-0.08956957
161	0xbe917b37	-0.28414318
162	0xbeb63cb6	-0.35593194
163	0xbcb51a98	-0.022107407
164	0x3a302c14	0.00067204353
165	0x3eab837e	0.33498758
166	0x3e319dc0	0.17345333
167	0xbe86bd77	-0.26316425
168	0xbe7471aa	-0.23871484
169	0xbea310ac	-0.31848657
170	0xbe9a1a1d	-0.30098048
171	0xbd5e1391	-0.05421788
172	0x3e2d843f	0.16944979
173	0x3d614872	0.05500073
174	0x3dcbee51	0.099575646
175	0x3ea64f5f	0.3248243
176	0xc017b3b4	-2.3703432
177	0xba46b2c1	-0.0007579737
178	0xbddd402e	-0.10803257
179	0xbea7e74c	-0.32793653
180	0xbe8af749	-0.2714179
181	0xbeb0c1ec	-0.3452295
182	0xbe6c319b	-0.23065798
183	0x3eb8cd30	0.36094046
184	0x3e3812db	0.17975943
185	0xbe6cc289	-0.23121084
186	0x3e44535a	0.19172421
187	0x3e201bee	0.15635654
188	0x3e43dc04	0.19126898
189	0x3d865d5c	0.06560776
190	0xbe47c232	-0.19507673
191	0xbe9b5ebd	-0.30345717
192	0xbf315595	-0.6927121
193	0xbe535833	-0.20639114
194	0x3ec10d5e	0.3770551
195	0x3c672d04	0.014109854
196	0xbdcacaba	-0.09901948
197	0x3e9f9d1b	0.3117455
198	0xbc03dda1	-0.008048446
199	0xbe3bd7cd	-0.1834404
200	0x3e1e6e86	0.15471849
201	0x3d9e97c6	0.07743792
202	0x3e246c87	0.16057025
203	0xbe2f502b	-0.17120425
204	0x3eaaaa20	0.3333292
205	0x3d9bf0ec	0.076143116
206	0xbdeb5896	-0.11491506
207	0x3c3b453f	0.011430084
208	0x3d751eba	0.059843756
209	0x3e99e31c	0.30056083
210	0xbe1e9fc7	-0.15490638
211	0xbda1ec5e	-0.079064116
212	0xbe200c40	-0.15629673
213	0x3e13bdc3	0.14427857
214	0x3c8b3ebd	0.01699769
215	0x3e724026	0.23657283
216	0xbd1f63e8	-0.038913637
217	0xbe1b2074	-0.15149099
218	0x3d8496ce	0.06474076
219	0xbe74b773	-0.23898105
220	0xbd57758e	-0.052602343
221	0xbaf1e6ff	-0.0018455683
222	0x3c99fc52	0.018797074
223	0xbe13098f	-0.14359115
224	0x3d7bee36	0.061506473
225	0x3ee2b27e	0.44276804
226	0x3e8ea769	0.278621
227	0x3e333fcf	0.1750481
228	0xbdaf816e	-0.08569609
229	0xbe969ec4	-0.29418004
230	0xbddb9640	-0.10722017
231	0xbe906d1c	-0.28208244
232	0x3e23b982	0.15988734
233	0xbd697545	-0.056996603
234	0x3e0ff471	0.14058091
235	0x3e3142cc	0.17310637
236	0xbe8efc84	-0.2792703
237	0xbeb1f96f	-0.34760615
238	0xbeb29deb	-0.34886107
239	0x3dee3bd1	0.11632503
240	0xbed81f82	-0.4221154
241	0x3dcb83dc	0.099372596
242	0x3e8c0ccd	0.27353516
243	0x3e24d143	0.16095452
244	0xbd485bbb	-0.048915606
245	0x3e87e960	0.26545238
246	0xbeae05a0	-0.33988667
247	0xbe0d2f4f	-0.13787578
248	0xbfbd7091	-1.4799978
249	0x3dc6bdb2	0.0970415
250	0xbdac1032	-0.084015265
251	0xbd82e191	-0.0639068
252	0x3d4ee40c	0.05051045
253	0xbe1ff688	-0.15621388
254	0x3e4ecbbe	0.20194909
255	0xbea63b39	-0.32467058

net.0.bias f4 [128]
0	0x3e65c8cb	0.22439878
1	0xbdc7f40f	-0.09763347
2	0x3e27d7ad	0.16390868
3	0x3e97aff8	0.2962644
4	0xbdccfed4	-0.10009542
5	0x3af154ea	0.0018412147
6	0xbda9d4b6	-0.082925245
7	0xbe839aad	-0.25703946
8	0xbeb362ae	-0.35036224
9	0xbe24041d	-0.16017194
10	0x3da7e643	0.08198216
11	0x3e9c185c	0.30487335
12	0xbceed770	-0.029155463
13	0xbeac053a	-0.33597738
14	0xbe4341c9	-0.19068064
15	0x3e111bb2	0.14170721
16	0xbd4babcf	-0.049724396
17	0x3e9f2206	0.31080645
18	0xbe18962e	-0.14901039
19	0xbe62cb77	-0.22147928
20	0x3d35bf85	0.0443721
21	0x3cb09d92	0.02155951
22	0xbe8a55de	-0.27018636
23	0xbdb9b692	-0.09068026
24	0xbe9a39b5	-0.30122152
25	0x3e68cac8	0.22733605
26	0x3d7f0514	0.062260702
27	0xbe61985c	-0.22030777
28	0xbd5f0a0e	-0.05445295
29	0x3e2baf0c	0.16765994
30	0xbe5313cb	-0.20613019
31	0xbe54f7a6	-0.20797595
32	0x3ea0f1d0	0.31434488
33	0x3ce0cbea	0.027440984
34	0x3db82281	0.08990956
35	0xbe835fc8	-0.25659013
36	0x3e7fe5e5	0.24990042
37	0xbc969eed	-0.018386329
38	0x3eaa8361	0.3330336
39	0xbe47cf0d	-0.19512577
40	0x3e53a356	0.20667776
41	0x3e821993	0.25410137
42	0xbe3133ef	-0.17304967
43	0x3de7f3a6	0.11325769
44	0xbd284680	-0.04108286
45	0x3ddc588f	0.10759079
46	0xbe09eaa9	-0.13468422
47	0xbeaf4909	-0.3423541
48	0x3e5e3430	0.21699595
49	0x3e433a1d	0.19065137
50	0xbe73a235	-0.23792346
51	0x3e9f1052	0.3106714
52	0xbe0e4874	-0.13894826
53	0xbcf1c9d6	-0.029515188
54	0xbcf5d1e1	-0.030007305
55	0xbe3cdac4	-0.18442827
56	0x3e01a0f1	0.1265905
57	0xbcb8a6a1	-0.022540392
58	0xbe41f013	-0.18939237
59	0x3e1e29ec	0.1544568
60	0x3dbcb683	0.09214499
61	0x3e89ee36	0.26939553
62	0x3ea8b398	0.3294952
63	0xbe8d72d5	-0.27626672
64	0x3e827883	0.25482568
65	0xbeb19863	-0.34686574
66	0xbe0a190f	-0.13486122
67	0x3d4ffad3	0.050776314
68	0x3e8f0571	0.2793384
69	0x3e53e064	0.20691067
70	0xbe706797	-0.23477016
71	0x3dd66a0a	0.10469444
72	0xbeadfe16	-0.33982915
73	0xbe79fe14	-0.2441333
74	0xbc438f64	-0.011936042
75	0x3c4af28d	0.01238693
76	0x3e334028	0.17504942
77	0xbd834608	-0.06409842
78	0x3d2aca41	0.04169679
79	0x3e42788f	0.18991302
80	0x3d0c3387	0.034228828
81	0xbd8ffc8a	-0.0703059
82	0x3e5ff91c	0.21872371
83	0x3db0fe7a	0.086422876
84	0xbe927f20	-0.28612614
85	0xbe87c60c	-0.26518285
86	0x3d9983aa	0.07495816
87	0xbd86f0c8	-0.06588894
88	0x3e9aa4dc	0.30203903
89	0xbdd20033	-0.10253944
90	0x3e96a6c6	0.29424113
91	0xbe78ad30	-0.24284816
92	0x3e1affe1	0.15136673
93	0x3d722361	0.05911577
94	0xbe23fae5	-0.16013677
95	0xbe5c7395	-0.21528466
96	0x3dd89f9f	0.1057732
97	0xbea13031	-0.3148208
98	0x3ea628cc	0.32453
99	0x3db78116	0.08960168
100	0xbe3a44a2	-0.18190244
101	0x3e889a7f	0.2668037
102	0xbe827ad1	-0.25484326
103	0xbd80fbb6	-0.0629801
104	0x3e8af32a	0.27138644
105	0x3e14bb6f	0.14524625
106	0xbd1fc92b	-0.039010208
107	0xbe482bdd	-0.19547983
108	0xbe94b1b8	-0.2904184
109	0x3e629565	0.22127302
110	0xbeabcaff	-0.3355331
111	0xbe29db3c	-0.16587538
112	0xbc8415b6	-0.016123634
113	0xbd8b6f70	-0.068083644
114	0xbdc5b1d7	-0.09653061
115	0xbe0515a4	-0.12996536
116	0x3e10d608	0.14144146
117	0xbe8b5d73	-0.27219734
118	0x3e56268c	0.20913142
119	0xbdcf7d5b	-0.101313315
120	0x3d4eb631	0.05046672
121	0xbeb491e8	-0.35267568
122	0x3e3e05e9	0.18556942
123	0xbcd9d0fa	-0.026588906
124	0xbe9ea761	-0.30987075
125	0xbd8c3b61	-0.06847263
126	0x3cca3435	0.024683097
127	0xbdca4d84	-0.09878066

net.2.weight f4 [128]
0	0x3f802969	1.0012637
1	0x3f800fe8	1.0004854
2	0x3f849d0f	1.036043
3	0x3f7e086c	0.992316
4	0x3f80af61	1.0053521
5	0x3f7c6836	0.98596513
6	0x3f828399	1.019641
7	0x3f803330	1.0015621
8	0x3f7fbabc	0.9989431
9	0x3f7d5e88	0.9897237
10	0x3f7de337	0.9917483
11	0x3f7de023	0.9917013
12	0x3f829019	1.0200225
13	0x3f7b5bdf	0.9818706
14	0x3f7dbfde	0.9912089
15	0x3f7d435d	0.98930913
16	0x3f809f9a	1.0048707
17	0x3f7e5ebc	0.99363303
18	0x3f8145f5	1.0099474
19	0x3f80375c	1.0016894
20	0x3f7bdcde	0.9838389
21	0x3f83791d	1.0271336
22	0x3f822631	1.0167905
23	0x3f8012a4	1.0005689
24	0x3f84e62b	1.0382742
25	0x3f7e7e52	0.994115
26	0x3f80fd0a	1.0077221
27	0x3f7cac4b	0.987004
28	0x3f822986	1.0168922
29	0x3f7c5956	0.98573816
30	0x3f816ba1	1.0110971
31	0x3f7e8e66	0.9943603
32	0x3f7f93db	0.99834985
33	0x3f7d961f	0.9905719
34	0x3f7d1fcb	0.9887664
35	0x3f806e82	1.0033724
36	0x3f804ec7	1.0024041
37	0x3f7ea8ce	0.99476326
38	0x3f7d2000	0.98876953
39	0x3f7e6930	0.99379253
40	0x3f7c7dc5	0.9862941
41	0x3f7e53c7	0.99346584
42	0x3f800588	1.0001688
43	0x3f8084cf	1.004053
44	0x3f81bbe1	1.0135461
45	0x3f82068f	1.0158252
46	0x3f82fd1c	1.0233493
47	0x3f7f5cd6	0.9975103
48	0x3f7b3616	0.98129404
49	0x3f7c582d	0.98572046
50	0x3f7fd8c1	0.99940115
51	0x3f7e412e	0.99318206
52	0x3f83dd26	1.0301864
53	0x3f7f98f6	0.99842775
54	0x3f81aace	1.013025
55	0x3f80e273	1.0069107
56	0x3f825652	1.0182593
57	0x3f7e54cf	0.9934816
58	0x3f849d5f	1.0360526
59	0x3f8996ca	1.0749142
60	0x3f8200ae	1.0156457
61	0x3f7dab16	0.9908918
62	0x3f82d81c	1.0222201
63	0x3f7cbdb0	0.9872694
64	0x3f7d82aa	0.990275
65	0x3f7ee7e1	0.9957257
66	0x3f7fef8e	0.99974906
67	0x3f7c9257	0.98660797
68	0x3f7dad18	0.99092245
69	0x3f7d14c7	0.9885983
70	0x3f7d0175	0.9883035
71	0x3f81fd7f	1.0155486
72	0x3f7e2723	0.9927847
73	0x3f8047d0	1.0021915
74	0x3f7dcb6f	0.9913854
75	0x3f800ae6	1.0003326
76	0x3f80c4d3	1.0060066
77	0x3f7e557a	0.99349177
78	0x3f805ef7	1.0028981
79	0x3f808573	1.0040725
80	0x3f842694	1.0324273
81	0x3f850258	1.039134
82	0x3f888344	1.0665059
83	0x3f7fc27f	0.9990615
84	0x3f805d73	1.0028518
85	0x3f7a8eb6	0.9787401
86	0x3f7ec0e5	0.99513084
87	0x3f80a933	1.0051636
88	0x3f7d117d	0.9885481
89	0x3f7d8622	0.99032795
90	0x3f7f33ad	0.99688226
91	0x3f80a7b6	1.0051181
92	0x3f804841	1.002205
93	0x3f7ce7d4	0.9879124
94	0x3f7f1b10	0.9965067
95	0x3f7d8e94	0.9904568
96	0x3f847fdd	1.0351521
97	0x3f7c8ea8	0.98655176
98	0x3f7aa19c	0.97902846
99	0x3f7e2f99	0.9929138
100	0x3f7fc568	0.99910593
101	0x3f83aea6	1.0287673
102	0x3f7fe97b	0.9996564
103	0x3f82c08b	1.021501
104	0x3f7f180c	0.9964607
105	0x3f7fb566	0.9988617
106	0x3f7e0f38	0.9924197
107	0x3f7e6d21	0.9938527
108	0x3f7c50c6	0.9856075
109	0x3f8047d9	1.0021926
110	0x3f7ebf2c	0.99510455
111	0x3f7e43c4	0.9932215
112	0x3f7cec67	0.9879822
113	0x3f7efeed	0.99607736
114	0x3f80a5bc	1.0050578
115	0x3f7f16dc	0.99644256
116	0x3f7c9855	0.9866994
117	0x3f7eed48	0.9958081
118	0x3f7e6e0f	0.99386686
119	0x3f80aa67	1.0052003
120	0x3f7fcdea	0.99923575
121	0x3f7d933a	0.99052775
122	0x3f7f9c3b	0.99847764
123	0x3f815186	1.0103004
124	0x3f823724	1.0173078
125	0x3f7c9a30	0.9867277
126	0x3f7e777c	0.9940107
127	0x3f81ea7c	1.0149684

net.2.bias f4 [128]
0	0x3b2f94fe	0.0026791687
1	0x3acff45b	0.001586567
2	0x3a5fcafc	0.0008537022
3	0xbc1b56de	-0.00948116
4	0xbc045863	-0.008077714
5	0x3947c5ad	0.00019051759
6	0x3b651568	0.0034955386
7	0x3b887b97	0.0041651237
8	0x3b20e724	0.0024551833
9	0x3c2dfcae	0.010619326
10	0xbb862f38	-0.0040949844
11	0x3c2acd69	0.01042495
12	0xb8669fa2	-5.4984943e-05
13	0x3c983b3a	0.018582929
14	0x3c0ec3f4	0.008713711
15	0xbaceba2c	-0.0015772036
16	0x3bdc2b65	0.00671904
17	0xbaeaea84	-0.0017922674
18	0xbc252da1	-0.01008168
19	0x3ba5722e	0.0050490117
20	0x3c21efd6	0.0098838415
21	0xbba4252e	-0.005009315
22	0xbb0c81df	-0.0021439714
23	0x3ba80d28	0.0051285215
24	0x3a422d5e	0.0007407273
25	0xbc2a78be	-0.010404764
26	0x3ba7cf8c	0.005121177
27	0x3c51ac6a	0.012797454
28	0x3bd16cff	0.006391167
29	0x3a9426ab	0.0011303028
30	0xbb86a504	-0.004109027
31	0x3c8ee2e5	0.017442176
32	0xbbfc9d1b	-0.007709158
33	0x3bdf40cb	0.006813144
34	0xbc04c183	-0.008102777
35	0x3b5d3120	0.0033751205
36	0xbc4ba880	-0.01243031
37	0xbb7ac9f7	-0.0038267353
38	0xbabd3c14	-0.001443746
39	0x3c174653	0.009233075
40	0xbc11d1e5	-0.00890014
41	0xbb0e236a	-0.002168859
42	0x3b39967b	0.0028318453
43	0x3a63fef4	0.0008697354
44	0xbc0b655e	-0.008508055
45	0xbb510aed	-0.0031897381
46	0x3ba46272	0.0050166184
47	0x3b2dea48	0.0026537348
48	0xbc5166bd	-0.012780842
49	0xbc0a7c4e	-0.008452488
50	0x3aaea6b9	0.0013324834
51	0xbc11a3c1	-0.00888914
52	0x3be66017	0.007030498
53	0x3b316e89	0.002707394
54	0x3b8d186a	0.004305889
55	0xbafdfb7e	-0.0019377319
56	0x3b784215	0.0037881185
57	0xb97fe352	-0.00024403378
58	0x3bcc62e1	0.006237373
59	0x3b8395fe	0.004015683
60	0x39c07d7c	0.00036714587
61	0x3ae691f7	0.0017591108
62	0x3b11e158	0.002225956
63	0x3c5cc7fa	0.0134754125
64	0xbba110fb	-0.0049153543
65	0x3bf4c29a	0.0074694874
66	0x3ba35da6	0.004985529
67	0xbc62c57e	-0.013841031
68	0x3b7190ba	0.0036859945
69	0x3a45ad4b	0.0007540776
70	0x3c398e8e	0.011325492
71	0x3b514008	0.0031929035
72	0x3c0405ea	0.008058051
73	0xba939730	-0.0011260267
74	0xbc358756	-0.01107963
75	0xb907ba02	-0.00012943897
76	0x3b662e82	0.0035122936
77	0x3c83c8c9	0.016086953
78	0x3c030174	0.007995952
79	0xb9cc619c	-0.00038982637
80	0x3ba30df9	0.004976031
81	0x3a948cfa	0.0011333518
82	0x3b8776f5	0.004134054
83	0xbb1b4d93	-0.002369736
84	0xbb1efd14	-0.0024259733
85	0x3ca2d441	0.019876601
86	0xbba94a61	-0.0051663374
87	0x3bc2d5bc	0.0059458893
88	0xbb2f217c	-0.002672284
89	0x3c12587f	0.008932232
90	0xbbdf3336	-0.0068115247
91	0x3c3d6d3b	0.011561687
92	0x3c042fe8	0.008068062
93	0x3b231a7c	0.0024887612
94	0xb94e3897	-0.00019666772
95	0x3c15ccbc	0.009143051
96	0x3c0af9b5	0.008482386
97	0x3c4eb4b5	0.012616326
98	0xbc8ef08d	-0.017448688
99	0x3c3573e7	0.011074997
100	0x3c006ec9	0.007838913
101	0xbc223740	-0.009900868
102	0x3a3223c6	0.0006795492
103	0xbc569a7e	-0.013098357
104	0x3ba75697	0.005106758
105	0x3bcc3ce1	0.0062328433
106	0xbc1d78f1	-0.009611354
107	0x3baeb9be	0.005332201
108	0x3c8777a6	0.016536545
109	0x3b336343	0.0027372397
110	0x3b8963e0	0.004192814
111	0x3bd3f857	0.0064688134
112	0xbb1c5fcb	-0.0023860808
113	0x3c1c9162	0.009556146
114	0xbb9a272c	-0.0047043767
115	0x3b0c6ee8	0.002142841
116	0xbb3d1031	-0.0028848762
117	0x3b44a8ee	0.0030007917
118	0x3914945e	0.00014169651
119	0x3c0e77d3	0.0086955605
120	0x3a5a3b55	0.0008324881
121	0x3c1db896	0.009626528
122	0xbbe21e48	-0.0069005825
123	0xbc34e455	-0.011040767
124	0x3ab52331	0.0013819692
125	0x3cae0255	0.021241346
126	0x3c0ee434	0.0087214
127	0xbb3ad935	-0.0028510813

net.3.weight f4 [128, 128]
0	0xbc9edf3d	-0.019393558
1	0xbd24d897	-0.04024562
2	0x3cce552a	0.025187094
3	0x3d432a56	0.047647797
4	0x3dbe588f	0.09294235
5	0xbda68d22	-0.08132388
6	0x3c37d067	0.011219121
7	0x3d227024	0.039657727
8	0x3d9dd963	0.07707479
9	0xbda0030c	-0.07813081
10	0xbd80ea31	-0.062946685
11	0x3d9d03b9	0.07666726
12	0x3d4dfe51	0.050291363
13	0xbce9cb77	-0.028539402
14	0x3db0ec27	0.086387925
15	0x3d3e9a28	0.046533734
16	0x3b8796e0	0.0041378587
17	0xbcf2e3a2	-0.02964956
18	0xbcf772ce	-0.03020611
19	0x3cdb58d6	0.026775759
20	0x3dc662c8	0.0968681
21	0xbcd6d68e	-0.026225355
22	0x3d849dbd	0.06475399
23	0xbceec82c	-0.029148184
24	0xbc4a61c5	-0.012352412
25	0x3d7ad0ae	0.06123417
26	0xbdc41617	-0.09574526
27	0x3aa96a6a	0.0012925391
28	0xbca6170b	-0.02027466
29	0x3cf0248a	0.029314298
30	0x3cb6bdb0	0.022307247
31	0x3d9f90e6	0.07791309
32	0x3d0196b6	0.03163787
33	0xbd91c060	-0.07116771
34	0xbaa6a061	-0.0012712592
35	0x3dbac549	0.091196604
36	0xbd3cbba7	-0.046077397
37	0x3db47b31	0.088125594
38	0xbca17f73	-0.019714093
39	0xbd3b6dc5	-0.04575898
40	0x3ce9755d	0.028498346
41	0xbd8fad39	-0.070154615
42	0xbd4a349a	-0.04936657
43	0xbcbaf8db	-0.022823742
44	0x3db39a0a	0.08769615
45	0x3dab4311	0.08362401
46	0xbd8415fd	-0.064495064
47	0x3daa8559	0.08326215
48	0x3d276924	0.040871754
49	0xbcd856be	-0.02640855
50	0xbc83a027	-0.016067578
51	0x3ce7d748	0.028300896
52	0xbd2e85ff	-0.042608257
53	0x3cf07fc7	0.029357804
54	0x3bcd779a	0.006270361
55	0x3d0c0688	0.034185916
56	0xbd3243bc	-0.043521628
57	0xbd05144f	-0.03249007
58	0x3cd70256	0.026246231
59	0x3d1eea13	0.03879745
60	0x3d2eca49	0.042673383
61	0xbd82f81a	-0.06394978
62	0xbdea6c60	-0.11446452
63	0x3c5edb85	0.013602142
64	0x3da95310	0.08267796
65	0xbb4214ef	-0.0029614528
66	0x3d2f71dc	0.042833194
67	0xbd135e22	-0.035978444
68	0x3befa232	0.0073130364
69	0xbc8dd16a	-0.01731177
70	0xbc213c04	-0.009840969
71	0xbd86db40	-0.06584787
72	0xbd8a1d72	-0.067438975
73	0x3db20a50	0.08693373
74	0x3b2afccb	0.0026090618
75	0xbd69ecea	-0.057110704
76	0xbd895d0f	-0.06707203
77	0x3d503955	0.050835926
78	0xbd7d0d6b	-0.061780374
79	0x3d74cccb	0.05976562
80	0xbd70e0f8	-0.058808297
81	0x3daaa36a	0.0833195
82	0xbd08e376	-0.03342005
83	0xbdb0fb4d	-0.08641682
84	0xbd73970b	-0.059470218
85	0xbcac6044	-0.021041997
86	0x3bed79da	0.007247192
87	0xbca82c38	-0.020528898
88	0xbdb345e5	-0.08753566
89	0xbcaf014e	-0.021362927
90	0x3cc5b415	0.024133721
91	0xbdac1606	-0.08402638
92	0xbc37aab9	-0.011210137
93	0xbda1a8cd	-0.07893524
94	0x3c8fdf1d	0.017562443
95	0xb99cdca6	-0.00029919035
96	0x3da64417	0.08118456
97	0xbd9e7c9c	-0.07738611
98	0xbc60c187	-0.0137180155
99	0xbd4a3474	-0.04936643
100	0x3da36dfa	0.07979961
101	0x3d3df7e5	0.04637899
102	0xbd447f0f	-0.047972735
103	0xbd061bec	-0.032741472
104	0x3d3c59f6	0.04598423
105	0xbca84b17	-0.020543618
106	0x3d2571fb	0.040391903
107	0x3da96d18	0.08272761
108	0xbcbf4a28	-0.02335079
109	0xbd26f0ec	-0.040757105
110	0x3d81a30b	0.06329926
111	0x3d38fe41	0.04516435
112	0xbd0f8b4b	-0.03504495
113	0x3badea3b	0.0053074635
114	0xbd6d4a56	-0.05793222
115	0x3d9d002e	0.0766605
116	0xbbc42745	-0.0059861266
117	0x3d4a3fdf	0.04937732
118	0x3da23d3c	0.07921836
119	0xbcc9a870	-0.02461645
120	0xbd814315	-0.06311623
121	0xbd8aec34	-0.067833334
122	0x3d8038ab	0.062608086
123	0xbcbb851d	-0.022890622
124	0xbd526ff2	-0.05137629
125	0xbd21ccb8	-0.039501876
126	0x3c3add6e	0.011405332
127	0x3d94f6cd	0.07273636
128	0xbc3705f6	-0.011170855
129	0xbd628e06	-0.055311225
130	0x3d80b67c	0.06284806
131	0xbd479208	-0.04872325
132	0xbd73008d	-0.059326697
133	0x3cb454b4	0.022013046
134	0xbd412cad	-0.047161747
135	0x3d8794dc	0.066201895
136	0xbdb6db43	-0.089285396
137	0x3d82f91e	0.063951716
138	0x3c1a6906	0.009424454
139	0x3dc3e8a9	0.09565861
140	0x3c5365a1	0.012902648
141	0xbcff9611	-0.031199487
142	0xbd9c5e33	-0.076351546
143	0x3c553962	0.013014169
144	0xbd5eda86	-0.05440762
145	0xbd57673f	-0.052588698
146	0xbd31d90c	-0.043419883
147	0x3ccc3946	0.024929654
148	0xbc0c5461	-0.008565039
149	0xbd5f392f	-0.054497894
150	0xbda70dba	-0.08156915
151	0xbd288356	-0.041140877
152	0xbd1d6714	-0.03842838
153	0x3d1d6d49	0.0384343
154	0xbceece1b	-0.029151013
155	0xbca6cc75	-0.020361165
156	0xbd9cde79	-0.07659621
157	0x3d88b63d	0.06675384
158	0x3d8bcfeb	0.068267666
159	0xbda15ff9	-0.078796335
160	0xbc289006	-0.010288244
161	0xbcd40757	-0.025882406
162	0xbd823712	-0.0635816
163	0xbd6ca17f	-0.057771202
164	0x3d24071d	0.040045846
165	0x3d9b97fd	0.07597349
166	0xbdad159a	-0.08451386
167	0xbca704c0	-0.020388007
168	0xbd5ac2ea	-0.05340854
169	0x3d810237	0.062992506
170	0x3cc54bc5	0.024083981
171	0xbd4ae43f	-0.04953408
172	0x3db20fc5	0.08694414
173	0xbd869ecd	-0.065732576
174	0xbd17d9d0	-0.037072957
175	0x3d95739f	0.072974436
176	0x3c57958f	0.013158216
177	0xbd68e2db	-0.05685697
178	0x3ccdf3df	0.0251407
179	0x3d3cab75	0.04606195
180	0xb9e03170	-0.00042761443
181	0x3d5112b2	0.05104322
182	0x3c480e97	0.01221051
183	0x3d302a30	0.043008983
184	0x3c6d4f4b	0.014484237
185	0xbbcee535	-0.0063139447
186	0x3d25658f	0.040380057
187	0xbd5f5057	-0.054519977
188	0x3d9b45a1	0.0758164
189	0x3da6b46d	0.08139882
190	0xbd8db452	-0.06919159
191	0xbcb99fc1	-0.022659184
192	0x3d60e6c2	0.054907568
193	0x3d0fe3ed	0.035129476
194	0x3cfc214a	0.030777592
195	0xbc56e4fb	-0.013116117
196	0xbdbb206f	-0.091370456
197	0x3ca922ab	0.020646414
198	0xbd0a6567	-0.03378811
199	0xbd922196	-0.07135312
200	0x3c60aab5	0.013712575
201	0x3bc5112e	0.006014011
202	0xbd0f561c	-0.03499423
203	0xbd3af82f	-0.045646843
204	0x3d3de6d6	0.04636272
205	0x3d0ab51b	0.033864122
206	0xbb5ec4ef	-0.0033991893
207	0x3c5c5388	0.01344765
208	0xbd69ed67	-0.05711117
209	0x3ce94c98	0.028478906
210	0xbdc93604	-0.09824756
211	0x3d8de30f	0.069280736
212	0x3cc6a686	0.024249326
213	0xbd999666	-0.07499389
214	0x3db23c9c	0.087029666
215	0xbd4af099	-0.049545858
216	0xbdadacd5	-0.08480231
217	0xbda2a1f2	-0.07941045
218	0x3d1e78fb	0.038689595
219	0xbd835a5c	-0.06413719
220	0x3d8c792e	0.06859051
221	0x3d9df0a8	0.07711917
222	0xbc8a778f	-0.016902713
223	0x3da68987	0.081317
224	0x3ca4ff4a	0.020141263
225	0x3d6a93e5	0.05726995
226	0xbd796ea6	-0.06089654
227	0xba8efc7b	-0.0010908985
228	0x3cf340a4	0.029693909
229	0xbc99c665	-0.01877136
230	0x3d5b5f69	0.053557787
231	0x3d982efc	0.074308366
232	0x3d9e7ffb	0.07739254
233	0xbc840b77	-0.016118748
234	0xbd88ebe5	-0.06685618
235	0x3d8e1a01	0.069385536
236	0xbd77ebbc	-0.06052755
237	0xbd1f1414	-0.038837507
238	0x3d456eba	0.0482013
239	0x3c74d10c	0.014942419
240	0xbda969e4	-0.0827215
241	0x3cd51a48	0.026013508
242	0x3d3a8ace	0.04554253
243	0x3c6af03b	0.014339502
244	0x3d9a2ed4	0.07528463
245	0x3c0651ed	0.008198244
246	0xbce8648c	-0.028368257
247	0x3d8bdfa4	0.068297654
248	0x3d9d8d35	0.07692949
249	0x3d64502c	0.05574052
250	0xbc8932b0	-0.016747802
251	0x3de669d6	0.11250655
252	0xbbdcfaa0	-0.006743744
253	0x3ce0cdd1	0.02744189
254	0xbd4aafab	-0.049483936
255	0x3c6d70b2	0.014492201

net.3.bias f4 [128]
0	0xb978ddfd	-0.0002373382
1	0x3d9f0941	0.07765437
2	0xbd28e090	-0.041229784
3	0xbda85b1c	-0.08220503
4	0xbda42669	-0.08015139
5	0xbcfde3ed	-0.030992473
6	0x3cc39b45	0.02387775
7	0xbd8db058	-0.069184005
8	0xbd12e352	-0.03586132
9	0xbcaad4b4	-0.020853378
10	0x3d1e8d4b	0.038708966
11	0x3d0e08eb	0.034676474
12	0xbcc66956	-0.02422015
13	0xbcaf3d9b	-0.02139168
14	0x3d3128ab	0.043251675
15	0xbd8b8ed4	-0.06814352
16	0xbdaaa2cf	-0.083318345
17	0x3c03d8e0	0.0080473125
18	0x3d900fe3	0.0703428
19	0xbd163b7a	-0.036677815
20	0x3c69fc42	0.014281334
21	0x3d8241d8	0.06360215
22	0xbd7ca499	-0.06168041
23	0x3c8d09c5	0.017216573
24	0x3bf17ea6	0.007369834
25	0xbc982e58	-0.018576786
26	0x3d12f1aa	0.035875
27	0x3c88790b	0.01665928
28	0x3c384152	0.011246042
29	0x3d027686	0.031851314
30	0xbd889b30	-0.06670225
31	0xbd96c3ab	-0.073615395
32	0x3ca02848	0.019550458
33	0xbd8c55c4	-0.06852296
34	0x3d97008d	0.07373152
35	0xbbbe94d7	-0.005816083
36	0xbd723fa8	-0.05914274
37	0x3d0562e6	0.03256502
38	0xbd62ba35	-0.055353362
39	0x3d2d3e54	0.04229577
40	0xbd1be0b1	-0.03805608
41	0xbd13f54f	-0.036122616
42	0xbc453f65	-0.01203904
43	0xbc81ccd3	-0.015844738
44	0xbd645d50	-0.055753052
45	0x3d9e0627	0.07716017
46	0x3d811f4c	0.063047975
47	0x3d2dbd5c	0.042416915
48	0xbd6c8b04	-0.057749763
49	0x3d1d828e	0.038454585
50	0xbc9369e7	-0.017994834
51	0x3d95e09c	0.073182315
52	0xbcd8bbbc	-0.026456706
53	0xbc6929f4	-0.014231194
54	0xbd3e1522	-0.046406873
55	0xbd8c1bd2	-0.06841244
56	0xbd972096	-0.07379262
57	0x3d5821a0	0.052766442
58	0xbd84d3f1	-0.06485737
59	0x3bab4cff	0.0052276845
60	0xbdd5977e	-0.104292855
61	0xbcc676e9	-0.024226623
62	0xbc13fb3a	-0.009032065
63	0xba59dd89	-0.00083109044
64	0xbda7abd8	-0.081870735
65	0x3cd38ce1	0.025824012
66	0x3d10e25e	0.03537213
67	0x3d859d3c	0.06524131
68	0x3d283b7c	0.041072354
69	0x3d957f31	0.072996505
70	0xbd213c58	-0.03936419
71	0x3ce240bf	0.027618764
72	0xbd34000b	-0.043945353
73	0x3d831979	0.06401343
74	0xbd19ef83	-0.03758193
75	0xbd877b0b	-0.066152655
76	0x3d7eb573	0.062184762
77	0xbb2c0f68	-0.00262543
78	0x3c0a4564	0.008439396
79	0xbc31f179	-0.010860794
80	0xbd5fc857	-0.05463442
81	0xbd8c09c0	-0.06837797
82	0x3d8d689c	0.06904718
83	0xbd0836b1	-0.033255283
84	0x3d676ae3	0.05649842
85	0xbce47ee5	-0.02789254
86	0x3c3342db	0.010941233
87	0xbda6995d	-0.081347205
88	0xbda9f884	-0.08299354
89	0x3d12b775	0.03581949
90	0xbc1f969d	-0.009740499
91	0xbb2712bd	-0.0025493347
92	0xbdb4513e	-0.08804558
93	0xbbc501e1	-0.006012187
94	0x3d59b520	0.05315125
95	0xbd6bcb0b	-0.057566684
96	0xbc8e74c9	-0.017389672
97	0x3d0bae19	0.03410158
98	0xbd94ab49	-0.072592326
99	0x3d8f0b1d	0.069845416
100	0xbd5cf354	-0.053942993
101	0xbd3b05e2	-0.045659907
102	0x3c682f6a	0.014171461
103	0xbc6c55e2	-0.014424773
104	0xbc84d241	-0.016213538
105	0xbcd0fdc2	-0.025511626
106	0xbd033ce8	-0.032040507
107	0x3d1f00f9	0.038819287
108	0xbd6a03ea	-0.05713264
109	0xbc535238	-0.01289802
110	0xbc81c468	-0.015840724
111	0xbd366891	-0.044533316
112	0x3d0cedcf	0.03440648
113	0x3c412358	0.011788212
114	0x3d6f0e75	0.058363397
115	0xbd896b87	-0.06709962
116	0xbc214eb5	-0.009845425
117	0xbd43b3a2	-0.047778733
118	0x3d39e80f	0.045387324
119	0xbd4025e0	-0.04691112
120	0x3d38677f	0.045020577
121	0x3db09a7e	0.08623217
122	0x3cf0ba44	0.029385693
123	0xbcc88fe3	-0.024482673
124	0xbce2682c	-0.027637564
125	0x3cae8245	0.021302352
126	0xbc92c128	-0.01791437
127	0x3d708f91	0.058730666

net.5.weight f4 [128]
0	0x3f814f57	1.0102338
1	0x3f8313dd	1.0240437
2	0x3f80697d	1.0032192
3	0x3f8000fa	1.0000298
4	0x3f7ed858	0.99548864
5	0x3f8714d4	1.0553231
6	0x3f805b1c	1.0027804
7	0x3f80e30a	1.0069287
8	0x3f7e0dcc	0.992398
9	0x3f8ce221	1.1006509
10	0x3f80fb43	1.0076679
11	0x3f82e81f	1.0227088
12	0x3f855d69	1.0419132
13	0x3f7c4c57	0.98553985
14	0x3f834d80	1.0258026
15	0x3f7f3aaa	0.9969889
16	0x3f80a16f	1.0049266
17	0x3f913292	1.1343558
18	0x3f7c00aa	0.98438513
19	0x3f7bd21c	0.98367476
20	0x3f787420	0.9705219
21	0x3f81eac9	1.0149776
22	0x3f88ae5a	1.0678208
23	0x3f82e512	1.0226157
24	0x3f828046	1.0195396
25	0x3f7ec55f	0.99519914
26	0x3f8bb8cd	1.0915772
27	0x3f81b435	1.013312
28	0x3f797a60	0.97452354
29	0x3f81a17a	1.0127404
30	0x3f81c5a4	1.013844
31	0x3f7c9982	0.98671734
32	0x3f80535b	1.0025438
33	0x3f7c5be1	0.98577696
34	0x3f766403	0.96246356
35	0x3f7ff09a	0.99976504
36	0x3f846799	1.0344115
37	0x3f811bff	1.0086669
38	0x3f9596bb	1.1686624
39	0x3f82750c	1.019197
40	0x3f7bed43	0.9840891
41	0x3f86300a	1.048341
42	0x3f99d0c5	1.2016836
43	0x3f7ecd20	0.99531746
44	0x3f7d24e8	0.9888444
45	0x3f7bdbca	0.98382246
46	0x3f7f2321	0.9966298
47	0x3f7bb6ad	0.98325616
48	0x3f871053	1.0551857
49	0x3f77f686	0.9686054
50	0x3f7e51fb	0.9934384
51	0x3f7bc5fe	0.9834899
52	0x3f803bea	1.0018284
53	0x3f824bd2	1.0179389
54	0x3f8573cb	1.0425962
55	0x3f8dd6b3	1.1081146
56	0x3f80f3d0	1.0074406
57	0x3f7e0fd1	0.99242884
58	0x3f865c84	1.0496984
59	0x3f82cda5	1.0219008
60	0x3f81d498	1.0143003
61	0x3f7990b7	0.9748644
62	0x3f810413	1.0079368
63	0x3f7cf3ea	0.98809683
64	0x3f7ebad8	0.9950385
65	0x3f7cb96c	0.9872043
66	0x3f7fedf8	0.99972486
67	0x3f8085a7	1.0040787
68	0x3f805c1d	1.0028111
69	0x3f81f5ea	1.0153172
70	0x3f7d9905	0.99061614
71	0x3f82e438	1.0225897
72	0x3f821940	1.0163956
73	0x3f7f761b	0.9978959
74	0x3f7f25c0	0.99666977
75	0x3f85c6dd	1.0451313
76	0x3f802890	1.0012379
77	0x3f83e2e6	1.0303619
78	0x3f7e1992	0.9925777
79	0x3f870473	1.0548233
80	0x3f80ee86	1.0072792
81	0x3f7d1bd7	0.98870605
82	0x3f806fe3	1.0034145
83	0x3f7d936e	0.99053085
84	0x3f80048c	1.0001388
85	0x3f815a69	1.0105716
86	0x3f92b867	1.1462525
87	0x3f819416	1.0123317
88	0x3f7e205f	0.99268144
89	0x3f814194	1.0098138
90	0x3f80aee4	1.0053372
91	0x3f7c70c9	0.98609596
92	0x3f815867	1.0105103
93	0x3f81851a	1.0118744
94	0x3f7b39b3	0.9813492
95	0x3f7f6a2c	0.9977138
96	0x3f7e2996	0.99282205
97	0x3f84404b	1.0332121
98	0x3f7cb248	0.98709536
99	0x3f83dcf7	1.0301808
100	0x3f866ebf	1.0502547
101	0x3f7ab5ec	0.9793384
102	0x3f7b732b	0.9822261
103	0x3f807896	1.00368
104	0x3f80021d	1.0000645
105	0x3f841c8b	1.0321211
106	0x3f788db3	0.97091216
107	0x3f7a0746	0.9766735
108	0x3f80d28c	1.0064254
109	0x3f80aab2	1.0052092
110	0x3f7e17f6	0.9925531
111	0x3f7ff8b7	0.99988884
112	0x3f7b535f	0.9817409
113	0x3f883f72	1.0644362
114	0x3f7e1fb0	0.992671
115	0x3f7e885a	0.99426806
116	0x3f7d4ad1	0.98942286
117	0x3f812793	1.0090202
118	0x3f7bb809	0.9832769
119	0x3f804825	1.0022017
120	0x3f804f86	1.0024269
121	0x3f88d485	1.0689856
122	0x3f6e0163	0.92970866
123	0x3f7b988f	0.9827966
124	0x3f81e18a	1.0146954
125	0x3f89bafd	1.0760189
126	0x3f7ce307	0.98783916
127	0x3f82908b	1.0200361

net.5.bias f4 [128]
0	0xbc76e0f9	-0.015068286
1	0xbb9cc128	-0.004783768
2	0xbb2ed4da	-0.0026677162
3	0xbb7db0b8	-0.003871007
4	0xbc2302d9	-0.009949409
5	0xbc5bdb95	-0.013419052
6	0x3bac6a15	0.0052616694
7	0xbc63af0b	-0.013896714
8	0x3bac8af0	0.005265586
9	0xbd09445d	-0.033512462
10	0x3b9a7642	0.0047138045
11	0xbc85baf8	-0.016324505
12	0xbc098f56	-0.00839599
13	0x3a933c15	0.0011233116
14	0x3c415e04	0.0118022
15	0xbbd13c90	-0.0063853934
16	0xbb35c7e6	-0.0027737557
17	0x3bb4e00d	0.005519873
18	0x3c5b67f5	0.0133914845
19	0x3c0d446e	0.008622272
20	0x3c3c98af	0.011511012
21	0x3a8d0cad	0.0010761224
22	0x3c9318a0	0.017956078
23	0x3bb74df0	0.0055940077
24	0xbc0c935f	-0.008580058
25	0xbc46d288	-0.0121351555
26	0xba032ee1	-0.0005004239
27	0xbb514299	-0.0031930564
28	0x3c19ff74	0.009399284
29	0xbcc4f8d3	-0.02404443
30	0xbc1a0f39	-0.009403043
31	0x3c4e9e43	0.012610975
32	0x3c4d3c30	0.012526557
33	0xb8aeaf59	-8.3296276e-05
34	0xbc2748ec	-0.010210257
35	0xbc7e0100	-0.015503168
36	0x39e89e52	0.00044368446
37	0x3b331797	0.0027327293
38	0x3aa3a350	0.0012484584
39	0x3c24d087	0.010059482
40	0x3c9487ae	0.018131103
41	0x3b795bac	0.0038049025
42	0x3c70a28a	0.01468719
43	0x3ba38164	0.00498979
44	0xbc251f46	-0.010078257
45	0x3c9f0b80	0.019414663
46	0x3c29c278	0.010361306
47	0x3b8ac2e4	0.0042346586
48	0xbc651e12	-0.01398422
49	0x3c0bab3c	0.008524712
50	0x3c78c935	0.01518469
51	0x3c91012c	0.017700754
52	0xbb997c61	-0.0046840166
53	0xbc1eabbb	-0.009684498
54	0x3b21e663	0.0024703972
55	0x3c8ffcad	0.01757654
56	0xbbf88251	-0.0075838943
57	0x3bd8da86	0.006617847
58	0x3bd7bcbf	0.0065837796
59	0xbc4259d5	-0.011862238
60	0x3c2d72e7	0.010586477
61	0x3ba2f8ca	0.0049735056
62	0x3c1f3ff8	0.009719841
63	0xbbabdcd5	-0.005244831
64	0xbac57852	-0.0015065765
65	0xbbf41efe	-0.0074499836
66	0xbbfbca0e	-0.007683999
67	0xbc426c2d	-0.011866611
68	0x3c2dcd5c	0.0106080435
69	0xbc07027a	-0.008240337
70	0x3c4ca94d	0.012491536
71	0xbc4d0301	-0.012512923
72	0x3c3ab84a	0.011396477
73	0x3b417435	0.0029518728
74	0x3c08c217	0.008347056
75	0x3c1b1440	0.009465277
76	0xbb8a8ef6	-0.004228468
77	0xbc93e814	-0.018055
78	0x3c46820b	0.012115966
79	0xbc6d2d00	-0.014476061
80	0x3c2a92dc	0.010410991
81	0x3a2202e8	0.00061802426
82	0x3ced3a6e	0.028958526
83	0x3ca6e03a	0.020370591
84	0x3bfe9a41	0.0077698533
85	0x3bd0d371	0.006372862
86	0x3a95f2a5	0.0011440112
87	0x3c95bac2	0.01827753
88	0x3b9877b1	0.00465294
89	0xbbb108b9	-0.005402651
90	0xbc1d57a7	-0.0096034175
91	0x3c894191	0.016754897
92	0x3cc0962b	0.023509106
93	0xbcc30676	-0.023806792
94	0x3c1702b6	0.009216955
95	0xb915af32	-0.00014275013
96	0x3c933c23	0.017973011
97	0x3b9fb181	0.004873455
98	0xbc062d25	-0.008189474
99	0xbc1568f4	-0.009119261
100	0x3b9a8213	0.004715213
101	0xba651692	-0.000873902
102	0x3c2073fa	0.009793276
103	0x3b81d3d5	0.00396202
104	0x3b3550d1	0.0027666579
105	0x3c90c1da	0.01767056
106	0xbbc565f0	-0.006024115
107	0x3b7a956c	0.0038236035
108	0xbc55a1a2	-0.013039025
109	0xbb9aac50	-0.0047202483
110	0x3b1479a4	0.0022655511
111	0x3be63224	0.00702502
112	0xbcac0694	-0.02099923
113	0xbc4c83f0	-0.012482628
114	0x39dfae96	0.0004266395
115	0xbaa84524	-0.0012837988
116	0xbbf22698	-0.0073898546
117	0xbc21f28f	-0.009884491
118	0x3b638c6d	0.0034721151
119	0xbbc059a7	-0.0058700624
120	0x3aaa49a7	0.0012991921
121	0x3bc26e06	0.005933526
122	0x3b5d02fa	0.0033723698
123	0xbbca2966	-0.006169486
124	0x3aca3806	0.0015428073
125	0x3b34aa04	0.0027567158
126	0x3c1a3ecd	0.009414387
127	0xbc8b7ba2	-0.017026726

net.6.weight f4 [64, 128]
0	0xbb91edb2	-0.0044533843
1	0x3d83fb7a	0.0644445
2	0x3dba94a4	0.09110382
3	0xbd9edf98	-0.07757491
4	0x3d43952b	0.04774968
5	0xbd3d04d4	-0.046147183
6	0xbb8388f6	-0.0040141298
7	0x3d439d83	0.047757637
8	0x3d8652fe	0.06558798
9	0x3dd3584c	0.10319576
10	0x3bc67aa8	0.0060571022
11	0x3cfd5c9f	0.030927954
12	0xbd6defc4	-0.058089986
13	0x3d9f878b	0.07789525
14	0xbce78533	-0.028261757
15	0xb8c5b9d1	-9.428303e-05
16	0xbd6770df	-0.056504127
17	0xbe024e9e	-0.12725303
18	0xbd7b2b6f	-0.06132072
19	0xbc056f3d	-0.008144197
20	0xbc2a832e	-0.010407252
21	0x3d6acb6e	0.057322912
22	0xbd90cb80	-0.070700645
23	0xbabcb42f	-0.0014396961
24	0xbd2e169d	-0.042502034
25	0xbd95bfc4	-0.07311967
26	0xbd59c6d3	-0.05316813
27	0xbd825851	-0.06364501
28	0xbd48e27d	-0.04904412
29	0x3e0483e4	0.12940937
30	0x3bbbc3cb	0.0057301275
31	0x3c930eb9	0.017951356
32	0x3c754f17	0.01497247
33	0x3bded5e3	0.0068003996
34	0xbc556a46	-0.013025826
35	0xbc2e6517	-0.010644219
36	0xbd4ee88b	-0.05051474
37	0x3dc3fab7	0.095693044
38	0xbc06c051	-0.008224563
39	0xbb14d6db	-0.0022711072
40	0xbd050237	-0.032472815
41	0x3cdca76c	0.026935302
42	0x3cc90044	0.02453626
43	0xbc3f21f3	-0.011665809
44	0xbc693324	-0.014233384
45	0x3d9a3193	0.07528987
46	0x3d24e475	0.040256936
47	0xbccd6bcb	-0.025075814
48	0x3ca84e93	0.02054528
49	0x3d2a961c	0.04164706
50	0x3d8a0c4c	0.06740627
51	0xbd813a51	-0.06309951
52	0x3d4e7d6a	0.050412573
53	0x3dd5df97	0.10443037
54	0x3d15e0e6	0.036591433
55	0xbd873eb4	-0.066037565
56	0xbd08010d	-0.033204127
57	0x3d347b12	0.04406268
58	0xbd8441aa	-0.06457837
59	0xbc666f5c	-0.014064636
60	0x3c00f517	0.007870934
61	0x3c331eb7	0.010932616
62	0x3bb2ce3c	0.005456714
63	0xbd67e67e	-0.0566163
64	0x3d8002cb	0.06250533
65	0x3d8edd5c	0.06975815
66	0xbd998e85	-0.074978866
67	0x3d8eb888	0.0696879
68	0xbca0f939	-0.019650089
69	0x3d789cc8	0.060696393
70	0x3ca7eb6b	0.020497998
71	0xbca0fdff	-0.019652365
72	0xbd1a4930	-0.037667453
73	0x3c2eee74	0.010676969
74	0xbd9a3403	-0.07529452
75	0x3bb55830	0.0055341944
76	0x3d092501	0.033482555
77	0xbada5a4d	-0.0016658992
78	0xbce4b69a	-0.027919102
79	0x3daf309c	0.085541934
80	0x3d7b06c9	0.061285768
81	0x3c5ad3d6	0.01335617
82	0xbd82150f	-0.06351673
83	0x3d7740c6	0.060364507
84	0x3d9f8c6d	0.07790456
85	0xbd1f3486	-0.03886845
86	0x3ce95b6e	0.02848598
87	0x3d257afc	0.04040049
88	0xbbe7bb1d	-0.007071866
89	0x3db938e7	0.090440564
90	0x3d68d00b	0.05683903
91	0x3c49d87f	0.012319683
92	0xbd7227f2	-0.059120126
93	0xbd23f4f5	-0.04002853
94	0x3d5ef01e	0.054428212
95	0xbd50d579	-0.050984833
96	0x3d200580	0.039067745
97	0xbcce5aa1	-0.0251897
98	0xbcd7476a	-0.02627917
99	0xbd5790a1	-0.052628163
100	0x3d02a305	0.03189375
101	0xbc1ae296	-0.009453436
102	0x3d646f1a	0.055770017
103	0xbd8ab42f	-0.067726485
104	0xbd1f7278	-0.038927525
105	0x3e002b0f	0.12516426
106	0x3dc09404	0.09403232
107	0xbd802583	-0.06257155
108	0x3dcca466	0.09992294
109	0xbd948279	-0.07251448
110	0x3d829b13	0.06377234
111	0xbc8b0630	-0.016970724
112	0xbd4a7d6e	-0.049436025
113	0x3d348f96	0.044082247
114	0x3d74a5bb	0.059728365
115	0x3dbc520b	0.09195336
116	0xbdb410e5	-0.08792285
117	0x3d872d87	0.066004805
118	0x3d8b3360	0.067969084
119	0x3d8a351f	0.06748413
120	0x3c038cda	0.008029187
121	0x3ab06914	0.001345905
122	0xbc8f6797	-0.01750545
123	0xbb73cf36	-0.0037202365
124	0x3c11d889	0.008901724
125	0xbddedfce	-0.10882531
126	0xbd8bc7df	-0.06825232
127	0x3ce610fd	0.028084273
128	0xbd30ca87	-0.043161895
129	0x3c9fe895	0.019520083
130	0xbd49d80b	-0.0492783
131	0x3d38a8da	0.045082904
132	0x3d200a6b	0.039072435
133	0x3d0f9ec2	0.035063513
134	0x3c0ca25c	0.008583631
135	0xbd7443d9	-0.059635017
136	0xbdb3a0c1	-0.08770896
137	0x3d5a5906	0.053307556
138	0x3d35f90b	0.04442696
139	0xbc088af1	-0.008333907
140	0xbcc9c72e	-0.02463111
141	0xbc6982d0	-0.01425238
142	0x3d6b4e0a	0.05744747
143	0x3d626063	0.055267703
144	0xbd0556da	-0.03255353
145	0xbe02e076	-0.12780938
146	0x3d99db8c	0.07512578
147	0xbc8a6b4c	-0.016896866
148	0x3d425d15	0.04745205
149	0xbc910e89	-0.017707126
150	0xbdbbd14f	-0.09170782
151	0x3bf88ee0	0.0075853914
152	0xbcc47a04	-0.023983963
153	0xbce2cb37	-0.027684791
154	0xbc54000b	-0.012939463
155	0x3d08da18	0.033411115
156	0xbd154e64	-0.036451712
157	0x3d9a088e	0.07521163
158	0x3d558271	0.05212635
159	0xbd3790c3	-0.04481579
160	0xbcf19bc8	-0.029493228
161	0xbd27bccf	-0.040951546
162	0x3cf6590e	0.030071761
163	0x3d83b2ef	0.06430613
164	0xbd734dc0	-0.05940032
165	0x3c833848	0.016018048
166	0xbdf8af73	-0.12142839
167	0xbdc1fbb6	-0.09471838
168	0x3d918f63	0.07107427
169	0xbd9db8ea	-0.07701285
170	0xbcd11ecc	-0.02552738
171	0x3c9d3c07	0.019193662
172	0xbd7ee3a1	-0.062228803
173	0xbd3e383d	-0.04644035
174	0xbcad693d	-0.021168346
175	0xbd4d2fe4	-0.0500945
176	0x3d9f7336	0.077856466
177	0xbd8a95dd	-0.067668654
178	0xbd3f87d5	-0.0467604
179	0xbd86baee	-0.06578623
180	0x3d161edf	0.036650535
181	0xbd8cf7a1	-0.06883169
182	0xbd396a1b	-0.045267206
183	0xbdf210de	-0.118196234
184	0xbd97085f	-0.073746435
185	0x3da0a930	0.0784477
186	0x3cb09a36	0.021557909
187	0x3d205b50	0.039149582
188	0xbc75fbd6	-0.015013656
189	0x3d773668	0.06035462
190	0xbdb079f6	-0.08617012
191	0xbd36279e	-0.044471376
192	0x3da66cd3	0.08126225
193	0x3d0ea379	0.03482387
194	0xbd4ede35	-0.050504882
195	0x3da4cb2c	0.080465645
196	0x3d74a971	0.059731904
197	0x3c939228	0.018014029
198	0xbd5eb76d	-0.054374147
199	0x3dce30d0	0.10067904
200	0x3d0c6634	0.034277156
201	0xbd677642	-0.056509264
202	0xbdb010d1	-0.085969575
203	0xbcd88681	-0.026431324
204	0x3d108fd0	0.0352934
205	0x3da63ad8	0.08116692
206	0xbce5df0f	-0.028060464
207	0x3ceb93e5	0.028757045
208	0x3b45a997	0.0030160898
209	0xbd300ed0	-0.042982876
210	0x3c953ecd	0.018218422
211	0xbc81431a	-0.015779067
212	0x3d9ab030	0.07553136
213	0x3c8a30c3	0.016868955
214	0xbc0288cb	-0.007967184
215	0xbdd7a518	-0.10529536
216	0xbd2568d8	-0.04038319
217	0xbd1d838b	-0.038455527
218	0x3b560f7c	0.0032663038
219	0x3d312152	0.043244667
220	0xbd8be194	-0.06830135
221	0x3cdb7898	0.026790902
222	0xbd7a1518	-0.061055273
223	0xbd39ea65	-0.04538955
224	0x3d0f76ef	0.035025533
225	0x3cf931e3	0.030419296
226	0xbd923729	-0.07139427
227	0x3cd46845	0.025928626
228	0x3df5a3e2	0.11994149
229	0x3d927f6a	0.071532086
230	0x3cd94757	0.026523275
231	0xbd6037a4	-0.054740563
232	0x3c6dbdbb	0.014510567
233	0xbd74db83	-0.059779655
234	0x3cbb4215	0.022858659
235	0x3d152d78	0.036420316
236	0xbd3f765d	-0.04674374
237	0xbd72cefe	-0.059279434
238	0xbd96b70d	-0.07359133
239	0xbd6bd123	-0.057572495
240	0x3c95ee66	0.018302154
241	0xbd8ac0a4	-0.067750245
242	0x3d794177	0.060853448
243	0xbcc2156f	-0.023691861
244	0x3b25dbb6	0.002530796
245	0x3ccc6281	0.024949314
246	0x3d15cc10	0.036571562
247	0xbd2df5c8	-0.042470723
248	0x3c43e8f6	0.011957398
249	0xbcac6850	-0.021045834
250	0xbc85bce7	-0.016325427
251	0xbb293884	-0.002582104
252	0xbdbf9688	-0.093548834
253	0xbd89abb5	-0.06722204
254	0xbd937ba3	-0.07201316
255	0xbd333b8d	-0.043757964

net.6.bias f4 [64]
0	0x3d6e54e8	0.05818644
1	0xbbb29ea0	-0.0054510385
2	0xbcb139ed	-0.021634066
3	0xbdc40b00	-0.095724106
4	0xbdb73c7e	-0.08947085
5	0xbd87f2d8	-0.06638116
6	0x3cd22d0e	0.02565625
7	0xbcb90d12	-0.02258924
8	0x3c567cae	0.013091249
9	0x3cb4f6b2	0.02209029
10	0x3d125f5c	0.035735473
11	0xbd719a97	-0.05898532
12	0xbc9a39f0	-0.018826455
13	0x3b8a4411	0.00421954
14	0xbd44886f	-0.047981676
15	0xbcfc98a9	-0.030834513
16	0xbc2b58df	-0.0104582
17	0xbd9bad13	-0.07601371
18	0x3c413bcb	0.011794041
19	0xbcabc071	-0.020965787
20	0xbd9a078f	-0.07520973
21	0xbd777bd3	-0.060420822
22	0xbba17008	-0.0049266852
23	0xbd5b5e98	-0.05355701
24	0x3cc84e4a	0.024451394
25	0xbb2e2435	-0.0026571874
26	0xbdb27c8c	-0.08715162
27	0x3d02048b	0.031742614
28	0xbb602855	-0.0034203727
29	0xbdfb423c	-0.122684926
30	0x3c6130b2	0.01374452
31	0xbe01f098	-0.12689435
32	0x3d2dcf80	0.042434216
33	0x3a7601ab	0.0009384404
34	0x3d6c8dff	0.057752606
35	0xbb62c8e5	-0.0034604606
36	0xbd5506ae	-0.052008323
37	0xbdfb87b8	-0.12281746
38	0xbd173e5c	-0.036924705
39	0x3d2f9c93	0.04287393
40	0xbc83a6d0	-0.016070753
41	0xbdaea04f	-0.0852667
42	0xbd4c4e17	-0.04987916
43	0xbc92aee3	-0.017905658
44	0x3db9b96e	0.09068571
45	0x3d8a1fa1	0.06744314
46	0xbd942b0a	-0.072347715
47	0x3cc04a31	0.023472877
48	0x3cccf838	0.025020704
49	0x3c48874a	0.012239287
50	0x3d2067c5	0.039161462
51	0xbd45f55b	-0.048329692
52	0x3cff29da	0.031147886
53	0xbd9e71d8	-0.07736558
54	0x3ca345d1	0.019930752
55	0x3d8cb072	0.06869592
56	0xbd7a0c8f	-0.061047133
57	0x3d5f2862	0.05448187
58	0x3d740a81	0.05958033
59	0x3c8e73d0	0.017389208
60	0xbcb7084c	-0.022342823
61	0x3ccc633f	0.024949668
62	0x3d11c176	0.03558489
63	0xbd14839b	-0.03625832

net.8.weight f4 [64]
0	0x40349aa7	2.8219392
1	0x403b21c6	2.9239364
2	0x402ca64f	2.6976507
3	0x3fde31b4	1.7358918
4	0x403e5ce3	2.9744194
5	0x4014eea9	2.3270667
6	0x402edf31	2.7323725
7	0x4014f291	2.327305
8	0x402a82a2	2.6642232
9	0x3fd12d79	1.6342002
10	0x4035a22c	2.8380232
11	0x4030be60	2.7616196
12	0x40432e98	3.0497189
13	0x402fd4f6	2.747373
14	0x402139ae	2.5191455
15	0x3fdef330	1.7417965
16	0x403f744a	2.9914727
17	0x40119c38	2.2751598
18	0x4043f8a3	3.0620506
19	0x40170483	2.3596504
20	0x402f51bf	2.7393644
21	0x400f81ba	2.242293
22	0x401acc75	2.418729
23	0x401a6f7d	2.4130547
24	0x4024f305	2.5773327
25	0x402424f0	2.5647545
26	0x4061d314	3.5285082
27	0x4029a5fe	2.6507564
28	0x404b3f61	3.1757433
29	0x400b5789	2.1772177
30	0x4047c32d	3.1212876
31	0x3fe70458	1.8048201
32	0x3fc68ec1	1.5512315
33	0x401d18e5	2.4546444
34	0x401a5749	2.4115775
35	0x3fef62b6	1.8701999
36	0x403f5b89	2.9899619
37	0x3fa00212	1.2500632
38	0x4020e54e	2.5139956
39	0x3fa3d885	1.2800452
40	0x4031ca6e	2.7779803
41	0x404fe521	3.24836
42	0x400fb5d2	2.2454724
43	0x4019ff97	2.406225
44	0x401d7711	2.4603922
45	0x402186cc	2.5238523
46	0x40163d61	2.3474963
47	0x40410e3d	3.016494
48	0x401e368b	2.472079
49	0x4016a684	2.3539133
50	0x402d87c7	2.7114122
51	0x3fea89d1	1.8323308
52	0x403e8802	2.9770513
53	0x4009b283	2.1515205
54	0x401ddf9b	2.4667728
55	0x4039088c	2.8911467
56	0x4025d815	2.5913136
57	0x400c6ff4	2.194333
58	0x4022a3f2	2.5412564
59	0x4013da44	2.3101969
60	0x40146740	2.3188019
61	0x400b7be9	2.1794379
62	0x4036a673	2.8539093
63	0x401e0f6e	2.4696918

net.8.bias f4 [64]
0	0x3dc20a18	0.094745815
1	0x3e1bd5a8	0.15218222
2	0x3dae8af3	0.08522596
3	0xbd904021	-0.070434816
4	0x3e2e53f9	0.1702422
5	0xbe0c23bc	-0.13685507
6	0xbdee252d	-0.116281845
7	0x3de8903a	0.11355634
8	0xbd6ad235	-0.057329375
9	0xbe8656f8	-0.26238227
10	0x3d51c6db	0.051215034
11	0x3dda8489	0.1066981
12	0x3eafa9c8	0.3430922
13	0x3c8c381c	0.017116599
14	0xbd0dda14	-0.034631804
15	0xbdbcd3a6	-0.09220056
16	0x3e13a6da	0.14419118
17	0xbe2282c4	-0.15870196
18	0x3da7a586	0.08185868
19	0x3dd8b3c6	0.10581164
20	0x3d2dc1e6	0.042421244
21	0x3e24ad4c	0.16081733
22	0x3dbc60e0	0.09198165
23	0xbd9ff9fb	-0.07811352
24	0xbdf17762	-0.117903486
25	0x3d96b475	0.07358638
26	0x3e341bbe	0.17588708
27	0xbe04e4c1	-0.12977888
28	0x3e96d9a1	0.29462913
29	0x3e28e738	0.16494453
30	0x3e6251db	0.22101538
31	0x3e7de974	0.24796087
32	0xbe0b35e5	-0.13594778
33	0xbdada950	-0.084795594
34	0xbdce1713	-0.10062995
35	0xbde696c1	-0.11259223
36	0x3e1156fb	0.14193337
37	0x3ebdb62e	0.37053055
38	0x3e2d8a4f	0.16947292
39	0x3dfbecf1	0.12301052
40	0xbd96fa99	-0.073720165
41	0x3ddc279f	0.107497446
42	0x3e88b944	0.26703846
43	0xbe2506d6	-0.16115889
44	0xbe07bc8d	-0.1325552
45	0xbe12432a	-0.14283434
46	0x3e3a7b18	0.18211019
47	0xbe25d7a7	-0.16195546
48	0xbe0040ae	-0.12524673
49	0x3dcf469c	0.101208895
50	0x3de9d38b	0.11417302
51	0xbe4363ab	-0.19080989
52	0x3be6f91d	0.0070487396
53	0xbd575ed9	-0.05258069
54	0xbdd368d4	-0.10322729
55	0xbdf08585	-0.11744217
56	0x3db96b8a	0.090537146
57	0xbdbbc51b	-0.09168454
58	0xbe1fdc43	-0.15611367
59	0xbdd74945	-0.10512022
60	0xbcf8d5d0	-0.030375391
61	0xbe06ce9b	-0.13164751
62	0x3e475b2a	0.1946837
63	0xbdce6868	-0.10078508

net.9.weight f4 [3, 64]
0	0xbfcb0a2a	-1.5862477
1	0xbfdc146c	-1.7193732
2	0xbfaff490	-1.374651
3	0x3f18f905	0.59754974
4	0xbf8878c2	-1.0661852
5	0x3f94e9dc	1.1633868
6	0x3fc891ed	1.5669533
7	0xbf5a6c40	-0.85321426
8	0x3f6a9796	0.9163755
9	0xbeedaa93	-0.464192
10	0xbfb1799c	-1.3865237
11	0xbfaa287b	-1.3293604
12	0x3f939b3a	1.1531746
13	0xbfc07457	-1.5035504
14	0x3fbcbcc3	1.4745106
15	0x3e83c118	0.25733256
16	0xbfe363dd	-1.7764851
17	0x3f876562	1.0577815
18	0xbfd8dba4	-1.6942029
19	0xbf881150	-1.0630283
20	0x3fb4b58c	1.4117904
21	0xbf88a581	-1.0675508
22	0xbfab321c	-1.3374667
23	0x3fc298ff	1.5202941
24	0x3fc559c5	1.541802
25	0xbf94ec5a	-1.1634629
26	0xc007a635	-2.1195195
27	0x3f557604	0.833832
28	0x3f9285b2	1.144705
29	0xbf6c4488	-0.9229207
30	0x3f8de3a0	1.1085091
31	0xbe422d00	-0.18962479
32	0xbe0f3f74	-0.13989049
33	0x3fa15af3	1.260588
34	0x3fb3feeb	1.406217
35	0xbb29acd6	-0.0025890372
36	0xbfd55298	-1.6665831
37	0x3d5a691a	0.05332289
38	0xbf251f3e	-0.64500797
39	0xbd5c6590	-0.053807795
40	0x3fa400c1	1.281273
41	0xbfaa105f	-1.3286246
42	0x3f35f03b	0.7106969
43	0x3f978d79	1.1840049
44	0x3faf1b66	1.3680236
45	0x3f9bb614	1.2164941
46	0xbf3f7d4c	-0.7480056
47	0x3fe1e3b3	1.7647613
48	0x3fa53198	1.290576
49	0xbf843e40	-1.0331497
50	0xbf9eed50	-1.2416172
51	0xbee2a717	-0.44268104
52	0xbfbfca51	-1.4983617
53	0xbfaf4ef3	-1.3695968
54	0x3fb30a0d	1.3987442
55	0x3fc0d56b	1.506513
56	0xbfa5b851	-1.2946874
57	0xbf8243b3	-1.017691
58	0x3fb209f5	1.3909289
59	0x3f770974	0.964988
60	0xbe1d0c36	-0.1533669
61	0x3f5b4b78	0.8566203
62	0xbfc30ca9	-1.5238239
63	0x3fae20a1	1.3603708
64	0xbfb996ce	-1.4499147
65	0xbfdcf1b7	-1.7261266
66	0xbfbfdcca	-1.4989254
67	0x3f298f16	0.66233957
68	0xbfca45d3	-1.5802559
69	0x3f8f00e4	1.1172147
70	0x3fbecc67	1.4906129
71	0xbfa64196	-1.2988765
72	0x3ffae86a	1.9602177
73	0x3de94ac1	0.11391211
74	0xbf9b27bd	-1.2121502
75	0xbfcb32e9	-1.5874912
76	0xbff071ea	-1.8784764
77	0xbfa2551b	-1.2682222
78	0x3f946c42	1.1595538
79	0x3f442755	0.76622516
80	0xbfd51d8d	-1.6649643
81	0x3f97d3af	1.1861476
82	0xbfe5d88a	-1.7956707
83	0xbf64d15c	-0.8938196
84	0xbde27e3d	-0.11059234
85	0xbf0a55ed	-0.5403736
86	0xbf80c246	-1.0059288
87	0x3f7e02b9	0.99222904
88	0x3fbae1f6	1.4600208
89	0xbfb3a04f	-1.4033297
90	0xc0169c7c	-2.353301
91	0x3fd9635c	1.6983447
92	0xc002795c	-2.0386572
93	0x3e3b95bb	0.18318836
94	0xc000142a	-2.0012307
95	0x3ed07860	0.4071684
96	0x3e9813c1	0.2970257
97	0x3fc58923	1.5432476
98	0x3f99fb30	1.2029781
99	0x3f59a9c4	0.85024667
100	0xbfdd0b64	-1.7269101
101	0xbed3db59	-0.41378286
102	0xbf9957c0	-1.1979904
103	0xbda96b47	-0.08272415
104	0x3fdbe4a5	1.7179152
105	0xbffa9128	-1.9575548
106	0xbfa0e482	-1.2569735
107	0x3fa395f2	1.2780135
108	0x3fa30069	1.27345
109	0x3fb63d3d	1.4237438
110	0xbfac9c4e	-1.34852
111	0x3fd20349	1.6407253
112	0x3faca3ee	1.3487527
113	0xbf845ffd	-1.0341793
114	0xbfcda499	-1.6065856
115	0x3e41ac3c	0.18913358
116	0xbfce52ae	-1.6118982
117	0xbe224f64	-0.15850598
118	0x3fb2c3f0	1.3966045
119	0x3fcbd572	1.5924513
120	0xbf676228	-0.9038415
121	0xbf518b40	-0.81853104
122	0x3fb3138b	1.3990339
123	0x3fb73d3f	1.4315566
124	0x3ebf78e9	0.37396935
125	0x3f93f3d6	1.1558788
126	0xbfc34368	-1.5254946
127	0x3f9f4d1c	1.2445407
128	0xbfd23f88	-1.6425638
129	0xbfbeec14	-1.4915795
130	0xbfd23134	-1.6421266
131	0x3eaad06c	0.33362138
132	0xc0075982	-2.1148381
133	0x3f851497	1.0396909
134	0x3fb5cb13	1.4202598
135	0xbf9ea459	-1.2393905
136	0x3f6cf4b3	0.9256088
137	0xbe711791	-0.23544146
138	0xc0040d83	-2.0633247
139	0xbfcde4bb	-1.6085428
140	0x3fbeee83	1.4916538
141	0xbfc20292	-1.5157034
142	0x3f969db6	1.176688
143	0x3f1d4bcd	0.6144379
144	0xbfe5f42b	-1.7965139
145	0x3f5eb4be	0.8699454
146	0xbfe70ea0	-1.8051338
147	0xbfb33faa	-1.4003804
148	0x3fd9c3c7	1.7012872
149	0xbfb13175	-1.3843218
150	0xbf9a0ce7	-1.2035187
151	0x3fa8e55c	1.3194995
152	0x3fac610b	1.3467115
153	0xbfb84158	-1.4394941
154	0xc00644e5	-2.097955
155	0x3f96f93f	1.1794814
156	0x3fdbab8f	1.716173
157	0xbfbdbb8c	-1.482286
158	0x3fbbecae	1.4681604
159	0xbf3723f7	-0.71539253
160	0xbea74445	-0.32669273
161	0x3fac6530	1.346838
162	0x3f8c4edd	1.0961567
163	0x3f293612	0.6609813
164	0xbfeadf4e	-1.8349397
165	0xbee8d5c1	-0.4547558
166	0xbfcb85dd	-1.5900227
167	0xbeb60e2f	-0.35557696
168	0x3fb23502	1.3922427
169	0x401109f4	2.2662325
170	0x3f5b81eb	0.85745114
171	0x3f98f116	1.1948574
172	0x3fa25806	1.2683113
173	0x3fa6b65d	1.3024403
174	0xbf26ca14	-0.65152097
175	0x3fb71dca	1.4305966
176	0x3fb1edcd	1.3900696
177	0xbfaf8fe3	-1.3715786
178	0xbfb732c5	-1.4312369
179	0xbedc078c	-0.42974508
180	0xbff2b0e4	-1.8960233
181	0x3efe6ca1	0.49692252
182	0x3fa6db91	1.3035756
183	0x3ff9be0e	1.9511125
184	0xbfced46f	-1.615858
185	0xbf6eae18	-0.93234396
186	0x3f493db4	0.78609776
187	0x3f979781	1.184311
188	0xbf706f64	-0.9391997
189	0x3f486f0f	0.7829446
190	0xbfd34a96	-1.6507137
191	0x3fae43c6	1.3614433

net.9.bias f4 [3]
0	0x3e0fe0e4	0.14050633
1	0xbe0f3ffa	-0.13989249
2	0xbe59536f	-0.21223234
