game/model/models/q_net_2000_50000_128_64_dueling_EPOCH_200.pkl (torch, 143380 bytes, 9 tensors)

feature.0.weight f4 [128, 8]
00000000: a0b2 483f f8ec 14bf 0a01 9c3e e4be a3bc
00000010: eb70 5cbe e520 d2bd 8049 c3bd bf65 983e
00000020: 0f68 0f3d 2c05 90bf 4a57 7d3e e1b1 35be
00000030: da2d de3d 29f1 58bd f3b3 3f3e 0cfb 2dbe
00000040: bb74 eabe b7cd a4bf a253 fb3d a0e1 243d
00000050: 9c06 28be 04ff 8c3e f668 6ebe a104 73bc
00000060: a17c 9c3f 14ae 29bf 99c4 a83d e0db 573d
00000070: 9fa3 cfbd 8e29 f0bd 2052 e4bd cfa6 04be
00000080: 3f34 c13e 8108 c2bf a67d 3fbd 265a 493e
00000090: e565 56bb 7426 04bf c4da af3e bbec ce3d
000000a0: 228d 2cbc 23d5 0dbe 9b14 c63e 92ee 333e
000000b0: 2595 ae3e 66a0 a63e a1be f2bd 2cf3 c13e
000000c0: d6f5 3d3f a0ab e23e 5628 afbe 7d73 adbe
000000d0: 72ad 833d ff1f 5a3d 09bb 34bf 8035 b23e
000000e0: 7567 4abe 1dc8 283d 6453 18be ca7b 8ebe
000000f0: 20c0 963e 6f0e 5ebe 3e2c 4b3e 5ae7 f1bb
00000100: ad88 f1be d8d3 cbbe b108 983b 9689 f1bc
00000110: acf9 c63c d44c ee3e 6f9e 96be c048 65be
00000120: dc28 b0be 7d0e 88bd b029 a63e 11cd 6fbe
00000130: 579e 1dba 3444 90be 9f53 f3bd bbb1 86bd
00000140: 3734 e4bd 4e38 14bf c6cb 05be 5988 9d3e
00000150: 4157 3d3e 9915 893e 7433 f93e 54d4 d03e
00000160: 54d2 21bf 8f92 653e e7e1 4b3e 1e2d 47be
00000170: bfca 34be 3de4 e2be 1bc6 c83e 5274 073f
00000180: b238 003f c2bb 73bf 5fad 403e 8564 713d
00000190: 7e3c ac3d 18c7 37bf 1d61 72be eb78 ee3e
000001a0: 4738 bebd 2fb4 b3be cddf a83d 1af9 983e
000001b0: 4d1c 94bc 0e2e b2be 5fab 1abd b6b6 853e
000001c0: 9627 433f 44ff 423d 5ed4 25be cafd 483d
000001d0: 7c23 703d b3ac aabe 232d 96be fe50 45be
000001e0: f7c2 8e3e f3f1 3d3f ef27 47bd 5b06 3fbe
000001f0: 3927 173d b450 273e 3138 243e 58c0 a2be
00000200: f046 8c3f e0f7 173f bb2a 95be 343b bb3d
00000210: 5293 b0bd 177c 9d3e 1015 f2bd 4366 633e
00000220: cf9b 12bf 4488 b93e 4506 d43c 7165 fb3d
00000230: 3a2a 89bc 9b5a c3bd eaba d93e 7962 bb3e
00000240: 5dfa 9f3f 8a18 fd3e eeff b13d 9ce6 4dbd
00000250: acf5 8b3e 5b1e 67be 8edd 843e ee38 8bbd
00000260: 9024 4a3f 8515 4dbf ef4f 02be 7153 c23e
00000270: 1d8e babd 8dab c83e af57 f23e 337b bd3d
00000280: a870 303f 7de4 5c3e 7a1f 613e 8762 12be
00000290: 1f62 33be 9e5b 45bd 6baf b63c e4c2 0c3e
000002a0: fc32 0a3f fda3 6cbf af15 973e b036 52bd
000002b0: e4e4 ac3e 6da2 dc3d 6fcd 1c3e 9b25 c53e
000002c0: 495f 8abd 43da ac3e 1a35 983e 0008 69be
000002d0: cea4 383e 4060 9ebe a33f b3be 6021 44be
000002e0: 43d7 39bf 42d1 ec3e 74f4 dc3e 4579 b6bd
000002f0: 5434 153e ec1f ca3e 5b57 543e 405b e7be
00000300: 6ca9 3bbf b8c2 a33f 6b0d efbd 3537 bd3d
00000310: 2a76 d43d 6830 7d3e 1c1c 57bd 705b debd
00000320: e534 673f e99f 4abf 7ce9 ab3d bb03 7e3d
00000330: 498c e13d f317 b53d c16d c93e 7eb3 ba3d
00000340: d01e 1c3e 178f 20be 28b3 5cbd c622 7c3e
00000350: c9a9 52be e6dc 58bd 22e6 80bd 94af 47bb
00000360: d9a1 84bf eef5 34be 4f2c c93d 4dcf aabd
00000370: 80b5 1abe 28fb b3be 8e3c b0be 30f1 b43e
00000380: a014 d9bd a821 653e 8e6a 3dbc 8fd1 953d
00000390: 9481 4ebe 64ac b1be 989a 67be 80bf a6be
000003a0: 49d9 7bbf dd2c aebf bc56 db3e 3188 a03e
000003b0: 2e69 993e 28e4 db3c f444 b83e 2699 50bc
000003c0: 00ac 513e e8bd 57bf 5f6c 83bc 02d8 a33d
000003d0: 5aad 113e 400b 24bf 3715 16bf d0ed ac3e
000003e0: 0f62 96be 6bfa 2ebd ff2b 39bd b16f a63c
000003f0: bc88 0bbc d78f 573e d846 023e fd8e 8bbd
0.7839756 -0.58174086 0.30469543 -0.019988485 -0.2152745 -0.102601804 -0.095355034 0.29765126
0.035011347 -1.1251578 0.2474033 -0.17743637 0.10848589 -0.052964363 0.18720989 -0.16990298
-0.45792183 -1.2875279 0.12271811 0.040254235 -0.16408771 0.2753831 -0.23282227 -0.014832647
1.2225534 -0.6628125 0.08240623 0.052699924 -0.1013863 -0.11726676 -0.111484766 -0.12954257
0.37735173 -1.5158845 -0.046750687 0.19663295 -0.0032714542 -0.51621175 0.34346592 0.101037465
-0.010531696 -0.13850836 0.38687596 0.17571476 0.34098163 0.3254425 -0.11852766 0.37880838
0.7420324 0.44271564 -0.3421046 -0.33877173 0.064295664 0.05325317 -0.70597893 0.34806442
-0.19766028 0.041206468 -0.14875561 -0.2782882 0.29443455 -0.21685193 0.19841096 -0.0073823156
-0.47174588 -0.3981006 0.004639708 -0.029484551 0.024288975 0.4654299 -0.2941775 -0.22391033
-0.34406173 -0.066433884 0.3245368 -0.2341807 -0.0006012669 -0.28177035 -0.11881184 -0.06576868
-0.11142772 -0.57898414 -0.13066015 0.30768088 0.18490316 0.2677429 0.48672068 0.40786994
-0.6321156 0.22419189 0.19910394 -0.19450805 -0.17655466 -0.44314757 0.39213642 0.52911866
0.5008651 -0.9520837 0.18816136 0.058933754 0.084099755 -0.7178817 -0.23669858 0.46576628
-0.09288078 -0.35098407 0.082458116 0.2987755 -0.018079901 -0.34800762 -0.03776109 0.2611596
0.7623228 0.04760672 -0.16194293 0.049070157 0.05862759 -0.33334884 -0.29331312 -0.19269177
0.2788312 0.7419731 -0.048622068 -0.18654768 0.03690264 0.1633938 0.1603706 -0.31787372
1.0959148 0.593626 -0.29134163 0.091421515 -0.08621849 0.30758736 -0.118204236 0.22206978
-0.57268995 0.36236775 0.025881896 0.12275208 -0.016743768 -0.09538766 0.42525417 0.36598566
1.249828 0.49432784 0.08691393 -0.050268754 0.2733587 -0.22570173 0.25950283 -0.06797968
0.7896204 -0.8011096 -0.12725805 0.37954286 -0.09109137 0.39193383 0.47332522 0.09252014
0.689219 0.21571536 0.21984664 -0.14295398 -0.17517899 -0.048183076 0.022300443 0.1374622
0.53984046 -0.92437726 0.2950873 -0.051321685 0.3376838 0.10773168 0.15312742 0.38505253
-0.067564555 0.3376027 0.29728013 -0.22756958 0.18031618 -0.30932808 -0.35009488 -0.19153357
-0.7259409 0.462534 0.43155253 -0.08909849 0.14570743 0.3947748 0.20736448 -0.45186806
-0.7330539 1.2793798 -0.11672481 0.092390455 0.103741005 0.24725497 -0.05251704 -0.10857284
0.90315086 -0.79150254 0.08394143 0.062015276 0.110130854 0.088424586 0.39341548 0.09116267
0.15246129 -0.15679584 -0.053881794 0.2462264 -0.2057258 -0.05294504 -0.06293894 -0.0030469643
-1.0361892 -0.1767194 0.09822904 -0.08340321 -0.151083 -0.35152555 -0.344212 0.3534026
-0.10599637 0.2237612 -0.011561049 0.07315361 -0.20166618 -0.34701836 -0.22617567 -0.32567978
-0.98378426 -1.3607441 0.4283961 0.31353906 0.29963058 0.026842192 0.35990107 -0.012731826
0.20475769 -0.8427415 -0.016042886 0.080001846 0.14226285 -0.64079666 -0.5862612 0.33775187
-0.29371688 -0.042719286 -0.045207974 0.02031693 -0.008516487 0.21050964 0.12722337 -0.06814382

feature.0.bias f4 [128]
00000000: 0ded 29bd e3ce 9e3e 9be4 9f3e cf4a 803e
00000010: c1d5 213e 20fa ee3e c822 d6bc 289a 95be
00000020: 4d3c 883e b52c 9fbc 527a a43e 69e8 fc3e
00000030: 89c6 3a3e 52a9 acbe 9b67 463e d2b9 23be
00000040: af2f 2e3d af29 8b3e 22d1 5abc 3991 d43e
00000050: 103c d33d 0cba b23d 4297 b4bd 29df 643e
00000060: 2c8f dabd 1c7e f63e 9909 eebd 8b12 6b3e
00000070: 000d ffbd 6b85 333e a871 9f3e 8288 aebe
00000080: 728d f8bc 1508 543e c202 bb3e b0e3 93be
00000090: 2791 82be e606 103f 6102 e93e 63ee 84be
000000a0: f941 56be aa2a 9ebe e490 9dbe 4a34 973e
000000b0: 1b17 aebd 85ef 9dbe c30e 97be 7ddb 98bd
000000c0: 0681 283e e407 d6bd 2e52 a6be f020 f83e
000000d0: 67a1 e93e 06c3 94be 8f84 9ebe 7a56 273e
000000e0: 42be 593d 2fdf 993a dad3 b4bd f8cd b4bd
000000f0: bd6b b93e d289 a4be 46ff 5f3e 2624 b1be
00000100: 5493 d73e 1d27 86bd d07c f13e 2998 263e
00000110: ed48 d13d 8ca0 3d3e 45b9 d63e b97b ff3e
00000120: 686b 33be 7a13 c1bc cf49 423e 9824 03be
00000130: 1d6f 913a 5147 0b3f dcce 0d3f d583 de3e
00000140: 1191 ecbd b5c8 ad3e 10df 54be b38a 303e
00000150: 4b7a 383d 4fea 513e 5f9b 67be 0fce 94be
00000160: 9fe5 ed3e 1c6c a53e 53d6 333e 9e83 d33e
00000170: ddf8 9b3d d96b 0abe 9290 b23d f57f e43e
00000180: fbe4 00bc 5ee9 693e fc0b 93ba 5307 5dbd
00000190: c1db 643e 3ca4 e43d 1cc6 0fbe 528a 02bf
000001a0: cf1e d3be 625b c23c b4ac 03be d430 53be
000001b0: 3356 d53d bab9 d13e 492f f9bd f193 1bbd
000001c0: 9e47 a93e becf b33b 97f7 b83e c4b5 a53d
000001d0: 7b52 103d 54ff 3cbe 2f23 cd3e daf1 82be
000001e0: 78fc 8d3e 6890 14be 64f1 97be 942c 523e
000001f0: 20d4 673e 2c60 77be 2dce 0a3f 8d32 af3e
-0.041485835 0.31017217 0.312291 0.25057074 0.15804197 0.46675205 -0.026139632 -0.29219174
0.26608506 -0.019430498 0.32124573 0.49396065 0.18239798 -0.3372293 0.1937546 -0.15988854
0.042525943 0.2718024 -0.013355525 0.41517046 0.103141904 0.08726892 -0.08817913 0.22350754
-0.10671839 0.4814309 -0.11622924 0.22956292 -0.124536514 0.17531364 0.311414 -0.34088522
-0.030340884 0.20706208 0.36525542 -0.2888465 -0.25501367 0.56260526 0.45509627 -0.25963125
-0.20923604 -0.30891925 -0.30774605 0.2953208 -0.08500501 -0.308468 -0.2950345 -0.07463739
0.16455469 -0.10450724 -0.32484573 0.4846263 0.45630953 -0.2905504 -0.3096051 0.16341582
0.05315996 0.0011739488 -0.0882947 -0.08828348 0.3621501 -0.321364 0.21874723 -0.34597892
0.4210459 -0.06550429 0.47165537 0.16268982 0.102189876 0.18518275 0.41938224 0.4989908
-0.17521441 -0.023568857 0.18973468 -0.12806928 0.0011095736 0.54405695 0.5539377 0.43459955
-0.11551107 0.3394219 -0.20788217 0.1724041 0.045038503 0.20499538 -0.22617863 -0.2906346
0.4646425 0.32309043 0.17562227 0.41311353 0.07615826 -0.13517703 0.08718981 0.44628873
-0.007867093 0.22842929 -0.0011218782 -0.053962063 0.22349454 0.11164138 -0.14040416 -0.5099231
-0.41234443 0.023725215 -0.1285885 -0.20624095 0.10416832 0.4096201 -0.12167222 -0.037982885
0.33062452 0.0054874113 0.36126396 0.0809131 0.03523491 -0.18456775 0.40065905 -0.25575143
0.2773168 -0.14508212 -0.29676354 0.20524818 0.22639513 -0.2415778 0.5422085 0.34218255

value_stream.0.weight f4 [128, 128]
00000000: 1035 913c aef9 363e 882e 0f3e 21ab 7d3e
00000010: daa1 473e 838f 5a3d 0379 e33d 73b1 1ebd
00000020: e9e1 79bd 6011 03bd bc9c f7bc eef9 29be
00000030: 5905 75bc 5d49 8ebd da64 9f3e 8ee3 db3d
00000040: 3ad3 213e fad9 28be 05d2 343e 9bf4 2a3e
00000050: d01b 553e bc3f 5e3e eb78 c53b 6adf c1be
00000060: 2ab9 45bf 5ddc 6a3e aae3 9e3d 4f5a 33bf
00000070: 87cd 1bbd 2388 5ebf 5221 93bd d5b0 9ebc
00000080: d9fb 053d 1ddd 163e 3e2f 5fbf d6ee 7c3e
00000090: c041 3e3d 8a24 813d c06a aabe 38f8 2c3c
000000a0: bbd6 13bd 3a99 c53c d941 b03d d472 563e
000000b0: 056a 53bd 40f2 9b3e 599b 783e 6a48 a53b
000000c0: e390 6d3e aafd ccbb 913a 72bd da3d f03d
000000d0: fa7c 99bd 580a 9d3d 2296 213d a15e 00be
000000e0: c07f 813e f8c3 82bf 55c0 043e 4a13 af3d
000000f0: 8fc8 ac3c 9059 713d d65d bbbe 6f96 3e3d
00000100: 2fa9 5cbe 9200 903e 03b6 063e c23e 78bc
00000110: 6716 48bf 3d9f 79be 7a16 373e f6f0 193e
00000120: cd2f 423e 108c 203e daa2 ae3d ed4d 913e
00000130: b00f 63bf 364a 6a3d 679c cebc d9f4 073f
00000140: 6ce3 2c3e 31f3 6c3e 7481 33ba d247 543e
00000150: fdaf b8b9 50e7 ee3d d703 d9be 3eb4 1c3c
00000160: 7bab bd3d 6d2b e0be 2a08 8d3d ace3 4b3e
00000170: 223a fa3d 2f51 1c3e ef3f 8b3c 13ca 88be
00000180: 6d48 07bf 90b9 0bbe 74cb f9be a30f 2bbe
00000190: 8ca6 cc3d 3c2b 823e 690c 9f3e c80c 323e
000001a0: ba90 7e3e 94f4 93bd 7cfb ce3d 6c14 313e
000001b0: 0d41 c3be fc40 2fbd d75f 73bd 0e6a 6f3e
000001c0: 7405 49be 4e0d 803e 4295 a2be ccb5 1f3e
000001d0: 00c5 693e 8940 803d 2f86 60be 3c2d 9e3e
000001e0: 0c72 573e a3cd a53c 9ead ac3e 37aa 373d
000001f0: 77d8 92bc c748 4c3d 6a01 14be 829e 08bf
00000200: 7bcd ec3e ac04 a9be 15f6 2fbf fddc 78bf
00000210: 77e3 37bf 0f2d 0f3e bcdc a93e 64de 92bd
00000220: 4d2a ba3e 13c6 4fbd 284c 193e 2724 613d
00000230: d8b8 093f ad12 eb3c 60f1 7bbf f2c5 86be
00000240: 1ce1 cebe 23c0 c1bd c395 e7be 962d 883e
00000250: 2fd1 b23d 1099 a03e abe0 013d 2c06 d53e
00000260: 1451 39bf 926d cf3d 8d22 98bd 49b7 3fbe
00000270: 536a 32bb db5c 05bf 4e2d 0a3f 9755 013d
00000280: 294f 933d 4b70 3d3d c27a cebe 4618 a0bf
00000290: 4272 4c3e 6caf 4a3e 3a6b e23d f6b2 a8bd
000002a0: 54f2 50bb c719 dd3b 0e97 b4bd 88dd 5bbf
000002b0: 4ea7 a7bd d880 41bf 70b6 80bf 516c d93e
000002c0: 2693 a03d 4d04 d03b b75c 92bd 43c6 123e
000002d0: 5ab6 953d a3eb 7e3c 003c 73bd 8d4c b03e
000002e0: 316a b0bf acde 8ebe d86b 243d 766f 923e
000002f0: 69ae 803e efe4 05bd 7d76 073e 0eb4 913d
00000300: ea77 1b3e 3988 1dbf c2d2 8f3e ef62 35bf
00000310: e088 d03e 2242 b6bd fcb9 e63d 0aee 643e
00000320: bc91 5ebf 7aa1 bb3e 7305 ca3d 0cd2 7bbf
00000330: 48c2 f6be 2d5c 703e dc4f 7c3e 769e b3bf
00000340: 6430 04be 1cf7 98be 14ce 963d e435 f3be
00000350: 894d a5bd ce63 8b3e 99ae 78bf a35b 37bd
00000360: 0d4b 793e eee8 803d 7f26 89bd 2e66 77bf
00000370: 5dd8 82bf cae1 18be 1e31 773e 3dfe 0e3e
00000380: 582f 4fbf ac09 993e 1135 793e 7b37 ca3e
00000390: ebef 27bf dde7 043e c8fa bfbf 4bb8 8ebf
000003a0: 1126 c3be d8dc ccbf 5875 d0be da3d 95bf
000003b0: e7bb 38bd 939c 683e 9663 77bd edcb 32bf
000003c0: faa6 593e 34b2 0fbe a51d b23d ed3d 513e
000003d0: 4a5f 903e b8bc 2bbd 1bcb db3d 9a72 c9bf
000003e0: f8c4 583e 90e7 da3d d0a0 41bf 34ba 84be
000003f0: dc8c 08be c4c4 a6bc f233 343e 3b31 bdbc
0.017725497 0.17868683 0.13982594 0.24772312 0.19495335 0.05335952 0.111070655 -0.038743448
-0.06100646 -0.031998992 -0.030226104 -0.16599247 -0.014954888 -0.06947587 0.3113163 0.10736762
0.15803233 -0.16489401 0.17658241 0.16694872 0.20811391 0.21704 0.0060263774 -0.37865764
-0.7723566 0.22935624 0.07758267 -0.70059675 -0.038037803 -0.8692648 -0.0718409 -0.01937143
0.032710884 0.14732786 -0.8718146 0.24700484 0.046449423 0.063057974 -0.3328457 0.010557227
-0.036093455 0.024120916 0.086063094 0.20942241 -0.05161478 0.3045826 0.2427801 0.005044033
0.23199801 -0.006255825 -0.059137885 0.11730547 -0.074945405 0.076679885 0.03944982 -0.12536098
0.25292778 -1.0216055 0.12963994 0.08548601 0.021091728 0.058923304 -0.3659503 0.046530183
-0.21548913 0.28125435 0.1315537 -0.015151681 -0.78159183 -0.24377151 0.17879668 0.15033326
0.18963547 0.1567843 0.08527155 0.28379765 -0.8869581 0.05719968 -0.025221063 0.5310798
0.1688363 0.23139645 -0.0006847598 0.20730522 -0.00035226336 0.11665213 -0.42385742 0.009564457
0.09261223 -0.4378313 0.06886323 0.19911069 0.12218119 0.15265344 0.01699826 -0.2671667
-0.5284489 -0.13645005 -0.48788035 -0.16705184 0.09992704 0.2542361 0.31064156 0.17387688
0.24859896 -0.07224384 0.101065606 0.17292947 -0.38135567 -0.042786583 -0.059417572 0.233803
-0.19630986 0.2501015 -0.317545 0.15596694 0.22829056 0.06262309 -0.21926187 0.30893886
0.21039599 0.020239657 0.3372621 0.044840064 -0.017925484 0.049874093 -0.14453664 -0.53366864
0.4625052 -0.33011377 -0.68734866 -0.972122 -0.7183146 0.13982032 0.3317622 -0.07171324
0.36360398 -0.050726008 0.14970458 0.05496612 0.53797674 0.028695429 -0.98415184 -0.26322895
-0.4040612 -0.09460475 -0.45231447 0.2659728 0.08731305 0.31366777 0.0317084 0.4160627
-0.7238934 0.10128321 -0.07428465 -0.18722261 -0.0027224019 -0.5209481 0.5397538 0.031575765
0.07192833 0.04624967 -0.40328032 -1.2507408 0.19965461 0.1979348 0.11055608 -0.08237259
-0.003188272 0.0067474577 -0.08817874 -0.85884905 -0.08186208 -0.75587225 -1.0055676 0.4246545
0.07840566 0.006348169 -0.0714659 0.14333443 0.073101714 0.01555911 -0.059383392 0.34433404
-1.3782407 -0.2790426 0.04014191 0.28600663 0.25133064 -0.03268903 0.13228793 0.07114421
0.15182462 -0.61535984 0.28090483 -0.70854086 0.40729427 -0.088993326 0.112659425 0.2235643
-0.86941123 0.36646634 0.098643206 -0.9836738 -0.481951 0.23472662 0.24639839 -1.4032733
-0.12909085 -0.2987603 0.07363525 -0.47502053 -0.08071429 0.27224582 -0.97141415 -0.044765126
0.24345036 0.06294428 -0.06696796 -0.9664029 -1.0222279 -0.14929882 0.2413983 0.13964172
-0.80931616 0.29890192 0.2433665 0.39495453 -0.6560046 0.12979074 -1.4998407 -1.1149992
-0.3811498 -1.6004896 -0.40714526 -1.1659501 -0.045101073 0.22715978 -0.060397707 -0.69842416
0.21255103 -0.14032823 0.086970605 0.20433779 0.281977 -0.041928023 0.10732099 -1.5738099
0.21168888 0.10688698 -0.75636005 -0.25923312 -0.13334984 -0.020357497 0.1759794 -0.023094764

value_stream.0.bias f4 [128]
00000000: d7e7 52bc 4a00 013e b163 3c3e 72b9 f53d
00000010: 3ea1 ec3d d98f 883e 6627 523e 38aa 043e
00000020: 9a2f 07bd a78b 383d 5af3 3c3d 58b8 9f3d
00000030: 0897 003e 95ca df3d 0cdf c63d 1ded b93d
00000040: 60e1 4f3e 9893 533e 302e d03d 8198 833e
00000050: 5d74 c53d f1d0 103d 9a6b 333e 5c47 533e
00000060: f887 a0ba 8d2c 5e3e a136 c53c 39a1 703e
00000070: b1cf b1bd 0345 6e3e 6ded 0f3e f525 2c3e
00000080: 0255 883d 4d63 103c be7a c13d 0c8f 18be
00000090: aa12 f63c a8f3 713e 8872 673e 7ff9 733e
000000a0: 6af3 fc3d cf31 3f3d e8d8 59bd df05 263e
000000b0: fc8e 303e f717 2d3e 28ea 483e e92f b2bd
000000c0: a968 4ebc 15ce dd3d 7fe2 fcbc a90a 163e
000000d0: 5836 4fbd 68f6 d73d 51f6 3f3e b8d0 8bbd
000000e0: 144d 363e 74b4 413e 2a28 563e d0c9 473d
000000f0: aa19 c7bc 942b 36bd cde4 88bd 8663 833e
00000100: b1b1 a53c 5221 6ebd 3975 483e d1bc 763c
00000110: 29b8 9bbd e888 413e 5093 96bd 2f84 db3d
00000120: 713b c33d 61ef 3c3e edff 243e 7d33 263e
00000130: 262a 383e 3c85 0f3e 66ba 5d3e 036d 493e
00000140: 8f90 153e caf7 1c3e b549 ff3d aeb1 853e
00000150: 8f01 203e 829a 063e 88bb 0ebd 03fa 463e
00000160: 10a8 123e e76e 553e eb63 593e 9c25 96bc
00000170: 2923 ab3e c139 3e3e b977 833e 5ab1 333e
00000180: 748d 923d cdf9 333e 6215 6a3e f30f 733e
00000190: 12ba 923d 4d2d 2d3e 00ed 5f3e cb95 313e
000001a0: b8c3 7b3e 06d5 a53d 4766 333e 9b17 af3d
000001b0: 3752 17bd 95e1 75bd 9048 4e3e 42bb 1c3e
000001c0: 5616 fa3d 49f2 b33e 0a0b 823e 797c d6bc
000001d0: 3248 173e d53b 8a3d 4fad 1cbd be03 b73e
000001e0: cd07 913c 111c b0bc d1b3 3e3e e1e2 da3c
000001f0: dacb 283e 2185 4e3e fcd8 5e3e 34ae 5a3e
-0.012872658 0.12597767 0.18397404 0.119982615 0.11554192 0.26672247 0.20522842 0.12955558
-0.03300438 0.045055058 0.046130516 0.07798833 0.12557614 0.10927311 0.097105116 0.09078429
0.20300817 0.20661771 0.101650596 0.2570229 0.09641335 0.035355512 0.17521515 0.2063269
-0.0012247553 0.21696682 0.0240739 0.23499002 -0.08682192 0.23268513 0.14055414 0.16811354
0.06656839 0.008812738 0.09447239 -0.14898318 0.030038197 0.23628104 0.22602284 0.23825644
0.12351115 0.04667836 -0.053185374 0.16213177 0.17242044 0.16903673 0.19620574 -0.087005444
-0.012598195 0.10830323 -0.03086972 0.14652504 -0.050588936 0.10545045 0.18746306 -0.06826919
0.1780284 0.18916494 0.20913759 0.048776448 -0.02430423 -0.044475153 -0.06684265 0.25661868
0.020226331 -0.058137245 0.19575967 0.015059666 -0.07603485 0.18899882 -0.073523164 0.107185714
0.09532822 0.18450691 0.16113253 0.16230579 0.17984828 0.14015669 0.21653137 0.19670491
0.14605926 0.15328899 0.124652304 0.2611212 0.15625595 0.13144878 -0.034846812 0.1943131
0.14321923 0.20843087 0.21229522 -0.01832848 0.33425263 0.18576719 0.2567728 0.17548123
0.07155886 0.1757576 0.2285972 0.23736553 0.07164396 0.16911812 0.21867752 0.17342298
0.2458638 0.080972716 0.17519484 0.08549424 -0.03694364 -0.060029585 0.20144868 0.15305808
0.122112915 0.35145786 0.25399047 -0.0261824 0.14773634 0.06749693 -0.038251217 0.35745043
0.017703915 -0.021497758 0.18623282 0.026719512 0.16484013 0.20167972 0.2176246 0.21355516

value_stream.2.weight f4 [1, 128]
00000000: d8d9 09bf 3687 d7bf 5214 c9bf ddb3 fcbf
00000010: fa11 0e3f 4141 b5bf 8eb2 fbbf f5c5 943f
00000020: 91c7 d13f 4b26 dabe 2947 00c0 ca9e b8bf
00000030: 6998 fa3e 0e06 143f 4287 0d3f 0086 f53e
00000040: 8f79 ffbf 4b9c f13e c0f7 c4bf b786 cbbf
00000050: 68bf d5bf 5358 06bf da39 d7bf 383b 00c0
00000060: fbeb 4ebf b38a db3e b008 343c 6b9b 0f3f
00000070: c9b1 013d 6214 b2bf 5391 edbf f6a9 043f
00000080: bf0e 033f b325 8f3c 3bb1 913f 5906 d83f
00000090: 8764 4ebf 87ac b2bf 57ce fa3e 4fe6 c9bf
000000a0: de1f 183f 5abe e6bc 8fc4 ca3c 81b5 0b3f
000000b0: 46b8 a3bf 3bb0 cabf 55a4 d9bf 2118 f53c
000000c0: 2e94 a93d a427 b6bf 5b3d e53b 1306 01c0
000000d0: afd6 6ebc d18e b6bf 39e0 fc3e d220 a13d
000000e0: 367a cebf f20c 0f3f 6b69 083f ee69 363f
000000f0: cafe d8be 53ca 08bf 700f 00bf 673e a0bf
00000100: 3cde f9be 0fd6 8bbd 7df8 0d3f 78d0 0fbf
00000110: 3046 16bc 4259 f3bf 5f86 07bd 13e6 823f
00000120: 284e d1bf 0bed 163f 73e7 e93e da7a 0d3f
00000130: b377 f7bf bd15 113f cb96 d9bf 3234 c8bf
00000140: 2fb0 00c0 fed7 0a3f 05c6 fd3e d157 a0bf
00000150: 7ae1 b5bf cba1 ef3e 41bc a93d ecd4 d1bf
00000160: a319 fcbf 415c ed3e 5b2b 01c0 67e9 acbe
00000170: 0124 a3bf 60d6 febf d1f1 b4bf 1f23 093f
00000180: 766d d9bf 2abc f8bf 96b6 babf 570d d2bf
00000190: 1df3 f03e 5103 023f d800 143f 4291 e6bf
000001a0: 5021 b9bf 757a 1d3f b3b5 fabf ee40 ea3e
000001b0: 9172 993d ef6f a23f e737 e1bf 62b3 0b3f
000001c0: 9b72 003f 2291 9ebf f1e8 abbf 03d1 87bb
000001d0: 10de a6bf 0b2e 893d de7b 00bf 8a18 c5bf
000001e0: 668b 96bf 8d36 6d3c 1474 163f 1cca 263d
000001f0: 01f4 d5bf e136 cfbf 0c28 fb3e 860c cabf
-0.5384803 -1.6838138 -1.5709326 -1.974239 0.5549618 -1.4160539 -1.9663866 1.1622912
1.6389028 -0.4260734 -2.0043433 -1.4423459 0.48944405 0.5782174 0.5528451 0.47953796
-1.9958972 0.47189555 -1.5388107 -1.5900487 -1.6699038 -0.5247852 -1.681453 -2.0036144
-0.8082883 0.42879257 0.010988399 0.56096524 0.03166369 -1.391247 -1.8559974 0.5182184
0.51194376 0.017474031 1.1382211 1.6876937 -0.8062214 -1.3958901 0.4898555 -1.577341
0.59423625 -0.028166939 0.02475193 0.5457383 -1.2790611 -1.5835031 -1.7003275 0.029918732
0.08280216 -1.4230847 0.0069958395 -2.0159957 -0.014577552 -1.4262334 0.49389818 0.07867588
-1.6131046 0.5587913 0.53285855 0.71255386 -0.4238189 -0.5343372 -0.50023556 -1.2519044
-0.48802364 -0.06827938 0.5545729 -0.56177473 -0.009172007 -1.9011614 -0.03308713 1.0226463
-1.6351976 0.5895545 0.45684394 0.5526558 -1.9333404 0.56673795 -1.6999143 -1.5640929
-2.0107534 0.5423583 0.4956514 -1.25268 -1.4209435 0.46803126 0.0828786 -1.6393104
-1.9695324 0.46359447 -2.0182712 -0.33771822 -1.2745363 -1.9909172 -1.4136297 0.53569216
-1.698653 -1.9432423 -1.4586971 -1.6410321 0.4706048 0.5078631 0.5781379 -1.8013079
-1.4463291 0.6151498 -1.95867 0.45752662 0.07492555 1.269041 -1.7595185 0.5457059
0.50174874 -1.2388041 -1.3430463 -0.004144789 -1.3036518 0.06698235 -0.50189006 -1.5398114
-1.1761291 0.014478338 0.5877087 0.04072009 -1.6715089 -1.6188623 0.4905399 -1.5785072

advantage_stream.0.weight f4 [128, 128]
00000000: 9282 4cbd 165e 2d3d d316 adbd d9b3 df3c
00000010: 1445 e7bb f7f0 123d 5457 24bd 72eb 933c
00000020: df28 43bd 22ef 2dbd 65be 253d 4af3 243d
00000030: 3f02 493d 4070 2dbd 0c70 493d 3034 4fbd
00000040: be71 b2bd e963 86bd 510e 57bd 8eb1 75bd
00000050: 3260 66bc 2c29 debc facc ef3c ced3 97bc
00000060: 789c 883d 67ba a63d 2b40 35bd cf25 bdbc
00000070: 6412 90bd 1840 f6bc 208f e7bc 40ac 08bd
00000080: 1a14 36bd faca 8b3d 0af4 57bd 083e 36bd
00000090: 8f4b 59bb f7f8 adbd dfbc 1abc 4028 20bd
000000a0: ebec 5c3d abd8 92bd b58e 173d a5a5 e23b
000000b0: 50fd b13d 147e dcbc abeb 41bd ea67 813d
000000c0: 8fea 42bd 3aa7 86bd dd26 e0bb 03cf 473d
000000d0: d3d7 d2bc e4b3 723d afef bebc 8579 fb3c
000000e0: 27ed 14bd d64f 90bd 4970 7d3d 4fe3 143c
000000f0: 428e 443d c100 67bd 9df0 033d 8fe5 993c
00000100: 257d 03bd cadf 7abd cf8f 70bd 45a0 6e3d
00000110: 1832 8abd 6c44 ab3c a941 763d 477f b1bc
00000120: d86a 473d 0ed1 8d3d 5e3e 6cbd 0ce7 933c
00000130: 7c10 883d b049 a4bd 7346 d6bc b297 863d
00000140: 83a5 9a3d 1f3e 7b3c 85b4 27bc d4f0 993a
00000150: 80cc a63c fb1c b1bd 44a5 d6b9 8670 1b3c
00000160: cbcd 713d c50a 2fba cc0d d13c 342b 97bd
00000170: d42b ffbc ee03 babc f3a4 773d 0488 f7bc
00000180: e69f acbd 0e71 6f3c fdf8 cabc 3057 a13c
00000190: 4cf3 3ebd bf23 6b3d 9a23 a0bd c5db 02bd
000001a0: 2a0e dbbb 8c6f 3d3d 25ee 9b3c 4276 a3bd
000001b0: ac67 b23b b966 86bd 45fa 03bc 50f1 17bd
000001c0: 1f9c 8bbd 591a 62bc bea3 bdbc 357e 6e3c
000001d0: 2d3e 79bd c978 763d d59e 983c 22d4 8fbc
000001e0: 021f 713d 03fb 763b 9e70 503d 6014 503d
000001f0: 9742 1ebd 6be7 943c 6fba 74bd 3db6 f33b
00000200: f253 2dbe fcd4 2dbd 8521 6ebe e9ca 7e3d
00000210: 21e4 2e3d 6662 973d 97a8 a7bc 091c 90bc
00000220: 5c66 533d 9a7b 17bd 591f 473d c73b 883d
00000230: 3df5 493d 58ed 743d 5062 d83d d7bc 8e3d
00000240: 7fae 84bd 3bc7 3abd d7fa 8dbc 72d5 35bc
00000250: a384 b13d c48c 03bd 0b03 9f3d f8cb 073d
00000260: aead cf3e 9ee0 aa3d 744a c43b acc8 c7be
00000270: 13c4 823d 1448 d2bd b724 ec3c bd2a 8abc
00000280: 4c21 e4bc 4a69 9b3d f13a 003c efdc c03d
00000290: b42f 2dbf 45e7 183d be07 14bd da5b 8abd
000002a0: df03 8ebd 423b 713c f47a 453d f2f2 9dbd
000002b0: 4503 8a3d 7b90 efbc dc1b e6bd a985 52be
000002c0: 69c7 683d 040c 23bd 1dbe 153d 9348 c23d
000002d0: 95c8 ad3d 207d 7a3d bee5 afbd 81e7 bd3c
000002e0: 3f6e ed3b 53a5 a1bd 9dbb f4bc 2d90 f3bc
000002f0: b57c 353d 3ed1 5ebc b7df 743c 872c 97bd
00000300: ac85 cf3c 5edf 5c3d 441c 5cbd 92f1 b53d
00000310: e522 bebd 1ecd aebd 5536 7e3c bbd2 12bd
00000320: 68ed 8b3d 5f44 68bd 8b81 8dbc ecac 96bd
00000330: abfc 363e 8d27 bb3d 4c4a 54bd d45e 16bf
00000340: 383b b1bc 4b36 40bd 0462 4bbd b24e 30bd
00000350: 698b ca3c bb80 98bd 3f6c 82be 46b5 4cbd
00000360: 6958 0c3d e529 10bd a885 aabd 395a 34be
00000370: 925e 69bd e306 aabc 2d72 6abd d332 0ebc
00000380: e3e0 8bbd d4c3 e23b ca9a b8bd f435 36bd
00000390: df99 053c c5b1 77bc ec51 aa3b 22d6 8ebd
000003a0: 9c86 5bbf 3ac9 a93d 583d c6bd 8c86 a8ba
000003b0: b254 83be b4bd 583d e21d 233d 17ea bebd
000003c0: 1c2f e33c 60af 233e 9334 313c 7b15 a73c
000003d0: 8a3b 03bd 0636 683c 4e88 143d a8f0 c7bd
000003e0: a83b bb3d 05ba 953d f80d d3bd c114 673d
000003f0: 35cc e13c e0e9 8fbd 81ab 3e3d 982d c4bd
-0.04992921 0.042326055 -0.08451619 0.027307438 -0.0070577953 0.035874333 -0.040122345 0.018056605
-0.0476464 -0.042464383 0.040464777 0.04027108 0.049074408 -0.042343378 0.04917912 -0.05058688
-0.08713101 -0.06562025 -0.052503888 -0.059983782 -0.014061021 -0.027119242 0.029272545 -0.018533614
0.06670469 0.08141022 -0.04425065 -0.023089318 -0.07034758 -0.03005986 -0.02826649 -0.033367395
-0.044452764 0.06825824 -0.05272297 -0.04449275 -0.0033156609 -0.08494752 -0.009444444 -0.039100885
0.05393688 -0.071702324 0.03700133 0.006916719 0.08690894 -0.026915587 -0.04734389 0.06318648
-0.047586974 -0.06574865 -0.0068405704 0.048781406 -0.025737679 0.05925359 -0.02330765 0.030697593
-0.03635898 -0.070464775 0.06187466 0.009087398 0.04798723 -0.056397203 0.03221189 0.01878622
-0.03210177 -0.061248578 -0.058730897 0.058258314 -0.06747836 0.02090665 0.060121212 -0.021667136
0.04868588 0.0692464 -0.057676665 0.018054508 0.06643769 -0.08021867 -0.02615664 0.06571902
0.075511 0.015334635 -0.01023591 0.0011744746 0.020361185 -0.08648106 -0.00040940393 0.009487277
0.05903415 -0.0006677325 0.025519274 -0.07381287 -0.031148829 -0.022706952 0.060460042 -0.030216224
-0.08428936 0.014614357 -0.02477693 0.019694895 -0.046618745 0.057407137 -0.078192905 -0.03194787
-0.006685038 0.046248958 0.019034455 -0.0798154 0.0054444876 -0.065625615 -0.008055274 -0.037095368
-0.06816887 -0.013800227 -0.023149367 0.014556457 -0.06085031 0.060173783 0.018630425 -0.017557207
0.058867462 0.0037686236 0.05088865 0.05080068 -0.038637724 0.018176755 -0.05974811 0.007437496
-0.16926554 -0.042439446 -0.23254974 0.06220523 0.04269803 0.07391815 -0.020466132 -0.017591493
0.05161129 -0.03698311 0.04861388 0.066520266 0.049306143 0.05979666 0.105656266 0.06969612
-0.06478595 -0.045600157 -0.017331524 -0.011098253 0.086678766 -0.032116666 0.07764252 0.033153504
0.40562195 0.083436236 0.005990321 -0.39020288 0.063850544 -0.10267654 0.0288261 -0.016866082
-0.027847908 0.07588442 0.007826553 0.0941714 -0.67650914 0.03732993 -0.036140196 -0.067558005
-0.06934332 0.014723601 0.04821296 -0.07712354 0.06738905 -0.029243698 -0.112357825 -0.205588
0.056830797 -0.03980638 0.03655826 0.09486499 0.084855236 0.061154485 -0.08588742 0.023181679
0.0072458084 -0.07892861 -0.029874617 -0.029731834 0.044308383 -0.013599692 0.014945916 -0.0738154
0.025332294 0.053923957 -0.053737894 0.088839665 -0.09283999 -0.08535217 0.015515883 -0.0358455
0.06832391 -0.05670583 -0.017273685 -0.07357201 0.17869823 0.09138403 -0.051828668 -0.58738446
-0.021634683 -0.046926778 -0.04965402 -0.0430438 0.024724679 -0.074464284 -0.2547321 -0.049977563
0.034264002 -0.035196204 -0.08326274 -0.17612542 -0.056974955 -0.020755237 -0.057237793 -0.00867911
-0.06830003 0.006920317 -0.09013899 -0.044485047 0.0081543615 -0.015118067 0.005197754 -0.06974436
-0.8575227 0.08290334 -0.09679669 -0.0012857481 -0.25650555 0.05291529 0.03982342 -0.09321993
0.027732424 0.15984869 0.010815757 0.020395985 -0.032039203 0.014173036 0.036262803 -0.097626984
0.09142238 0.07310871 -0.10305399 0.056416277 0.027563194 -0.0702703 0.046550278 -0.09579009

advantage_stream.0.bias f4 [128]
00000000: 5224 7ebd 587a 0abd 3d25 17bd 9435 5e3d
00000010: 40b5 72bc 0a01 313e 41ee 8c3d b21d 1f3b
00000020: 31a2 833b 55e2 c23d cdfe 7dbd e0a9 8c3c
00000030: e439 8e3d 4122 1abe 1f1f 3fbd bb41 7d3c
00000040: 3a3d 1ebd 512f 8c3c fd0e 833c 58d0 0d3d
00000050: 6f49 a63d df4b 193d 8f43 d0bd 104b 303d
00000060: 3308 3e3d 6dcb b7bb 8f3e a43b 7cec 813d
00000070: 3eb7 543d 73bd b93d 3503 8c3d bd83 523d
00000080: 6c71 09bd fe76 43be 536d 7cbd 2b4a 013d
00000090: c340 0b3d 1c18 ff3d 151e 4dbb 6464 583d
000000a0: 00b0 893d 5637 95bc 6794 34bd 7dcd aabc
000000b0: 3e77 2e3c 0523 aabd 616a 4b3d 0fb4 31bc
000000c0: d93f 863d 7349 61bc 3145 123d 7e05 07bc
000000d0: 7b75 c8bd e501 30bc c5aa 463d 2bb8 68bd
000000e0: 39f0 8c3d 3fdb 123d 66dd 75ba 4d22 263d
000000f0: 7fef 81bc 403a 9cbc 0748 26be af6c ea3d
00000100: 0502 6cbd d6f0 fe3d 5e87 07bd e410 fd3c
00000110: 39c7 a1bd e8ef bd3d 334a 4f3d bc96 613d
00000120: 540a be3c 4c6b 3fbd 38ac e13d 9264 713d
00000130: e633 8f3d fdba a83c 67eb 993d 8ac4 f83d
00000140: 1297 d6bd 4c83 5abd fdd0 3e3d 7908 1a3d
00000150: ce03 bebc 0c42 e0bd de27 86bd 9c7b f5bc
00000160: 32a5 063e 6353 5b3d 5956 ce3d fb53 ec3c
00000170: 8a6a 283d 2c1d 0c3d ab09 2e3d 76b0 043e
00000180: b176 2f3e 09e4 2f3d 3666 e33c e21e 77be
00000190: 20b8 743c 8be3 4a3d 238c 8d3d 9aa8 d03c
000001a0: bc68 ce3d c0ac 5d3a fcc3 acbc 2a79 123b
000001b0: 5c1b 333d d367 8cbd 65bb de3d bae3 28bb
000001c0: 3ec4 eb3c 92a3 ca3d 42dd 453d dfe2 df3d
000001d0: 9e00 083e 7dd2 ba3c 2b69 68bd 7066 2fbd
000001e0: b7e4 0f3d 84f7 883d 6bd8 6dbd 0091 89bd
000001f0: d35c a2bd dce1 5fbd 837f 133d 77c3 e83d
-0.062046356 -0.033808082 -0.036900748 0.054250315 -0.014813721 0.17285553 0.06881381 0.0024279174
0.0040171375 0.09515826 -0.062010575 0.017170846 0.069446355 -0.1505213 -0.04666054 0.015457566
-0.03863261 0.017112406 0.015998358 0.03462252 0.08119475 0.037425872 -0.10169136 0.043040335
0.046394538 -0.005608967 0.0050123404 0.06343934 0.051932566 0.09069338 0.06836549 0.051395167
-0.033555433 -0.1908836 -0.061627697 0.031564873 0.03399731 0.124557704 -0.0031298448 0.052830115
0.067230225 -0.018214863 -0.04408684 -0.020849938 0.010648547 -0.08307461 0.049661998 -0.010846152
0.06555147 -0.013750422 0.035710517 -0.0082410555 -0.097880326 -0.010742639 0.048502702 -0.05681626
0.06881756 0.03585362 -0.0009378999 0.040560056 -0.015861271 -0.019070745 -0.16238414 0.11446511
-0.057619113 0.124482796 -0.03308808 0.030891843 -0.07899327 0.09274274 0.05060787 0.055075392
0.023198284 -0.046733186 0.11019176 0.058933802 0.06992321 0.020596975 0.075156026 0.12146862
-0.10478033 -0.05334787 0.046586026 0.037605736 -0.023195174 -0.109500974 -0.06550573 -0.029966168
0.13148955 0.05354632 0.10075063 0.028848639 0.04111723 0.034207508 0.04248969 0.1295794
0.17135121 0.04294208 0.027758699 -0.24132875 0.014936477 0.049533408 0.069114946 0.02547102
0.1007857 0.0008456223 -0.021089546 0.0022350051 0.043727264 -0.068557404 0.108755864 -0.0025770501
0.028780099 0.0989448 0.04830671 0.10931944 0.13281485 0.022805447 -0.05674092 -0.0428223
0.03513023 0.06687835 -0.05806772 -0.0671711 -0.07927861 -0.054658756 0.036010277 0.11365407

advantage_stream.2.weight f4 [3, 128]
00000000: c978 673d 9e29 c13d e432 263e 0eae 29bd
00000010: d7a3 0bbd 6acd e13b d847 283e 86f7 5c3f
00000020: 8cb4 ad3b 4308 423e bf99 0240 7452 94bf
00000030: 0ce9 d53c b175 bdbf c854 25bd a62a 18bd
00000040: 6a6a 193d ba8a afbd 7b7c 153e f85e 183b
00000050: d8a5 e8be 2ad2 b5bc c6d3 61bf 4dd5 7ebe
00000060: 996b a1bd ae02 a33e e1f0 dbbe 04f4 a13d
00000070: b2a9 6c3d 460e 363d c7ed 883d dc52 883f
00000080: 09f2 363d 43e8 cbbf 672c bd3d c140 f73d
00000090: ef36 9fbd 43b5 9e3d 104c 473f 539b 93bd
000000a0: 046a aabc 7aeb a7bd af6c 97be d4f0 203e
000000b0: d1bc 003e 04a9 60bd adb0 9dbd ee8f 9d3d
000000c0: b00b 84be 01e7 313e 143e 293e 3e6f b5be
000000d0: d564 4dbf 1dae b03d 7d89 f23d 3025 873d
000000e0: 4dae 0540 e29d bb3e 08fc 3a3e f586 0fbf
000000f0: 38c5 2c3d 6a4c 81be a1d3 91bf a80c 0f3e
00000100: 58f3 64bd d788 3b3e e9f6 323b 3b98 2a3e
00000110: b621 acbd 0f94 88bd e2f8 4a3e 8a43 e83d
00000120: c0ad a73c 9bbc c33d 5e89 11bd 5d6c 9fbc
00000130: b2d6 ba3c a8d0 12bf 5188 563d 055c d33d
00000140: 2baf 80bf 59e1 063e 5af5 6ebd a4ce 1ebc
00000150: ba51 203d f28c e4bf 5a8c 273d f4d0 c73d
00000160: 9d10 fa3d 2273 d6bd 9ce3 b5bd 92c5 87bd
00000170: 78b6 eabd 5ffa a0bd 0882 d83d 8e63 2d3d
00000180: b67c e33d 6057 b03d dd63 053e 59fe d9bf
00000190: 1053 46be 853f 4c3d 6abc f03c 1128 853e
000001a0: aa30 0d3e 6a16 5b3c 4f95 c4bb 9c21 ee3d
000001b0: b92d da3d 6a54 5cbd bc4a 093e a36d 2c3e
000001c0: a5e7 813d ac61 ef3e a758 413e 3d2a 543e
000001d0: b08a d8be 21c4 e83d 1baa 323c f207 46bf
000001e0: 4348 353d e0ff 84bb a9cb 40bf 1a04 263c
000001f0: a22a 923d 7501 a13d a6ea c43c 369b 88bd
00000200: 2849 9bbd 2f0c 4bbe a66f dc3e 0e43 5d3c
00000210: 06c7 213d 0643 9cbe aa76 e1be 6ae6 b1bf
00000220: 5cd9 b63e 8910 dcbe 700f 763f 1d9f a33f
00000230: 615d c7bf 47f8 f33f ea28 4e3c fc4d f03c
00000240: f76e afbe 22c6 963d 993c 0c3e 6bd3 c4be
00000250: b059 c43f e56d 993e 3f42 b33f a7a5 e63e
00000260: c941 1dbc d256 433f 447f a83f 3bef c83e
00000270: a380 2c3f 7070 943e e0f8 e3be 6cb2 81bf
00000280: ae25 8cbd 0ecd d63f decc a93e eb74 da3d
00000290: 89f3 6abe 8552 79bf 92f0 a53f 9008 7abf
000002a0: 15c1 8f3d e125 543d 5b50 353f c1f5 90be
000002b0: d85f c93e 672a 843d ed98 8bbd 958e ec3d
000002c0: ffca 9b3e c529 cdbe ac7c 4a3f 4108 023f
000002d0: 7f5d 89bf 0f96 9abf 69dc debe 4ce4 203d
000002e0: dc44 013f ce46 653f b228 253f fe3d 103f
000002f0: 20c3 bd3e ad0f 6a3f dfc4 ee3f 0734 8b3e
00000300: 969b a23d 6d40 e8be e80a 3cbd 3ee3 01bf
00000310: 2c72 b0bd 14aa ae3e a3e3 22be fd48 92be
00000320: 04c9 d13e 66bd a53e a2d8 a73e 3095 ffbe
00000330: b8f7 e43e cd43 a73f 21af c93e 62c1 c5be
00000340: 953b ef3f e782 f9be 8ff3 9a3f 50a7 553e
00000350: d6d7 bc3e d226 993f 4392 943d f5e7 4a3e
00000360: 98da dcbe f660 2b3f c856 b93e 662f 96bd
00000370: 82df bcbe 742e 813e 9d7b dbbe 809e 96be
00000380: bea5 dfbe 4ed4 963e 96f7 663d 49a6 0040
00000390: c36c 723f f140 a03c 584f 8e3e b2f1 8cbf
000003a0: e64c a6bd 2b4f 023d 6675 cc3e f859 a23e
000003b0: 3193 c23e b107 133c 2be7 703e dd8f 5f3e
000003c0: 8841 90be c98c 8dbf 92f5 883e f551 e5be
000003d0: b68c 43bf 1ff0 943e 3934 c43e cd74 91bf
000003e0: bb84 ca3e 4a3e a3be 235a e83f df88 323d
000003f0: 9c61 58bd f3d7 b83e 19dd 9f3e c889 b33e
0.056511674 0.09431766 0.1623035 -0.041425757 -0.034091797 0.0068909423 0.16433656 0.8631519
0.005301064 0.18948464 2.040634 -1.1587663 0.026112102 -1.4801542 -0.040364057 -0.037150048
0.037455 -0.08571382 0.14598267 0.0023249965 -0.4543903 -0.02219494 -0.88213766 -0.24886055
-0.07881851 0.31837982 -0.42957214 0.079078704 0.05777902 0.044447206 0.066859774 1.0650287
0.044664416 -1.5930256 0.09236985 0.12072898 -0.077741496 0.07749417 0.7785044 -0.0720736
-0.020802505 -0.081992105 -0.29575107 0.15716869 0.12572028 -0.054848686 -0.07699714 0.07693468
-0.25790167 0.17373277 0.16527587 -0.35436434 -0.8023198 0.086269595 0.1184263 0.0659889
2.0887635 0.36643893 0.18260205 -0.56065303 0.04218027 -0.25253612 -1.1392709 0.13969672
-0.055896133 0.18313919 0.0027307814 0.16659634 -0.08404867 -0.06668865 0.19821504 0.11341007
0.020468593 0.09557458 -0.035531394 -0.019460851 0.022807453 -0.57349634 0.052376095 0.10320286
-1.0053457 0.13171901 -0.058339454 -0.009692822 0.03914044 -1.7855513 0.040905334 0.097566515
0.122102 -0.104711786 -0.08881304 -0.066294804 -0.114605844 -0.078602545 0.105716765 0.04233127
0.11107771 0.086104155 0.13026376 -1.7030746 -0.19367623 0.049865264 0.029386718 0.2600713
0.13788095 0.013372043 -0.0059992443 0.11627504 0.10653252 -0.05379144 0.13407415 0.16838698
0.06343011 0.46754205 0.18881474 0.20719238 -0.4229331 0.113655336 0.010904814 -0.77355874
0.044258367 -0.004058823 -0.7531076 0.010132814 0.07137038 0.07861606 0.02403767 -0.06670229
-0.07582313 -0.19828866 0.4305393 0.013504757 0.039496444 -0.30519885 -0.44035846 -1.3898442
0.35712707 -0.42981365 0.96117306 1.2782933 -1.5575372 1.9060143 0.012582997 0.02933406
-0.34264347 0.073620096 0.13694991 -0.3844255 1.533987 0.29966655 1.4004592 0.45048258
-0.009598204 0.7630435 1.3163838 0.39245018 0.67383784 0.28992033 -0.44525814 -1.0132575
-0.06843124 1.6781328 0.33164114 0.106668316 -0.22944464 -0.9739154 1.2964041 -0.97669315
0.07019249 0.051793937 0.7082574 -0.28312495 0.39330935 0.064534 -0.06816278 0.11550633
0.3042831 -0.4007093 0.79096484 0.50793844 -1.0731658 -1.2077044 -0.43527535 0.03928022
0.50495696 0.89561164 0.6451522 0.5634459 0.3706293 0.9143017 1.865383 0.2718813
0.07939832 -0.45361653 -0.04590884 -0.5073737 -0.086155266 0.34114134 -0.15907149 -0.2857131
0.40973675 0.32371062 0.32782465 -0.4991851 0.44720244 1.3067566 0.39391425 -0.38624102
1.8690058 -0.48732683 1.2105578 0.20864606 0.3688342 1.1964972 0.0725446 0.19815047
-0.43135524 0.66944826 0.3619902 -0.07333259 -0.36889273 0.25230753 -0.42867747 -0.294178
-0.4368114 0.2945885 0.05638846 2.0101492 0.9469721 0.019562216 0.2779491 -1.101126
-0.08120136 0.03181378 0.39933318 0.31709266 0.38002923 0.008974002 0.23525684 0.21832223
-0.28174996 -1.1058589 0.26749855 -0.4478909 -0.7638658 0.29089448 0.38321093 -1.136377
0.3955439 -0.3188346 1.8152508 0.04358756 -0.052827463 0.36102256 0.31223372 0.35066056

advantage_stream.2.bias f4 [3]
00000000: 37e7 403d a1c7 de3d 4a73 7b3c
0.047095504 0.1087792 0.015347311
