game/model/models/q_net_250_800_128_64.pkl (torch, 107932 bytes, 8 tensors)

net.0.weight f4 [128, 8]
000000 e9 65 89 be ef 16 86 be d4 b7 87 be 5b d4 bd 3d
       -0.26835564 -0.26189372 -0.26507437 0.09269019
000010 71 33 87 bd 39 1c 9a 3e 30 f2 06 be 78 ea 01 3e
       -0.066016085 0.30099657 -0.13178325 0.12687099
000020 18 9e a4 3d d5 8f 8c 3e 2f 43 eb bd ce 39 c0 be
       0.080379665 0.27453485 -0.11487424 -0.375441
000030 f9 69 c8 3d 05 9b d4 3f 22 b3 e0 bf 96 cb d4 be
       0.09785838 1.6609808 -1.7554667 -0.41561574
000040 07 70 66 be bd 63 a8 3e a8 62 8a be 96 35 18 3f
       -0.22503673 0.32888594 -0.27028394 0.59456766
000050 92 20 ed 3e cc ff 0a c0 99 9f 90 3e 53 3a 03 40
       0.46313912 -2.1718626 0.28246763 2.0504348
000060 93 f8 2b bd 32 57 10 be 3c 39 08 3e ae 51 73 3e
       -0.041985106 -0.14095762 0.13303083 0.23761627
000070 6a ab ce 3e ad ba 88 bf 5b 08 c4 3e 51 b4 41 3f
       0.40365154 -1.0681969 0.38287625 0.75665766
000080 23 14 1e be 03 7a dd 3e 0b 9d b2 be 14 67 23 bd
       -0.15437369 0.4325715 -0.3488544 -0.039893225
000090 83 6b d7 3e 4d 20 94 bd ea a4 13 be 53 49 e9 3f
       0.42074212 -0.072327234 -0.14418378 1.8225502
0000a0 e8 b8 19 3d 09 ca c1 3e fd a8 86 be aa 6e 41 3e
       0.037529856 0.37849453 -0.26300803 0.18889871
0000b0 fd 94 9f bd 6c 14 9e bf 2e 71 4d 3b ff 8e 83 3f
       -0.07792089 -1.2349982 0.0031347978 1.0278014
0000c0 f1 74 d2 bd 3b d6 b5 bd c9 5e 59 be 87 4c de bd
       -0.10276211 -0.08878752 -0.21227564 -0.1085444
0000d0 9e 0d bc bd 67 c3 db bd 22 00 a4 be 28 aa a1 3e
       -0.09182285 -0.107306294 -0.3203135 0.3157513
0000e0 bd 3f 06 bf 38 3b ba 3e 58 dc 8a be 7a a8 e5 3e
       -0.52441007 0.36373305 -0.27121234 0.448551
0000f0 d2 e5 75 3e 6b d1 92 bf 4b 4b 09 3f fb fa 4d 3f
       0.2401345 -1.1470159 0.5363051 0.8046109
000100 cb 4c 8d be 19 cf 23 be 97 a0 d9 bd 5f 8a 63 be
       -0.2759765 -0.1599697 -0.10626333 -0.22220753
000110 11 e1 98 3e 15 c1 ab be 2d ec 80 be a8 bd 16 3e
       0.29859212 -0.33545747 -0.25180188 0.14720786
000120 3e cd bf bd 80 33 66 bd e1 fb a5 3e 8b e3 fb 3d
       -0.09365319 -0.056201458 0.3241873 0.1229926
000130 0f 03 c6 3e 72 b3 69 bf 7f 50 27 3d 58 01 25 3f
       0.3867421 -0.91289437 0.04084825 0.64455175
000140 eb aa ab be b0 2e d4 3e 0a 90 ab be 11 ac 05 3f
       -0.33528838 0.4144187 -0.3350833 0.5221568
000150 8f d0 3f 3e 72 09 5d bf 72 9c 5a be b3 61 e7 3f
       0.18731903 -0.8634254 -0.21348742 1.807669
000160 f3 50 d2 3d e3 76 a9 3d a4 88 89 3e 3a ba 28 3d
       0.10269346 0.08274629 0.2686206 0.041193224
000170 be 22 00 3e f3 1d 80 3f f0 65 97 be 4f 91 ab be
       0.12513253 1.000914 -0.2956996 -0.335093
000180 fa 16 24 bf b5 be d9 3e 57 af af be 1e 51 1c 3e
       -0.6409756 0.4252831 -0.3431346 0.15265319
000190 35 a5 f2 3d 9d 0b cc bf ec 7b 89 bd 28 e7 0d 40
       0.11847917 -1.5941044 -0.06713089 2.2172337
0001a0 d1 ce 95 3e 3d a3 ad bd b1 60 f0 3c d1 ff 80 3c
       0.2925935 -0.08478401 0.029342981 0.015746983
0001b0 93 35 48 3d d5 1e 22 40 1a f0 a5 c0 80 76 89 3f
       0.048879217 2.5331318 -5.1855593 1.0739288
0001c0 3c ef 8d 3d ec 2f 4d be 36 e5 ae be c9 07 73 3e
       0.06930396 -0.20037812 -0.3415925 0.23733439
0001d0 fb cc 01 be e1 48 28 3e 24 e2 a2 3e b3 83 82 bd
       -0.1267585 0.16434051 0.31813157 -0.06372776
0001e0 05 b2 bc bf 6f c7 0f be 00 39 24 3e 92 4f 09 3c
       -1.4741827 -0.14040922 0.16037369 0.008380787
0001f0 3b 6f 92 3e 6f 9b 91 3f 2e 0e f5 bf ae c9 41 3f
       0.28600487 1.137556 -1.9144952 0.75698364
000200 51 d8 8a be 95 15 b6 3d f8 e2 85 be 4d d6 65 3e
       -0.2711816 0.08890835 -0.26149726 0.2244503
000210 87 d8 01 3e 31 02 34 3e 3e 4b 93 3e 4b a9 ea 3d
       0.12680255 0.17578961 0.28768343 0.11458071
000220 33 2e ee 3e ee 7f b0 3e 50 97 8c be 9c ee cf be
       0.46519622 0.34472603 -0.27459192 -0.40611732
000230 f0 fe 66 be a7 b0 01 bf 29 70 ef 3f 81 ed 40 bf
       -0.22558188 -0.50660175 1.8706104 -0.753624
000240 30 22 52 be cd 79 d3 3e bd ac c2 be 13 04 f3 3e
       -0.20520854 0.41303864 -0.38022414 0.47464046
000250 59 b8 34 3e fe 92 22 c0 7d 4f 0c 3f a6 30 35 40
       0.17648448 -2.5402217 0.5480879 2.8310943
000260 7b 6c ad 3d 3d f9 24 be ac 4e a9 be d6 e7 86 be
       0.08467957 -0.16110702 -0.33067834 -0.26348752
000270 e4 46 5e be c6 0f 98 3d 38 30 13 3e ee 30 e4 3c
       -0.2170673 0.074248835 0.14373863 0.027855363
000280 fc d7 00 3e 0c e8 69 bd 41 fa ec be 87 e4 8f 3d
       0.12582392 -0.057106063 -0.4628468 0.0702601
000290 6b fc cf be f1 d0 d9 be c3 83 54 bf d6 9a 2e 3f
       -0.40622267 -0.42542222 -0.8301355 0.6820501
0002a0 f2 57 38 bf a7 76 80 be 94 b8 8a 3e b1 c5 50 3e
       -0.72009194 -0.25090525 0.27093947 0.20387913
0002b0 cb c5 b4 3e 12 b4 fe bb 73 2b 89 3c 71 5f b2 3f
       0.35307154 -0.007772931 0.016744351 1.3935376
0002c0 03 5d b7 bc 21 aa 0f be 60 fe 1c 3e 1d 0c 94 3e
       -0.022383219 -0.14029743 0.15331411 0.28915492
0002d0 32 2c a1 3e 02 09 7c be ef 0a 18 c0 74 e5 e1 3f
       0.3147903 -0.24612811 -2.3756673 1.7648149
0002e0 7c 5e b0 bd f5 e9 f5 bc 87 e7 a4 3d 6f f4 f4 3e
       -0.086117715 -0.030018786 0.08051973 0.47842738
0002f0 94 ab 08 3f b3 00 54 bf 3f 7b 8a 3d 74 90 05 3f
       0.5338681 -0.82813567 0.067617886 0.5217354
000300 4d 77 2b be 0f 11 63 be b7 cc 87 be 22 12 15 be
       -0.16744728 -0.22174476 -0.26523373 -0.14557698
000310 02 b4 5a bc fd e9 24 bd 06 1f 70 be f7 b3 12 be
       -0.013348581 -0.04026221 -0.23449335 -0.14326464
000320 db 99 84 3e 13 dc 04 3e ea 58 5b 3e 94 2e f7 be
       0.25898632 0.12974577 0.21420637 -0.48277724
000330 cc 3b 76 3a 71 4a 09 bf 26 59 52 3f 32 e7 9e bf
       0.00093930657 -0.53629214 0.8216728 -1.2414305
000340 57 46 45 bd 08 df 8d 3e a5 ff c5 3d 44 dc 4b 3e
       -0.048162784 0.27709222 0.09667901 0.19908243
000350 fc f5 c5 3d 19 2a 87 be cc c2 63 3e 3c da 0f 3f
       0.096660584 -0.26399305 0.22242278 0.56192374
000360 62 e8 70 be da d4 93 be da e4 e5 3c a7 66 20 3e
       -0.23526147 -0.2887333 0.028063226 0.15664159
000370 69 1b 86 be 12 6b 6e bd 60 dd a3 be 02 d3 c5 3d
       -0.26192787 -0.05820758 -0.32004833 0.09659387
000380 92 7f d4 be ff a9 13 be 29 5b 4a 3e 0a 11 4f 3e
       -0.41503578 -0.14420317 0.19761337 0.20221344
000390 35 54 06 3f ba 4c aa be 95 ec 45 bf 93 df 53 3f
       0.5247224 -0.33261663 -0.7731412 0.8276302
0003a0 2d a3 3a bf f8 59 9c be 16 cf be 3e e7 21 03 bc
       -0.72905236 -0.3053739 0.3726737 -0.008003688
0003b0 df 47 66 3e 80 b9 9b 3e ff c0 b6 be a0 1b a0 bc
       0.22488354 0.30414963 -0.3569412 -0.019544423
0003c0 b9 9e 1d bf 78 66 27 3c 06 f4 18 3e f3 9c bf 3c
       -0.61570317 0.010217302 0.14936838 0.023390269
0003d0 8b b8 b7 3d ff 05 1c 3f dd ed 0b 3f 9f 65 be bf
       0.08970746 0.6094665 0.54659826 -1.4874762
0003e0 3d a5 70 bc 5b 93 94 be 11 66 b1 3e 1e 8d aa be
       -0.014687833 -0.29018673 0.34648183 -0.3331079
0003f0 b2 c3 35 be 9a 90 d8 3e 02 d2 a5 3e da 75 a2 bf
       -0.17750433 0.42297822 0.32386786 -1.2692215

net.0.bias f4 [128]
000000 a6 8d 77 3d c8 fc f3 be 4f 43 9a 3e bd 27 b7 3d
       0.06043782 -0.47653794 0.30129477 0.08943126
000010 fe c7 ac 3d 72 55 60 be 78 ff 32 3e 73 e9 e6 3d
       0.08436583 -0.21907595 0.17480266 0.11274996
000020 cf cf 4f be 4c 48 95 3e 83 e0 0c 3f da 20 9e bd
       -0.20294116 0.2915672 0.5503008 -0.0772111
000030 d3 f8 fe 3a 1b 64 81 bd 1d 0d 85 bd df 28 7d be
       0.0019452818 -0.06317922 -0.06496642 -0.24722622
000040 cf f9 41 3d ea b0 fd be 2a 03 e6 3e a0 88 b6 3d
       0.047357377 -0.49549037 0.4492429 0.08912778
000050 0e 4d 74 bd b7 c6 16 be 9a 5e 94 3e 71 ca ae 3e
       -0.059643798 -0.14724241 0.28978425 0.34138826
000060 87 61 37 3d d3 3f 22 be 29 9d e6 bd b3 9c 66 be
       0.044770744 -0.1584466 -0.11260445 -0.22520714
000070 c4 44 0d 3f a2 5f 38 be a3 ff c5 bc fd 84 4c be
       0.55183053 -0.18005231 -0.024169749 -0.19972606
000080 3b 30 45 bd 4e 1b 1b 3e 95 e2 9d 3e 18 5e 84 3e
       -0.0481417 0.15147135 0.3083693 0.25853038
000090 3d 72 0c 3c 10 12 2a bf 6c df a2 be 64 05 00 3f
       0.008572158 -0.6643381 -0.31811082 0.50008225
0000a0 a0 ae 9b be 6d 12 fb bd 49 fd d3 be b8 d3 36 3f
       -0.30406666 -0.12259374 -0.4140418 0.7141681
0000b0 fa fe d5 bd d0 58 5f be bd cc 35 be 6e 85 bc 3e
       -0.104490235 -0.21811223 -0.17753883 0.3682055
0000c0 ee fb e6 be d8 2b 11 3d 8b 36 63 3e 15 d0 04 3e
       -0.45114082 0.035442203 0.22188775 0.12970002
0000d0 6f e0 ef 3d bd e3 c2 3c 3e bf 52 3e 54 97 7f be
       0.11712729 0.023790235 0.20580766 -0.24960071
0000e0 85 b0 a0 3e 28 df d6 3c 4e f7 5a be 23 7e 79 3e
       0.31384674 0.026229456 -0.21383402 0.24364524
0000f0 4f a7 4b 3c 32 50 ac 3d 5a cf bd be 6c 63 4e 3e
       0.012430026 0.084137335 -0.3707226 0.20155114
000100 63 48 03 be 62 b2 a1 3e 91 29 c0 3d 81 b3 4a bf
       -0.12820582 0.31581408 0.09382928 -0.7918015
000110 30 40 cd 3d 96 15 94 be a4 d9 7a be b3 97 07 3f
       0.100220084 -0.2892272 -0.24497086 0.5296585
000120 54 de ae 3e b8 50 b0 3e 57 84 74 3e 09 c5 df bc
       0.34153998 0.34436584 0.23878609 -0.027315633
000130 39 0c 12 bf b2 c6 c7 be b6 c5 7f 3e 25 63 d1 3e
       -0.570499 -0.3901878 0.24977764 0.40895954
000140 4e 4d c4 3e 77 a7 15 3d fb e2 7b 3e 3a d6 a1 be
       0.3834023 0.03653666 0.24598305 -0.31608754
000150 03 00 cb bd 65 6b 08 be 79 08 53 be 01 d5 af be
       -0.099121116 -0.13322218 -0.20608701 -0.34342197
000160 9d a2 41 be 4a 4b 68 3d 5a d4 43 be 4f 2b 89 3d
       -0.18909688 0.056712426 -0.19123974 0.066977136
000170 cc 1d 81 3e b2 15 03 bf 5f 13 58 bd 3b 72 b6 3e
       0.25218046 -0.5120498 -0.05275285 0.35634026
000180 bd 7f 64 3e 7c ed 2b bf c3 36 43 be b4 11 f3 3d
       0.22314353 -0.6715925 -0.19063859 0.11868611
000190 70 bc 56 3e 38 f1 8f bd e0 e8 dd 3d 3d 69 63 3e
       0.2097032 -0.07028431 0.10835433 0.22208114
0001a0 a2 4b 1f 3d 04 5e 9b be 43 70 66 be dd f6 10 3e
       0.03889049 -0.30345166 -0.22503762 0.14156671
0001b0 e5 d4 35 3e 86 57 a7 be 84 5c 8c bd 6f 34 14 3f
       0.17756994 -0.32683963 -0.068535835 0.5789251
0001c0 87 77 be be d4 92 e0 3b c0 ef 90 bd fb 3a 94 3b
       -0.37200567 0.006853441 -0.07076979 0.0045236326
0001d0 ec bb d4 bc 5b a3 d7 3d b6 cf 68 be 57 08 18 3e
       -0.025968514 0.105292045 -0.22735485 0.14846931
0001e0 33 63 d5 be 0b 9f dd 3e 59 cc 49 be 2e fc 53 3e
       -0.41677245 0.43285403 -0.19706859 0.20701668
0001f0 24 12 16 3e 24 7b 5d 3d 22 7a f8 3d 00 12 a8 3e
       0.14655358 0.054072514 0.1213267 0.32826233

net.2.weight f4 [128, 128]
000000 26 70 4d 3d b9 d2 23 be c8 dd c5 be 50 6d ea 3e
       0.05015578 -0.15998353 -0.38645768 0.45786524
000010 41 6c 71 3e 14 1b 92 3d dc 49 c8 bc 04 e1 d7 be
       0.23576452 0.07134071 -0.024449281 -0.4216386
000020 ca b0 65 3d 15 93 4d be 1b 1b 78 bf 71 f7 9d 3c
       0.056076802 -0.20075639 -0.9691636 0.019283028
000030 21 78 a0 bf ea 1b b5 bd d8 ba a4 bd 84 6b 3e 3f
       -1.253666 -0.08843215 -0.0804345 0.74382806
000040 4b c8 62 3c 89 93 90 b7 15 0a b4 3e 05 97 f5 3c
       0.013841699 -1.723484e-05 0.35163942 0.029979238
000050 9f 2e cf 3e 27 34 18 3f 05 3f f7 3d 03 d3 ac 3e
       0.40465257 0.5945458 0.12072567 0.3375474
000060 fd de 27 3c 38 f4 56 bd ba 33 33 bd f9 fd 6c 3d
       0.010246036 -0.052479 -0.043750502 0.057859395
000070 3e ea ee 3d d3 19 0f 3f b2 bc 92 be e5 34 8b 3e
       0.11665772 0.5589878 -0.28659588 0.27188793
000080 86 aa 00 bf c0 e8 78 3b 50 e0 b3 bd d0 78 94 3d
       -0.502602 0.0037980527 -0.087830186 0.07249606
000090 8a fb 66 be 4d c4 fb 3d ce d1 58 3d 8a d5 89 ba
       -0.22556892 0.12293301 0.05293446 -0.001051591
0000a0 f9 cb 19 be 5f 7f 63 bd 1e 15 2a bd 40 1b 54 3e
       -0.15019216 -0.055541392 -0.041524045 0.2071352
0000b0 9f 34 86 3e 27 b0 48 bd 91 b4 65 bd 49 14 ea 3d
       0.26212022 -0.048996117 -0.056080405 0.1142965
0000c0 61 91 28 be b1 b3 21 3d 26 c7 94 3e e4 f9 a1 3c
       -0.16461708 0.039478008 0.29058188 0.019772477
0000d0 4f b1 24 3c 00 63 3b be 36 56 4a bd b5 5b a3 bc
       0.010052039 -0.18299484 -0.049398623 -0.01994119
0000e0 8f 7b fe ba 46 c7 2a be 42 f7 c2 bd 1a 92 1e 3f
       -0.0019415485 -0.1667758 -0.09519817 0.61941683
0000f0 ea fe eb bd 69 92 d9 bb 5f 7d ff 3b 06 d1 c9 bd
       -0.115232304 -0.006639768 0.007796928 -0.09854321
000100 40 b9 dd 3c 16 25 94 bd 67 e0 36 bd b7 3c 2a bd
       0.027065873 -0.07233636 -0.0446476 -0.04156181
000110 56 8c 43 be 5f 11 a8 3d 6c 83 11 bc ac 7d a8 3d
       -0.19096503 0.08206438 -0.008881431 0.08227095
000120 af dd 8e bd 64 93 4f 3f 2d bb 83 3d 18 b4 1a be
       -0.069758765 0.81084275 0.06432185 -0.15107763
000130 62 ee 0a 3e 2e 05 20 be 7f af 29 be d2 bf 68 bd
       0.13567498 -0.15626976 -0.16570853 -0.05682356
000140 4d 35 be 3d 03 2e 14 3f 3f 45 87 3f 9f c3 6d be
       0.0928751 0.5788271 1.0568007 -0.23219155
000150 39 01 5c 3e a5 4b 44 3f 4f 24 06 3d 35 fb 0e bb
       0.21484841 0.76677924 0.03274947 -0.0021817212
000160 55 db 17 bd e8 a0 5a be 8e db 91 bd 83 61 c7 3f
       -0.037074406 -0.21350443 -0.07121955 1.5576633
000170 2a 4e 04 3d c2 00 82 be fb 74 87 bd 12 72 44 bf
       0.032301106 -0.25391203 -0.06614109 -0.7673656
000180 7a e1 c1 bc 92 75 46 be aa 9d d6 3c e3 02 19 ba
       -0.023667086 -0.19380787 0.026198227 -0.0005836917
000190 67 23 9a 3d f9 6b 42 be 5c e8 56 3d f5 3e 90 bf
       0.07526284 -0.18986501 0.05246769 -1.1269213
0001a0 98 e3 98 bd cb 6f b4 3c 2f b9 1c be e3 01 f4 be
       -0.07465285 0.022025963 -0.15305017 -0.4765769
0001b0 73 4f c1 be 6c c0 50 bd fa 8e 66 3d 72 28 bf 3b
       -0.37755927 -0.050964758 0.056288697 0.005833679
0001c0 f1 5f 23 be 57 eb d7 3d fc 93 a7 bd dd 47 b2 3e
       -0.15954567 0.105429344 -0.08182523 0.34820452
0001d0 be 65 0d be a6 56 d8 bd 02 4a 56 bd 55 43 00 bd
       -0.13808343 -0.10563402 -0.052316673 -0.031314213
0001e0 ec ca 55 bc 3e 1a 32 3f e5 1a d0 3d 76 44 19 c0
       -0.013048869 0.6957129 0.1016138 -2.3948035
0001f0 ba 79 5d bc 68 da fd 3d ee ad 8d 3d 10 3d f9 be
       -0.013517791 0.12395173 0.0691794 -0.486794
000200 af fb fd 3c 3d a8 7c 3c d8 a5 a1 3c 6b 74 e7 bd
       0.031003801 0.0154209705 0.0197324 -0.11301502
000210 28 4e ff 3e 51 a4 e1 3d f3 ec 78 3c 7b 60 ed 3d
       0.49864316 0.11017669 0.015193212 0.11590668
000220 ca 80 96 bd 18 18 77 3d d0 b7 33 3d bb 59 42 3d
       -0.07348783 0.060325712 0.04387647 0.047448855
000230 22 54 e1 be 71 4a d5 3d b9 ef 69 bd 9a a5 1f 3f
       -0.440095 0.10414589 -0.057113383 0.6236206
000240 49 9f 81 3c ce 2a 16 3e 09 ba d7 3e 9d f5 24 3d
       0.015823023 0.14664766 0.4213412 0.040273298
000250 12 e7 1a 3d 66 7a b9 3e f1 fa 73 3d b9 7e 0a be
       0.037818022 0.36226195 0.05956549 -0.13524903
000260 f2 e0 98 3c 78 4a cc bd b8 4a 8a 3d 9b 04 0b 3d
       0.01866195 -0.09975141 0.06752533 0.03393994
000270 37 bf c0 be bd b6 42 bd 3f e1 d9 be f3 a3 56 be
       -0.37645885 -0.047537554 -0.42554662 -0.20960979
000280 df 36 69 3f bf 7c 1e 3d ad 5c a0 bd ec 9e a5 bd
       0.9109935 0.038693186 -0.078301765 -0.080869526
000290 4b 8b 8d 3d 18 50 11 be a9 75 84 3c 01 ee 52 3e
       0.06911334 -0.1419071 0.016169386 0.20598604
0002a0 97 e3 8f 3e aa 46 89 bd f8 a1 e9 3c 71 05 b2 3b
       0.28103325 -0.06702931 0.028519616 0.0054327776
0002b0 79 c0 1d 3d 66 e6 bb bd e6 52 4a bd da 90 82 bc
       0.038513634 -0.091748044 -0.049395464 -0.015938211
0002c0 fc 82 9d bd 1a d0 98 3d 52 96 01 3e 50 f1 ac bd
       -0.07690999 0.07461567 0.12654999 -0.08444464
0002d0 5d 0e bb bd e7 48 d9 bd 2f bb 88 3d 1c 5b 41 3c
       -0.09133599 -0.10609608 0.066763274 0.011801507
0002e0 64 c4 2e be 9d 10 21 bd 80 ef dd bd a6 6f d0 3e
       -0.17067105 -0.039322484 -0.108366966 0.4071018
0002f0 b5 46 e1 3b 3a 12 d0 bd 22 1e 8a 3d 48 1e 14 bd
       0.006874884 -0.101597264 0.06744029 -0.03616169
000300 2d 43 28 bd b3 0a b1 bd dd 45 20 3e e1 e6 c1 bd
       -0.04107969 -0.08644619 0.1565165 -0.09467865
000310 ec 15 5c 3e 9b 7a 7f bd 91 ae 5c 3d f4 86 8c 3c
       0.21492738 -0.062372785 0.053877417 0.017154194
000320 55 ea 0c 3c f3 d2 d8 3e 72 44 89 bd d5 2f bb 3d
       0.008600791 0.4234844 -0.06702508 0.091399826
000330 53 04 00 bc f8 a4 1d bd 06 08 52 bd ef 92 cb be
       -0.007813531 -0.038487405 -0.051277183 -0.3976054
000340 90 31 80 bd 99 b9 8a 3e 10 dc 44 3f 37 9c 8c bd
       -0.06259453 0.27094725 0.7689829 -0.06865733
000350 15 73 84 bd 08 1f 01 be e9 f7 e6 3e 9f 63 9b 3d
       -0.06467263 -0.12609494 0.45111015 0.075873606
000360 95 a6 4f bb 6b 59 96 3d 07 e4 13 3e 10 48 2c 3f
       -0.0031684984 0.07341274 0.14442454 0.6729746
000370 00 79 03 3e 17 cc 63 3b 0d ef b0 bd b3 5f 7b be
       0.12839127 0.0034759098 -0.08639345 -0.24548225
000380 89 5f be bd c9 bc 32 3d ef ac 24 3d 5d a3 93 bc
       -0.09295566 0.04363707 0.040203985 -0.018022234
000390 5d 89 44 3d 35 02 88 bc e9 1e a0 3c 1e ff 2f be
       0.047982562 -0.016602615 0.01954599 -0.17187163
0003a0 f8 d6 c9 bb 93 3c 25 3d ae c1 9f 3d c9 af d7 3e
       -0.0061596595 0.04034097 0.07800613 0.421263
0003b0 4e b1 84 3f e4 12 68 3d 0b 0b 89 3d c9 d5 08 bf
       1.0366609 0.05665864 0.066915594 -0.5345121
0003c0 1e 38 8f 3d 20 66 fa bd ff 17 18 3d 54 d0 76 3f
       0.069931254 -0.1222651 0.03713226 0.96411633
0003d0 c7 b7 c4 bc 00 5e 7d 3c 00 b3 9d 3d b5 56 5f 3d
       -0.024013413 0.015464306 0.07700157 0.05452605
0003e0 5b 90 19 3c ab 9f 93 3d 6c 34 a0 bd b2 76 c8 be
       0.009372796 0.072081886 -0.07822499 -0.39153057
0003f0 2d ca 61 3d c0 96 72 bd 83 ab 45 3d 4f 98 df 3e
       0.05512445 -0.059225798 0.04825927 0.4367089

net.2.bias f4 [128]
000000 86 1e 89 3d 78 95 82 3d 5c 53 06 3d 1d 7c 01 be
       0.06695275 0.06376165 0.03279434 -0.12645002
000010 e9 ac ce ba 17 87 1d bd 84 57 12 3d 6d 96 21 3e
       -0.0015768084 -0.03845891 0.035727993 0.15780039
000020 af f6 aa bc 2d a4 01 bd 00 84 4f 3d 06 9f 26 3e
       -0.020869581 -0.03165071 0.050662994 0.162716
000030 ee cd 95 3d 18 9a c8 bd 90 1f ce 3d 46 2c 68 3d
       0.073146686 -0.09795016 0.10064614 0.056682847
000040 58 29 af 3d 42 04 92 bb ef bb a8 3d f6 d5 88 3d
       0.085528076 -0.004456074 0.082389705 0.06681435
000050 da e8 98 bd 9c b5 1f bd b2 0c 04 bc 8c 99 3b 3d
       -0.07466288 -0.038991556 -0.008059667 0.04580073
000060 00 a0 56 ba 09 08 96 bd d7 74 e6 bd 26 d2 7c 3d
       -0.0008187294 -0.07325751 -0.11252754 0.06172385
000070 c8 e2 55 3c 6f 66 c6 3d 3d 45 42 3d 6b 58 a0 ba
       0.013054557 0.096875064 0.047429312 -0.0012233382
000080 a8 b4 ee be ab 6c 70 bd 2b 58 72 bd 28 8e 7d 3d
       -0.46622205 -0.058697384 -0.059166115 0.06190315
000090 3c 67 c3 3c 84 3b 11 bc fd 09 b3 3c 3b 88 9a 3d
       0.023852937 -0.008864287 0.021855349 0.07545515
0000a0 c4 e2 58 3c e5 93 01 be 3f ed 02 be cc ce 26 3d
       0.013237659 -0.12654074 -0.12785815 0.04072456
0000b0 7f 75 65 3d dc 87 44 bd eb 12 c1 3b 77 2e ea bd
       0.056020256 -0.047981128 0.005892148 -0.11434644
0000c0 bb 9c aa 3d 3f db a1 3c d7 a2 0e 3c 08 c0 cd 3c
       0.08330675 0.019757865 0.008705816 0.025115982
0000d0 c0 d3 28 3e 8f 70 33 3e 05 f4 1c bd ca cc f1 bd
       0.16487026 0.17523406 -0.038318653 -0.118066385
0000e0 76 b9 d9 bd 27 d0 fd 3d fc 8c ed bd e4 5f 50 bd
       -0.10631077 0.123932175 -0.11599156 -0.0508727
0000f0 f1 b8 bc bd 14 d1 ce 3d bd 22 51 bd fe e8 28 3d
       -0.09214962 0.10098472 -0.05105852 0.041237824
000100 dc 79 5d bd 0c e6 7a 3d 0d 10 e9 bd c6 34 b2 3d
       -0.054071292 0.061254546 -0.113800146 0.08701472
000110 e2 47 a5 3d cb 6c c7 bd cd a1 27 be 0f 94 33 bd
       0.08070351 -0.097375475 -0.16370316 -0.04384237
000120 ff 55 1d bd 7c 66 5e be ad 37 45 3d 38 e7 3b 3d
       -0.03841209 -0.21718782 0.0481488 0.045874804
000130 9e b5 ab ba e5 63 a1 bd a5 42 8a 3c 30 53 7e bd
       -0.0013100391 -0.078803815 0.016877482 -0.062091053
000140 f9 2b a5 bc ad 78 e7 bc ea f9 0c bb 28 14 c5 bd
       -0.02016257 -0.028255785 -0.0021511265 -0.09622985
000150 86 06 d6 bd 77 4c 62 be 99 a4 ea bb 26 a1 38 bd
       -0.10450463 -0.22099482 -0.007160735 -0.045075558
000160 99 b0 12 3c 24 b1 46 3e ac 6e 0e 3d 4e 36 2b be
       0.008953237 0.19403511 0.034773514 -0.16719934
000170 da 57 d5 bd cc 81 9b bd 65 66 94 3b 2a 78 46 3d
       -0.10417147 -0.07593116 0.004528808 0.04845444
000180 44 82 2d bd 46 5b 2f 3d 35 b2 21 be b4 94 88 bd
       -0.04236056 0.042811655 -0.15790637 -0.06668988
000190 f4 74 b7 3d 46 93 37 3e 33 19 04 3e 19 14 ff bd
       0.08957854 0.17927274 0.12900238 -0.12455005
0001a0 02 6b 01 be 86 ce 3a 3e b5 d7 8a 3d 77 bc 20 3e
       -0.12638476 0.18242845 0.06779424 0.15696894
0001b0 c2 ad 0b bd b8 58 4b 3d 6b e5 f6 bb 63 1d 80 be
       -0.034101255 0.049645156 -0.007534673 -0.2502242
0001c0 29 99 14 3e ee 7c b9 3d 43 ec 85 bd 9a 29 c3 3c
       0.14511551 0.090570316 -0.06539204 0.023823548
0001d0 15 7c 8e bd c2 43 e0 bd 5e 44 ce bc af e6 fd bd
       -0.069572605 -0.10950424 -0.025179084 -0.12397515
0001e0 66 1a 48 be b9 8d 28 be 66 e4 ef bb 57 b9 5d bc
       -0.1954132 -0.16460313 -0.0073209284 -0.013532958
0001f0 e0 b9 3f 3e 2b 0e 95 3d 7e 49 52 3e bb d1 69 bd
       0.1872325 0.07278093 0.20535848 -0.05708478

net.4.weight f4 [64, 128]
000000 1e fd 69 3e fd 84 1f bc 0b 2a 1f bc 37 58 14 3e
       0.22850463 -0.009736297 -0.009714614 0.14486776
000010 c8 7d 9b bd 3a b3 f0 3c 87 20 00 3e a6 7c ca 3d
       -0.0759235 0.029382337 0.12512408 0.09887056
000020 b3 34 35 3c a8 41 d7 3d 4d e2 34 3d 03 4a 99 bd
       0.011059928 0.1051057 0.04416113 -0.0748482
000030 6e 1b 95 3a 92 ad 50 bd 4c a2 c1 be 43 6e a9 3d
       0.0011375973 -0.05094678 -0.37819135 0.08272984
000040 db dc 0e bf 6c 7c b8 bb ab b4 c8 3e de f4 59 bd
       -0.5580575 -0.0056300666 0.3920034 -0.05321204
000050 c7 0a 0e bc 9e d5 a0 3d 5e d7 1b bb a1 f7 80 3d
       -0.008669562 0.07853244 -0.0023779492 0.062972315
000060 98 0d 94 3e 02 b7 be bc 74 2d e8 bc 47 ad 84 3d
       0.2891662 -0.023280624 -0.028341986 0.064783625
000070 22 56 99 3d 5e 1c 53 3e 17 87 20 bd 02 da e4 3d
       0.07487132 0.2061629 -0.03919133 0.11174394
000080 2d 66 03 be 80 4c a7 bc bb fb 32 3d b8 3a 50 bd
       -0.12831946 -0.02042222 0.0436971 -0.05083725
000090 ed 26 40 bd 33 86 07 3e d8 1c 52 bf a7 d5 c6 3c
       -0.046912123 0.13234787 -0.8207526 0.0242718
0000a0 79 79 e2 3d 00 14 0c 3e 1a 7b 25 bd 31 a3 fc bb
       0.11058325 0.13679504 -0.040400602 -0.0077098836
0000b0 35 88 89 3d d7 99 31 3b c1 68 b1 be be fc 24 3e
       0.067154326 0.0027099752 -0.34650233 0.16112038
0000c0 7b 72 20 bd e1 21 40 bc 4d 2e c6 bd 7c cb 9d bd
       -0.039171677 -0.011726827 -0.096768 -0.07704827
0000d0 78 e5 96 3d 2f 6e 7a 3e 12 ca 38 bd 47 ba b5 3d
       0.073679864 0.24456094 -0.045114584 0.0887342
0000e0 5d bd 8b 3c a3 5d 00 bf cd c2 76 3c 0d 99 c9 3e
       0.017058069 -0.5014288 0.015061093 0.3937458
0000f0 b2 f6 b8 3d 98 40 b8 bc e2 44 50 be a1 a0 21 3d
       0.090314284 -0.022491738 -0.20338777 0.03945983
000100 4e e9 a1 bd 9d 79 92 be cb 27 32 3d 44 6e 1a 3e
       -0.079058275 -0.2860841 0.04349498 0.15081125
000110 62 7c c8 3c e0 f8 07 3c b3 5f 9e 3d e0 a4 dd 3d
       0.024473373 0.0082990825 0.07733097 0.10822463
000120 52 17 e5 3d 46 19 45 bd 1b 5a 18 bf 4d 4b bf bc
       0.111860886 -0.048119806 -0.5951249 -0.023351336
000130 fc 9b 73 3d 79 a2 1c 3b 50 38 35 bc ee 24 08 3d
       0.05947493 0.0023900552 -0.011060789 0.033238344
000140 85 d7 2e 3c c5 36 50 3b f5 be ef 3d 52 de 2b 3d
       0.010671501 0.0031770926 0.11706344 0.041960068
000150 5d 25 f4 bd 7a 65 1a 3e 8d 72 ef bd 45 c1 a7 bc
       -0.11921189 0.15077773 -0.11691771 -0.0204779
000160 b9 41 46 bd 87 48 b2 3d a2 43 01 bd 16 b7 4e 3c
       -0.04840252 0.0870524 -0.03155864 0.012616893
000170 f6 a5 8e bd c2 ee 8b 3c aa a5 31 ba f7 4d 21 3e
       -0.06965248 0.017081622 -0.00067767 0.15752397
000180 cc 1f 19 3c 06 a0 b0 bb 28 93 76 3d 78 25 d9 3d
       0.00934596 -0.00539017 0.060198933 0.1060285
000190 34 29 bc 3c 8c cf ec 3c ec 8e 43 bd 33 f4 ab 3e
       0.022968866 0.02890756 -0.047743723 0.33584747
0001a0 cc 15 06 3d 3d 17 1a 3d 00 03 28 3e 4c 75 7f c0
       0.03273563 0.037619818 0.16407394 -3.9915342
0001b0 ec 01 45 bf 61 6c 4f 3e ec 3a 79 3b 04 af 0f 3e
       -0.7695606 0.20256187 0.0038029505 0.14031607
0001c0 7e bc b6 bd cc 33 03 3d 6a e3 ab 3d 1f 89 13 be
       -0.08922671 0.03203182 0.08392985 -0.14407776
0001d0 d8 74 0a bd 1c cb 2c be 29 99 14 3d c2 3e 19 3d
       -0.033802837 -0.16874355 0.036278877 0.037413366
0001e0 ec 3c 5d be e9 e8 34 40 68 80 0d bd 28 9e 7c 3d
       -0.21605271 2.8267157 -0.034546286 0.061674267
0001f0 5e 1a 0c 3f 3c 7f 1b 3e cc 11 ab bd ce ad 23 3d
       0.54727733 0.15185255 -0.08353004 0.039960675
000200 ef 2e 12 3e 3d c6 11 3e 22 19 3c bd f8 ac c0 3c
       0.14275716 0.14235778 -0.045922406 0.023519978
000210 18 5e b4 3d 21 87 ae 3d 12 ac 3c bd 62 06 37 3e
       0.088070095 0.085218675 -0.046062537 0.17873529
000220 5f 1c a1 3d b2 e4 32 3c 1a 26 09 bc 45 d4 c4 be
       0.078667395 0.010918783 -0.0083709005 -0.384432
000230 52 95 92 3d df a1 98 bd 98 44 0a bf c6 20 9a 3d
       0.07157387 -0.074527495 -0.54010916 0.07525782
000240 13 fe 24 c0 c8 c6 1b 3d ee b7 2d be ea 5e 53 bd
       -2.5780075 0.03803137 -0.16964695 -0.05160419
000250 fb a3 28 3d f1 79 3d bc 08 7b 99 bc 16 7f e6 3d
       0.04117201 -0.011564718 -0.018735424 0.112547085
000260 25 df d2 3d a4 86 8f bd 71 a7 c8 bd e9 4f 4c bd
       0.10296468 -0.070081025 -0.09797562 -0.049880896
000270 01 bc 56 bd 12 b4 08 be 0f 82 f5 3c 3c aa 03 be
       -0.05242539 -0.13349941 0.029969243 -0.12857908
000280 4c 5a d0 be 99 24 80 3d 58 34 0c bd 1a 3d 9e 3d
       -0.4069389 0.062569804 -0.034229606 0.07726498
000290 f5 bb b1 bc 45 c3 91 bf 75 23 58 3e 12 aa 41 3c
       -0.02169607 -1.1387717 0.21107276 0.011820333
0002a0 df bd f4 3c 90 db b6 3d 87 09 d3 be e4 71 42 3d
       0.029875694 0.08928597 -0.41218206 0.047471896
0002b0 01 5a 1b 3d 09 c7 27 3d aa 28 a1 3e 08 26 a3 3d
       0.03792763 0.0409613 0.31476337 0.07966238
0002c0 15 26 93 3c 96 c3 f2 3d 2b b1 47 3d 59 7d 1b bd
       0.017962495 0.11853711 0.048752945 -0.037961338
0002d0 b6 5a 3d 3e b6 a3 0b 3e 76 e1 23 bd 8d c0 bb 3d
       0.18491635 0.1363667 -0.04000994 0.091675855
0002e0 0f 65 35 bd ca 4e 8a be 28 d4 09 3d 9a b2 87 3d
       -0.04428583 -0.27013236 0.033649594 0.066258624
0002f0 4e 4f 3d bd e5 78 3b 3d 2e d5 93 bc 49 f1 2b bd
       -0.04621821 0.04576959 -0.018045988 -0.041978154
000300 99 07 43 3c e6 53 b9 bd 4f db 38 bd 8c 29 01 3d
       0.011903667 -0.090492055 -0.045131024 0.031533763
000310 2c 04 5a bc 97 64 83 3d 13 ad c1 3d c1 35 18 3e
       -0.013306659 0.0641567 0.094568394 0.14864255
000320 2b 57 cf 3c 17 a9 0f bd 98 01 f2 be 3e a0 7a 3c
       0.02531012 -0.035073366 -0.4726684 0.015296994
000330 3f 95 ed bc 97 a7 3a 3d ed 6e 77 3c ae 0d a9 bd
       -0.02900183 0.045569982 0.01510213 -0.08254562
000340 72 0f 1b bd 49 e9 29 bd ef 82 01 3e 33 7e 0e 3c
       -0.037856527 -0.041482244 0.12647603 0.00869708
000350 2d e3 87 bd a8 74 e8 3d 27 8f 3e bd d0 10 53 3c
       -0.06635127 0.113503754 -0.04652324 0.012882426
000360 fc db 97 bd f4 b7 00 be 7c 6e 02 3c 84 41 ec bd
       -0.074150056 -0.12570173 0.007960912 -0.115359336
000370 57 09 1f 3d bf d3 81 bd c7 3a 84 3c eb 9f 65 b9
       0.038827267 -0.063392155 0.016141308 -0.00021898716
000380 f4 32 72 3c 3f 6c e0 3d cc 78 03 3e 04 dc fb 3c
       0.014782656 0.10958146 0.12839049 0.03074456
000390 79 b5 54 bc 28 eb cd bd 66 27 1e be 5e 92 6a bd
       -0.01298272 -0.10054618 -0.15444717 -0.057268493
0003a0 48 00 b9 3d c9 d5 80 3d 73 b0 fa 3d 8d 69 23 c0
       0.09033257 0.06290776 0.12240686 -2.5533173
0003b0 e0 23 92 3e dd 5c b0 3d 65 a1 cc bc a1 46 91 3d
       0.28542995 0.08611462 -0.024979303 0.070935495
0003c0 88 8f d6 bd 0f 6a a6 3b 96 e2 19 3e 2b b3 c3 3e
       -0.10476595 0.005078561 0.15027842 0.38222632
0003d0 32 5a a9 3c e0 62 90 3b 72 a1 06 bb ce 54 c9 3d
       0.020672891 0.004406318 -0.0020543006 0.09830628
0003e0 c1 ae b8 3d a2 d8 cc 3e f0 c3 aa 3d 93 f1 52 3d
       0.09017707 0.40009028 0.08338153 0.051499914
0003f0 7f 52 bc bf 90 e3 8b bc c3 94 92 3d 15 55 a1 3c
       -1.4712676 -0.017076284 0.0715728 0.01969389

net.4.bias f4 [64]
000000 21 d4 a0 3d 63 e6 35 3e eb be e8 bd 61 b1 09 3d
       0.078529604 0.17763667 -0.1136454 0.033616427
000010 ba 33 9c 3d 93 11 ab bd 88 91 fc 3c 22 ef 00 3e
       0.076270536 -0.083529614 0.030831113 0.12591222
000020 14 c3 2d be 87 8b 47 bd f2 af 9d bc c8 43 96 3c
       -0.16968948 -0.048717048 -0.019248936 0.018342867
000030 9f 45 d0 bc ae 86 00 3d 8a 93 48 3d 6c fd 68 be
       -0.025423823 0.03137844 0.04896883 -0.22752923
000040 70 28 ce bd cb 46 00 be fa 9e 87 3d 19 57 e4 bc
       -0.100663066 -0.12527005 0.06622119 -0.027873563
000050 e2 31 66 3d b2 1e 17 3d 80 0d 8a bc 24 8c 62 3e
       0.056199916 0.036894508 -0.01685214 0.22123772
000060 9f 44 f4 3c 21 47 27 3d ee fa b0 3d 35 3b d5 bb
       0.029817877 0.04083932 0.08641611 -0.006507302
000070 2c 31 2e bb a1 0a 8d bd 69 75 89 bd 03 59 4c bd
       -0.0026579602 -0.06886793 -0.06711847 -0.049889576
000080 94 35 8e 3c db 2e 8d 3d 11 6d 0a 3d c8 ea 8a ba
       0.017359532 0.068937026 0.03379542 -0.0010598535
000090 b7 d2 bd 3d 9d 9d 82 bd 92 dc 8e 3d d1 72 7a be
       0.09268706 -0.063777186 0.06975664 -0.24457861
0000a0 77 bd 94 3d c9 af 35 bd 32 92 38 3d 0c 55 de 3d
       0.072627 -0.044357095 0.045061298 0.10856065
0000b0 4f e6 64 bd bf 16 b6 3d 1b 38 8b 3c 4a 5f be bc
       -0.055883702 0.08891057 0.016994527 -0.023238797
0000c0 c3 06 5d bd 31 bc 85 bd 97 56 76 bc 2c 9c 04 bd
       -0.053961527 -0.06530035 -0.015035293 -0.0323755
0000d0 b1 4f 8a bd 11 ab 80 3d 64 ba 7a 3d 7b 50 9d 3b
       -0.06753481 0.06282628 0.061212912 0.004800854
0000e0 36 45 ab 3c 35 c5 14 3e e1 79 6b bc 9e 9f 2b 3d
       0.020907026 0.14528354 -0.01437232 0.04190027
0000f0 3e d6 38 bc cc e6 50 3b 57 8d 09 3d 1e cb 5f bd
       -0.011281548 0.0031875847 0.033582058 -0.054637067

net.6.weight f4 [3, 64]
000000 ac 67 18 3d 28 98 1b 3f 41 3b 9f be ab 34 9e be
       0.037208244 0.60779047 -0.31099895 -0.30899557
000010 b1 7e f7 be c4 e2 b1 3d 49 61 1f bd 8b 79 c4 3e
       -0.48338845 0.0868583 -0.038911138 0.3837398
000020 db aa 21 be 65 0e 93 bf 88 f0 21 3c 05 05 ff 3d
       -0.15787832 -1.1488768 0.009884007 0.12452129
000030 3a d9 93 bd 2e 9b 52 bf 03 41 a4 bc 05 70 af be
       -0.07219167 -0.82268035 -0.020050531 -0.34265152
000040 51 5d bf 3d 84 27 ac 3f 3c 21 c6 3d c4 ac b5 bf
       0.093439706 1.3449559 0.09674308 -1.4193349
000050 41 f9 be bf dd 19 8b 3e 73 69 83 bf c3 72 c8 3d
       -1.4919816 0.2716817 -1.0266556 0.09787514
000060 c6 8c cc be 12 79 11 3d 99 a4 98 3d 5c d7 97 3c
       -0.39951152 0.035515852 0.074532695 0.018535309
000070 0f eb 84 be 4a f6 0d bc a3 8f 72 3d 41 3b eb bd
       -0.25960585 -0.008664677 0.059219014 -0.11485911
000080 55 b3 30 bf e7 f8 a4 3e 86 fc f0 be dc 21 dd 3d
       -0.6902364 0.32221147 -0.4706766 0.10797474
000090 27 e4 a2 3e 3a 65 54 bd c5 33 e5 3d dd 9d e2 bf
       0.3181469 -0.05185435 0.11191515 -1.7704426
0000a0 48 93 ba 3d c2 fc 85 3d 25 e4 73 3c 1a 0b aa 3e
       0.09110123 0.0654235 0.014885937 0.33211595
0000b0 59 3e 27 3f a3 bc 6b bf a4 c3 64 bf 87 89 d7 bd
       0.6532951 -0.9208471 -0.89361024 -0.10524278
0000c0 28 ee 8c bd 2d 53 e6 bd a4 35 19 bf 72 db 9a 3d
       -0.06881362 -0.11246333 -0.59847474 0.07561387
0000d0 ce 12 0e bd 83 a0 42 bf 90 e5 1b bf c3 23 8c 3e
       -0.034685902 -0.7602617 -0.6089716 0.27371034
0000e0 94 b1 3c be 09 f4 32 3f ef 8b f0 3d 12 24 f0 3c
       -0.18427116 0.6990362 0.1174544 0.029314075
0000f0 6d 79 b9 3d ef 5a 4d bd b0 fc a7 3d 1a 1d da bf
       0.09056363 -0.05013555 0.08202493 -1.7040131
000100 d3 3c 73 bd e4 25 6e 3e 86 a3 a5 3d 5b 5b af be
       -0.05938418 0.23256642 0.0808783 -0.34249386
000110 58 8d fb be 21 d9 16 bd f1 4c 36 3d 87 b0 bd 3d
       -0.49131274 -0.036828164 0.04450697 0.092621855
000120 77 9f a1 3e 5a ef b6 be 24 c6 72 bd ff 53 74 3e
       0.31566975 -0.35729486 -0.059270993 0.23860167
000130 0f 66 32 3d b0 6c 31 be e9 e3 98 be 72 48 7c be
       0.043554362 -0.17326617 -0.29861382 -0.2463701
000140 2c bb 42 bb 4c cf 45 40 1f a4 24 3e c4 e8 2d bf
       -0.0029713614 3.0907774 0.16078232 -0.679333
000150 83 9a bf bf a2 e6 dc 3e f6 96 95 bf f6 f8 5e be
       -1.4969028 0.4314471 -1.1686695 -0.21774659
000160 88 bf 86 3f 7a a2 2f 3d 2e 3a 15 3e 96 7b b0 3d
       1.0527201 0.04287956 0.14572975 0.08617322
000170 27 9a b6 3c 18 49 e2 bd 67 db 01 3c 71 d6 36 3d
       0.022290302 -0.11049098 0.007925845 0.0446381
000180 62 ac 05 bf 19 d9 0c c0 82 0c 97 bd 86 bf 78 bd
       -0.5221616 -2.2007506 -0.073754326 -0.060729526
000190 09 4a 8f 3e 2f cd 0d 3d 98 64 b6 3c b7 66 c0 3e
       0.27986172 0.034619506 0.022264764 0.37578365
0001a0 ba 04 55 bd ed dd 5b bd 5b 36 be 3d 9c 6e b2 3e
       -0.05200646 -0.05367844 0.09287711 0.34850013
0001b0 54 fc a7 3e 29 be 04 c0 23 da 71 bf b4 41 04 bc
       0.328097 -2.0741065 -0.94473475 -0.0080723055
0001c0 d3 0f 1c 3d cb 2d 1f bd c0 48 0a bf b4 94 78 bd
       0.03810103 -0.03886203 -0.5401726 -0.06068869
0001d0 d1 1c 18 3d 25 52 0a bf 3e e1 cc 3e 1b 6e 3c 3e
       0.037136856 -0.5403159 0.40015596 0.18401377
0001e0 6f 3b 44 be d0 fb 8d 3e ca c8 06 3f 91 98 90 bd
       -0.19163297 0.2773118 0.5265013 -0.0706035
0001f0 44 ad 8b bb 5b 24 c9 3d e2 3c a0 bd 15 5f b2 bf
       -0.004262598 0.098213874 -0.078241125 -1.3935267
000200 a6 f3 9f 3e b5 0a 91 3d aa d4 54 bf d8 b8 5e be
       0.31240577 0.0708212 -0.83137 -0.217502
000210 e1 1e 1d bf 7e 29 6e bd 31 c3 04 bc 7a 67 a4 3d
       -0.6137524 -0.05814504 -0.008103178 0.08027549
000220 32 29 c5 3d 6c e5 8a bf c0 92 75 3d a7 4d 01 3e
       0.09626998 -1.0851264 0.059954405 0.12627278
000230 bf c5 1a bd 94 78 9e be a4 28 26 be 25 f5 90 be
       -0.03778624 -0.3095137 -0.1622644 -0.2831203
000240 00 57 3e bd 4b f8 82 be d8 21 0c 3e 5a b0 97 bf
       -0.04646969 -0.25580058 0.13684785 -1.1850693
000250 0c 2d cd bf 46 d5 a3 3e 2e 3f 47 bf dc 62 60 3e
       -1.6029372 0.31998652 -0.7783078 0.21912712
000260 2d c9 80 bc df 41 83 3c 0d da ab 3e 89 8a 90 bd
       -0.015720928 0.01602262 0.33564797 -0.070576735
000270 29 a2 70 3c 33 cd 52 3d 3b 46 35 bd 5e 0f 8c 3d
       0.0146870995 0.051465224 -0.04425643 0.068388686
000280 ef f5 10 bf 61 cd fa bd df eb 05 40 3f bd ff 3b
       -0.56625265 -0.12246204 2.0925214 0.0078045423
000290 4e 24 91 3e a2 2f 9c bd f6 8a 0b 3e e2 cd 79 bf
       0.2834801 -0.07626273 0.13627228 -0.9757978
0002a0 05 47 eb 3e e8 6c 51 bc 77 30 7c 3d 12 04 9d 3e
       0.4595262 -0.012782313 0.061569657 0.30667168
0002b0 d4 4a c2 bd bb c3 6f 3e 47 96 76 bf 66 41 b9 bd
       -0.094869286 0.23414509 -0.96323055 -0.09045677
0002c0 e1 9e 00 3e 15 2a c3 3d 9a bd 4c bf c5 c2 0a 3d
       0.12560607 0.09529511 -0.7997681 0.033877153
0002d0 98 c3 87 3d 3c 2c 6b bf e8 0e 41 3f ed 2d 06 be
       0.066291034 -0.9186437 0.7541337 -0.13103457
0002e0 11 67 0b c0 6c c9 29 3f 0c 0f 87 3e 2d 9b 1b bd
       -2.1781657 0.6632297 0.26378667 -0.037989784
0002f0 93 17 1f bd a2 7d ac 3c a8 6e a2 bd dd 42 90 bf
       -0.03884084 0.021056 -0.07931262 -1.1270405

net.6.bias f4 [3]
000000 b1 9d 94 3e 42 63 26 bd e8 c5 64 3e
       0.2902656 -0.040622003 0.2234112
