game/model/models/q_net_500_50000_128_64_normalized-nonDueling_EPOCH_50.pkl (torch, 112936 bytes, 14 tensors)

net.0.weight f4 [128, 8]
00000000: ce9e 5b3d 9631 0d3e 6339 9cbe 679d 33be
00000010: e157 a33d 4524 fb3c f78d 843c 9a7d 6f3e
00000020: 8f81 21be c91f b8bd e3c9 22be 36c1 d9b9
00000030: 5560 9fbe f4ed c8bd 4293 993e 8c2f 08be
00000040: fdb6 9e3e 39b7 59be 1a97 2ebc 441d b4bd
00000050: 6dc5 163e b668 7ebe 5fbc 9d3d 0d34 113c
00000060: b118 903d c7c6 1e3e c0b1 063e baaf 5ebd
00000070: c851 6fbe d085 aabe 9f74 0cbe abcb 9bbe
00000080: a36a b63e 5562 a93e 33e6 283b 7227 a6be
00000090: 8d20 98be 51b8 ad3e 077f ae3e fdbc 9d3e
000000a0: b16e 923e a5c1 69be 7506 103e 8b5f f43d
000000b0: f6e1 a23d 36f3 97be 5cd4 8dbe 1474 8abe
000000c0: a843 47bd a712 43be 3602 52bd c383 3e3d
000000d0: 656a 293b 9de5 00be acad 90be 8f38 90be
000000e0: 621b 77be c049 90be 0378 023d 2e01 9f3e
000000f0: 967f f23c 1773 eabd 412a 17be 2c23 1dbe
00000100: 4a28 993e 9377 763e ab74 5e3e 7914 b5be
00000110: a956 2c3e bef4 81be 4ec8 6f3e b0fc 8a3e
00000120: ef04 a4be fcd3 6cbe 17ec 9dbe d518 a2be
00000130: c832 04be ae84 05be b652 d6bd 200c 453e
00000140: e953 6abe 50f5 a23d b973 893e e055 80be
00000150: a8a7 f73d 0075 a93d 6fd6 003e f380 80be
00000160: 5946 ca3e 9fed ba3e c649 b63d 80bb 64bc
00000170: c957 9a3d ae68 463e d5be 233e 7d74 21bd
00000180: fac5 163e 903a 31be b23c 1b3e 4fc7 a53e
00000190: 0c83 ff3d 5c3b 8fbe 4fc8 46be fbe7 193e
000001a0: 070d a8be 8e9b 11be d843 cd3c f39e ebbd
000001b0: 36b9 f1bc d063 703d 1d56 8fbe 9d51 9abe
000001c0: 16d3 d4bd 84d8 99be eb2e b33e 1cac 64be
000001d0: ac6c c23d 6ea7 a7be 1ecd b7bd 01de 66be
000001e0: 869d 8e3d 21ab f5bd 079b 99ba 2223 823e
000001f0: 087b 713d 63f8 fdbd 3435 0cbe 8880 863e
00000200: eaf8 b5bd e71d 103e 4ede 7c3e 63fa a13e
00000210: 7f61 0dbe 1a31 d6bc 66e2 76bc 5de8 603e
00000220: 0625 d5bd 5582 9f3d 6e94 623d 35f4 8cbe
00000230: 4568 ce3d 8fd8 603e ad7f f4bd ed8c 553e
00000240: 3637 253d b2a2 3abe 44b0 3fbe 647c 9b3e
00000250: 0905 363e 10c9 23be 7af2 d0bd 4e06 423d
00000260: 6b1f 65be f85c a43e 366e e43d aeb0 13bd
00000270: 531c 1cbd 3a19 73be 03eb 72be 63f5 3cbe
00000280: 584e 593e 2c3a 61be 5337 38be f891 903b
00000290: 9317 90be cc65 fd3c 3ab8 8bbe 765e a8be
000002a0: 92da b13e 0c09 32bc 3b2a d73b 3488 aa3e
000002b0: 2023 8fbc ef48 323e 0498 ca3d 98f7 933e
000002c0: 6b13 66be 1334 be3e 8ace 19be 59ce ad3e
000002d0: 1ab4 c03d 4587 6bbe d524 923e 9882 123e
000002e0: 43e0 073b bcba 163e 3db3 343e dcb4 a13e
000002f0: b897 0bbe 793b e53d e5a2 b53e e5aa 063e
00000300: ee57 0abd 4b42 633e 2fa7 18be 42cb 93be
00000310: 576f 083e 2ec2 a43e 7ff8 2abe cb75 0cba
00000320: 29df d53e 6720 c8bd c3f0 7fbe d762 6e3e
00000330: 55f2 52bd 4f7b 693e fc0a 993e 93b3 443d
00000340: 1005 8bbe 8a60 823b 1ac7 03be 8f5e 653e
00000350: 27a5 b3be b39a 5dbe 3b11 793e 5ce3 683e
00000360: 4a69 debb babb 9abe 2e2e 393e 8e64 52bc
00000370: 1444 a1be 7f3b ebbc f47a 913e 919a e13c
00000380: e929 933e 2751 b73c eb42 e0bd a23e 893e
00000390: 6595 adbe 478a a63e ead8 31be e1a2 7e3e
000003a0: c75c 7e3d cfda 82bd 4c4f 8f3e 0bba af3e
000003b0: 7b3b 8ebe d1b8 343e 7577 683e 79dd 8ebe
000003c0: e389 5a3e ac18 093e 26f6 53be 301e 083e
000003d0: 7f2e 933d 2bfa d93d fc44 923e fd83 883e
000003e0: 69e1 533d ac18 aabd 8cff 79be e964 843e
000003f0: b13d 75be 8804 63be 15d2 1fbc 67e9 193b
0.053618245 0.13788447 -0.30512533 -0.17540513 0.07975746 0.030656943 0.016180975 0.23387757
-0.15772079 -0.089904375 -0.15897326 -0.0004153342 -0.31128183 -0.09811011 0.2999516 -0.13299388
0.30998984 -0.212613 -0.010656143 -0.087946445 0.1472375 -0.24844632 0.077019446 0.0088625075
0.070359595 0.15505515 0.13153744 -0.054366805 -0.23371041 -0.33305216 -0.13716362 -0.30428824
0.35628232 0.33082834 0.0025771975 -0.3245197 -0.29712334 0.33929685 0.3408129 0.3080825
0.28600076 -0.22827776 0.14064963 0.11932286 0.07953255 -0.29677743 -0.2770108 -0.27041686
-0.048648506 -0.19050084 -0.05127164 0.046512377 0.002585077 -0.1258759 -0.282575 -0.2816815
-0.2413154 -0.28181267 0.031852733 0.31055588 0.029601853 -0.11447733 -0.14762212 -0.15345448
0.2991355 0.24069051 0.21724193 -0.35367182 0.16829933 -0.25382036 0.23416254 0.2714591
-0.32035014 -0.2312774 -0.30844185 -0.3165957 -0.12909997 -0.13038895 -0.104649946 0.19242907
-0.22883572 0.07956946 0.26846102 -0.25065517 0.12092525 0.08274269 0.125818 -0.2509838
0.39506796 0.36509416 0.0890079 -0.013960719 0.07536275 0.1937587 0.15990765 -0.039417733
0.1472396 -0.17307496 0.15159872 0.32378623 0.12476167 -0.27974975 -0.19412349 0.150299
-0.3282244 -0.14219496 0.025056764 -0.115049265 -0.02950726 0.05868894 -0.27995387 -0.3014039
-0.10391824 -0.30048 0.34996733 -0.2233128 0.09493384 -0.32744926 -0.0897467 -0.22545625
0.06963639 -0.11995531 -0.0011719175 0.2541743 0.058955222 -0.12400892 -0.1369217 0.26269937
-0.08885367 0.14073907 0.24694178 0.31636342 -0.13806723 -0.02614646 -0.015068626 0.2196364
-0.10407452 0.07788531 0.055317335 -0.27530065 0.100784816 0.2195761 -0.11938415 0.2085454
0.040335856 -0.18226126 -0.18719584 0.3036834 0.17775358 -0.15994668 -0.10202499 0.047369294
-0.22375266 0.3210218 0.111538336 -0.036057167 -0.03811295 -0.23740092 -0.23722462 -0.18452983
0.21221292 -0.21994847 -0.17989855 0.004411932 -0.28142986 0.03093233 -0.2728899 -0.32884568
0.34737068 -0.010866415 0.0065663136 0.3330704 -0.017472804 0.17410634 0.09892276 0.28899837
-0.22468345 0.37149104 -0.15020195 0.33946493 0.09409352 -0.2300082 0.28543726 0.1430763
0.0020733036 0.14719671 0.17646499 0.31583297 -0.13632095 0.11192984 0.3547584 0.13151129
-0.033775263 0.22193258 -0.14907525 -0.2886601 0.13323723 0.32179397 -0.16696356 -0.00053581287
0.4177182 -0.09771805 -0.24994187 0.23279892 -0.051500637 0.22800945 0.29891193 0.048022818
-0.271523 0.0039787935 -0.1286892 0.22399352 -0.3508694 -0.21641044 0.24322979 0.2274298
-0.006787454 -0.3022135 0.18084022 -0.012841357 -0.31497252 -0.028714893 0.28414118 0.027539523
0.28742912 0.022377564 -0.109502636 0.26805598 -0.3390304 0.32527372 -0.17367902 0.24866821
0.062100198 -0.06389391 0.27990186 0.34321627 -0.27779755 0.17648627 0.22701819 -0.27903345
0.21341662 0.13388318 -0.20699367 0.13292766 0.07186603 0.10643419 0.28568256 0.266632
0.05172864 -0.08305487 -0.2441389 0.25858238 -0.23949315 -0.22169697 -0.009754677 0.0023485066

net.0.bias f4 [128]
00000000: cc87 88be 5220 103e 7a5c 71be 6816 563e
00000010: ac40 7a3e 6a6d 1d3e 1a91 8dbd 6108 3e3e
00000020: 3d10 163e cda3 0abe 11fd afbe 6c23 483d
00000030: 6594 0fbe a3c0 36be e921 d8bd 8beb c73c
00000040: c742 9f3e 82ce 90bd dd8a 583e 682e 5d3e
00000050: 3800 6cbe 9ad0 2abc 524c 05be d118 5dbe
00000060: 5f95 4bbe 5b20 903e d56d b23d 7f72 703e
00000070: ab9d 023e 60a0 913e 2c5d 87bd db3d f7bd
00000080: 134e 3cbe a92f 15be 6e16 4d3e a2e4 26be
00000090: ea16 ed3d f418 14be 6d7d 053e 31b8 8fbb
000000a0: c3ac 15bd 80f1 5d3e 017e 4f3e 20eb 83be
000000b0: 1c5f 94be bfbb cbbd 98df 7abd f75e 7ebe
000000c0: 9765 7b3d 760b 8bbe 0a43 8c3e d8c1 923e
000000d0: cce4 f4bd 4382 933d d4e8 ba3c 2888 c1bc
000000e0: 9bdb 843e a851 823e 931c a23e 52b6 9a3d
000000f0: 6b1d 14be 268b b33e d310 a53e 5d3c 923d
00000100: 074a e33d ac98 9cbe 0bb3 c33d 0712 363c
00000110: 5615 803c 386a 51be 5dea f03d c0ce 35be
00000120: a901 00be 7200 f93d 7cc5 6d3e 0abf b13d
00000130: 8a6b 58be 9f8f 843e 419c db3d 46a2 8e3d
00000140: 39a9 5a3e 6ba1 8dbd 7f46 913e b677 043e
00000150: 1ae4 2bbd e0e1 b3be 00f4 d6bd 7996 98be
00000160: 5b75 79be d4ae 4fbe fa40 74be 5d42 613e
00000170: 7466 7abd b94e c5bd 85a5 5a3e 7d8f 51bd
00000180: 9187 8fbd 46c9 fb3d 8dc2 18bd 7600 89be
00000190: e1e4 eb3c 08aa 61bd 92c7 8fbe 682f 96be
000001a0: a9eb 71be b58b 6c3d dc9d 1abe d0d4 6bbe
000001b0: a313 fa3d 2053 473e f9cc 8d3d 4de2 073e
000001c0: de99 fc3c 71bb 833c fd6f d73d 355d 993e
000001d0: ffdb 6b3e fd09 183e 5899 3bbe 1b66 1dbe
000001e0: 3617 abbd 653f 463c e650 b9bd 8acd 973e
000001f0: 542e cdbc d9c7 88be 1c8a 313e 830a a6be
-0.26666105 0.14074829 -0.23570433 0.20906985 0.24438733 0.1537377 -0.069124416 0.18557884
0.14654632 -0.13539048 -0.34372762 0.048861906 -0.14021452 -0.17846923 -0.10553343 0.024404308
0.31105635 -0.07070638 0.21146722 0.21599734 -0.23046958 -0.010425711 -0.13017395 -0.21591498
-0.198812 0.28149685 0.08712355 0.23481177 0.12755458 0.2844267 -0.06609568 -0.12072345
-0.18389158 -0.14568962 0.20028087 -0.16298154 0.11576636 -0.14462644 0.13036127 -0.004385971
-0.03654171 0.21674156 0.2026291 -0.25765324 -0.28978813 -0.09947919 -0.061248392 -0.24840914
0.06137618 -0.27157182 0.27394897 0.28663516 -0.11957702 0.0720258 0.0228161 -0.023624495
0.25948796 0.25452924 0.31662425 0.07554306 -0.14464347 0.350671 0.32239398 0.0714042
0.11098104 -0.3058523 0.09555634 0.0111126965 0.015635174 -0.20450675 0.11763451 -0.1775465
-0.12500633 0.12158288 0.23219866 0.08679016 -0.21134773 0.25890824 0.107231624 0.06964545
0.21353616 -0.06915554 0.28374097 0.12936291 -0.04196558 -0.35133266 -0.10495758 -0.29802302
-0.24361174 -0.20281535 -0.23852912 0.21997972 -0.061132863 -0.09634156 0.21352203 -0.05116223
-0.07008279 0.12294249 -0.037294913 -0.26758164 0.028795661 -0.055093795 -0.28081948 -0.29333043
-0.23625053 0.057750423 -0.15099281 -0.230304 0.12210777 0.19465303 0.06923861 0.1326992
0.030835088 0.01608059 0.10519407 0.29953924 0.2303314 0.1484756 -0.18320215 -0.15370981
-0.083540365 0.012100075 -0.09048633 0.29649 -0.025046505 -0.26714972 0.17337841 -0.32429895

net.2.weight f4 [128]
00000000: b624 7f3f 2f7a 7d3f 2da4 803f 3d27 7e3f
00000010: 2a12 803f d725 813f d6db 7e3f 81ca 823f
00000020: 6f33 7d3f df28 803f ffbb 7e3f 2471 813f
00000030: f77b 7e3f 0fae 7e3f 471b 803f d1fa 7e3f
00000040: 046a 7c3f e6a4 7e3f b6da 7e3f 0ea8 863f
00000050: 1bef 803f 9bef 823f de27 833f e14c 813f
00000060: 1477 803f a79f 803f c07f 7e3f 146f 7d3f
00000070: ebc5 7f3f 2f64 7d3f 4c63 803f 2c3e 7f3f
00000080: f8aa 823f 4ccf 7d3f 96e8 7d3f afd5 813f
00000090: 36d4 7f3f ac11 823f 98e7 7f3f 4209 813f
000000a0: e89c 7e3f b7cf 833f df20 813f 109d 803f
000000b0: 1e30 7f3f 287e 803f 6443 803f 1cc5 823f
000000c0: d218 803f 8a00 803f b7f3 7b3f f2c0 7d3f
000000d0: d48b 7c3f 226a 823f 450f 853f 7245 803f
000000e0: e1f1 7c3f 7ead 7d3f 3059 7e3f cf9c 7c3f
000000f0: 30e8 7d3f 6c51 813f 1f62 7f3f 9951 833f
00000100: 283c 813f d5ca 7d3f f3fa 803f c265 803f
00000110: b82c 803f 6df6 7c3f 1887 803f 4fa2 7e3f
00000120: c609 803f 673f 853f 1732 7e3f 9ab8 7f3f
00000130: 373d 813f 6134 7d3f 7fd2 7e3f 0a52 7e3f
00000140: 74bf 7f3f 58ab 803f 126b 7c3f 1d04 813f
00000150: f686 7d3f 48a4 7f3f e3e8 803f 8e4e 7e3f
00000160: 9486 803f 8a98 7d3f 2fe8 7f3f c2fe 803f
00000170: 7840 803f 4115 7f3f 274d 853f bd38 813f
00000180: 2047 803f f625 803f 6790 803f 4a28 7f3f
00000190: c6dd 823f a177 803f a386 7e3f 4f74 803f
000001a0: e2fb 7e3f f9de 813f 6e51 803f 645c 7d3f
000001b0: a3a8 813f 76e5 7c3f 0cde 803f 23d0 813f
000001c0: a654 823f 39f9 7d3f 8b48 7d3f a293 803f
000001d0: 739f 7e3f 0c8e 833f c86f 803f 2440 7f3f
000001e0: 4c8c 813f 52ae 823f afdf 7f3f 5a90 7d3f
000001f0: 189e 7e3f 2a08 803f 16b1 803f e295 803f
0.9966539 0.9901456 1.0050102 0.9927862 1.0005543 1.0089673 0.99554193 1.0218049
0.98906606 1.0012473 0.9950561 1.0112653 0.99407905 0.9948434 1.0008324 0.99601465
0.98599267 0.99470365 0.99552476 1.0520036 1.0072969 1.0229372 1.0246542 1.0101587
1.003634 1.0048722 0.9941368 0.98997617 0.99911374 0.98980993 1.0030303 0.9970424
1.0208426 0.99144435 0.9918302 1.0143336 0.99933183 1.0161643 0.9996276 1.008095
0.9945817 1.0297765 1.0088156 1.0047932 0.99682796 1.00385 1.0020566 1.0216403
1.0007575 1.0000165 0.98418754 0.99122536 0.9865086 1.0188639 1.0395285 1.0021193
0.9880658 0.99092853 0.9935484 0.9867677 0.99182415 1.0102973 0.99759096 1.0259277
1.0096483 0.9913762 1.0076584 1.0031054 1.0013647 0.98813516 1.0041227 0.99466413
1.0002983 1.0409974 0.9929518 0.99891055 1.0096806 0.9890805 0.9953994 0.9934393
0.9990151 1.005229 0.98600876 1.007938 0.9903406 0.9986005 1.0071071 0.99338615
1.004107 0.9906088 0.9996366 1.0077746 1.0019674 0.99641806 1.041417 1.009544
1.0021706 1.0011585 1.0044068 0.9967085 1.022393 1.0036508 0.9942419 1.0035495
0.9960309 1.0146171 1.002485 0.989691 1.0129589 0.9878763 1.0067763 1.0141643
1.0182083 0.9920841 0.98938817 1.0045054 0.9946205 1.0277724 1.0034113 0.99707246
1.012094 1.0209448 0.9995069 0.9904839 0.9945998 1.0002491 1.0054042 1.0045741

net.2.bias f4 [128]
00000000: 85b5 4e3b 0ab9 b73b e3ef 82bb 55f3 e73b
00000010: aacb 00bb fa5b 05bc c468 963b c15e 953b
00000020: 16b8 2cbc 7893 18ba 4f77 bc3b 3d24 9c3a
00000030: d1fb ab3b 7827 8f3b 3cbf afba 1a11 673c
00000040: 9a0e 47bc 9195 57bb f990 073b fc8e e0bb
00000050: 0e3b edbb 56f9 233b fef8 abba ecd8 d2bb
00000060: 30d7 a0ba 4cd5 553b 6385 80bb affb 10bc
00000070: 21b8 4fbb ca43 efbb 85a0 e93a af3b 0a3b
00000080: 30a4 efbb f6cd 243c 983c cbba 5ef5 ab3b
00000090: e56e 02bc bad6 e1bb 95ed dbbb e0c9 5ebb
000000a0: b7f7 30ba a438 3dbb 4184 68bb bd7d 8bbb
000000b0: 742d 2b3b 76db aeb9 1283 32ba d3a7 9939
000000c0: 363d 343c d2d9 1d38 675b 98bb 7e6d 16bc
000000d0: a3fc 013a f785 1abb 45a7 19bc 0144 a5bb
000000e0: 1945 16bc 6c92 7bbb cb8b e0ba b07a da39
000000f0: 7f21 fe3b 8e8b 20bb 61fd cfbb 1f2e d639
00000100: 4a00 9a3b 87d9 073c c58b 5c3b 8ad0 4f3b
00000110: bd71 bbba 71d0 c53b 5c49 01bb acec a73b
00000120: 14c8 303a ba10 9bbb f4e5 f7bb e701 c13b
00000130: 466d 233c 323e 37bc bc1c 9e39 7ca9 c83b
00000140: e36c a4bb 74cd 25bb 54c9 10bc a843 143b
00000150: 828e 023c dbed 0c3b 75f7 e8bb f354 643b
00000160: 0347 713b 6ee4 263c f869 a639 fcd7 113a
00000170: c0d6 f4bb 580e 063c 7039 e9bb 06fe 803b
00000180: 3c86 33bb 2255 dbba fa5f 6cba 188f 5e3b
00000190: bf00 1a3c e50c 273b bf3b 1d3c 8fdd 463a
000001a0: 7875 5d3b dd7d 09bc 7bb7 5cbb 834c 343c
000001b0: 5f8b 97ba 263f d8bb e2ea 03bb 449a 6a37
000001c0: 0233 8cba 2cec fc3b 8319 b03b 19cb 31ba
000001d0: 2e8b 00bc 2706 283b 8dad 32bb 7657 5c3b
000001e0: cf0d 1b3b 8e31 4e3a a232 9c3a 7392 fcbb
000001f0: 26aa 013b 5f89 a73b 87ea a43b 8292 92bb
0.00315413 0.005606775 -0.003995882 0.007078568 -0.0019652643 -0.008139605 0.0045901258 0.0045584147
-0.010541936 -0.00058203144 0.0057515274 0.0011912655 0.0052485247 0.0043687187 -0.0013408433 0.014103198
-0.012149477 -0.0032895545 0.0020685776 -0.0068529826 -0.007239706 0.0025020442 -0.001312047 -0.0064345505
-0.0012271162 0.0032628356 -0.003922151 -0.008849069 -0.0031695443 -0.0073017823 0.0017824328 0.0021092703
-0.007313274 0.010058871 -0.0015505729 0.005247756 -0.00796101 -0.0068920525 -0.0067116716 -0.0033994839
-0.00067507796 -0.0028872872 -0.003547922 -0.0042569325 0.0026119621 -0.00033351377 -0.0006809692 0.00029307473
0.011000922 3.7634578e-05 -0.004649568 -0.009181378 0.0004958605 -0.0023578384 -0.009378259 -0.005043507
-0.009171748 -0.0038386835 -0.0017131505 0.0004167161 0.007755458 -0.0024497244 -0.006347344 0.00040851624
0.0046997415 0.008291609 0.0033652645 0.0031709992 -0.0014300864 0.006036811 -0.0019727563 0.005124649
0.0006743681 -0.0047322186 -0.0075652543 0.0058901194 0.009974783 -0.011184262 0.00030157517 0.0061237197
-0.005017863 -0.0025299462 -0.008837063 0.0022623334 0.007968547 0.0021504078 -0.0071095773 0.0034840673
0.0036816008 0.010186298 0.0003174094 0.0005563495 -0.0074718893 0.008182131 -0.007117443 0.003936532
-0.0027393242 -0.0016733746 -0.0009016987 0.0033959802 0.009399592 0.0025489863 0.009596764 0.00075861154
0.003379194 -0.008391825 -0.0033678699 0.01100457 -0.0011561922 -0.0065993248 -0.0020129015 1.3983405e-05
-0.0010696354 0.0077185836 0.005374135 -0.0006782278 -0.007845683 0.0025638433 -0.002726409 0.0033621467
0.0023659354 0.00078656606 0.0011916945 -0.007707888 0.0019785254 0.0051128115 0.0050328407 -0.0044730315

net.3.weight f4 [128, 128]
00000000: 2cdf a3bc 3f92 1e3d 160d 303d 8250 3fbd
00000010: ce45 5b3d 04ca 4ebd a6ba d6bb 16f4 943d
00000020: 7db5 d23c cb61 4bbd e0d6 1abc 0389 9c3d
00000030: 8898 973d f894 4d3d 542f 113d b2a4 383d
00000040: 92e7 6d3d aca6 cf3a 9e80 b1bd 76d5 be3c
00000050: 5fd0 4abb e569 603d d22f a03c cde7 643d
00000060: 403a 553d 9503 96bd 5c6e 443d cb95 a03d
00000070: 8625 0c3c 2c26 6f3d c6f6 92bd 7950 efbb
00000080: 3a27 253c d5ae 143d e33d 6ebd a23d ec38
00000090: 0488 853d 10da 063d 5118 ae3d 80e1 89bc
000000a0: 455f 96bc bcec 1ebd 0de6 743d 387d 0abc
000000b0: 3857 fdbc 3b3a 873d 6d51 4bbd 77a1 7fbc
000000c0: bf9b 103d a648 913a f20a 223b 1fff 21bd
000000d0: f505 9f3d fa05 113d 9fca 4bbc 6643 123d
000000e0: e708 3e3d 38f8 ab3d ad88 09bd 1580 51bd
000000f0: f879 0bbd adc9 95bd ce7f 393d fe46 83bd
00000100: e7d3 7fbd d360 07bd 14b5 c1bc d4a6 a2bd
00000110: 7b41 31bd 1100 513d 2fc5 263d a2bf b63b
00000120: cc98 573c f0b7 503d 2df9 b8bd dc6f 603d
00000130: b19f c33d 6e39 ddbc 22c2 20bd 15f9 b93d
00000140: bb1a 2a3d b28d 633d 17a7 2c3d b05f 22bc
00000150: 53c1 a23d 122e 583d 9258 23ba 75b1 1cbd
00000160: 4375 193c 81a8 b5bd abbb c73b ad07 70bc
00000170: 4cf5 5cbd c97c 26bc bbc0 dd3c ecc0 1f3d
00000180: 948b 243d 97ab 9cbd 0a8c d23b 11ce f63c
00000190: 0d89 29bd b0c5 b2bd a94b 553d 5bf4 5ebc
000001a0: a676 5c3d bc27 88bd d290 20bd 3560 563b
000001b0: 2e70 833d b354 78bd 08fb 8d3d ca0f d4bc
000001c0: 0451 35bd 0a3c 883d 2ccb 23bd 3c45 2bbd
000001d0: 56f6 1a3d 8a8c 5a3d c41b 433d 90e5 9dbd
000001e0: a01f 59bb ab86 243d 8dda 803d c99f 643c
000001f0: 2a21 a4bd c488 a23d 7ed7 a53d 7fdc 8bbb
00000200: 5121 063d 2a83 173c c61a e2bb abf8 22bc
00000210: 4db8 8fbc 1d31 17bd 5d81 323d 0a4a 5c3d
00000220: 49b1 0f3d 21cc 05bd 5add af3a 4bf2 84bd
00000230: db1b 95bc bc62 1dbd ec09 063d 20af b5bd
00000240: 762a c13c d1e0 85bd 662d 5fbd b788 31bd
00000250: 5eb4 b33d 7e9d 4a3d b2a9 25bd e11c 593c
00000260: 0c65 28bd 8a92 283d bb65 7e3d 9111 fc3c
00000270: 2724 8f3c 64f1 14bc 7c4a de3b f465 ee3a
00000280: 4516 3c3d 4637 393d bb22 733d a44e a2bd
00000290: bf14 103d 87da 4cbd 802b 913d 8591 adbd
000002a0: 1351 343d 447d 69bd 5c3b 1bbc 1cef 603c
000002b0: 3154 b33d fafa 63bd 1730 18bd 4493 52bd
000002c0: e4e6 dabc 0aa5 a3bd 83d5 083c 2a89 853d
000002d0: 22c1 043d 5f5a 27bd 5708 5d3d b935 a0bc
000002e0: e116 02bd 3d1e 513d bcf4 a8bd e3d7 b43c
000002f0: 7b79 2a3d b904 783d 4bab 8d3d 159f 433d
00000300: 700d e7bb bed1 92bd c2d7 3abd 7646 613d
00000310: 8983 9dbd 4349 d23c 2818 123d 714c 933d
00000320: 5d8b 313d 90bf d33d a36b 6f3d 7d40 99bd
00000330: 9082 88bd 7ac5 fdbc 115a 97bc 057e dbbc
00000340: 7454 52bd 2428 03bd 6faa 283d 3768 7fbd
00000350: ede6 5d3d 3581 893d bc64 603d 1535 d63b
00000360: c93a ac3d 7bc3 1d3d fef7 5b3c 0ddc ce3c
00000370: 7998 d03d fdc2 fbbc 037d b3bc 8f45 56bd
00000380: 183d 8f3d ea3c 493c bf59 9fbd e53d 403d
00000390: 36dc 84bd f2b7 073c dc36 a8bd b7f5 00bd
000003a0: 8dba 72bd 2c1e 6ebb 2746 793d 6f9f a73c
000003b0: a8b0 323d 0d93 5c3d 04a6 5c3d f157 833d
000003c0: 8b46 80bc 6b17 223d a3e1 333c 87f6 253d
000003d0: 30e0 763d 42bb 773d 4006 c83c cf1d 7a3d
000003e0: 390d 963d bc5f 6bbd 64fd 9cbd 92d1 a7bd
000003f0: 67c2 4b3d 67af 8ebd 339c 7a3b a973 073a
-0.020003878 0.03871369 0.04298123 -0.046707638 0.053533368 -0.050485626 -0.006553012 0.07273118
0.025721306 -0.04965381 -0.009450644 0.076433204 0.0740214 0.050190896 0.035445526 0.04507894
0.05808217 0.0015842519 -0.0866711 0.023295145 -0.0030946953 0.05478849 0.019554053 0.055885125
0.052057505 -0.07324902 0.04795681 0.07841071 0.008553868 0.058386013 -0.071759745 -0.0073032943
0.010080153 0.036299545 -0.05816449 0.00011264837 0.065200835 0.032922804 0.08500732 -0.01683116
-0.018355975 -0.038799986 0.059789706 -0.008452706 -0.030925378 0.066029035 -0.0496382 -0.015602461
0.03530478 0.0011084273 0.0024725762 -0.039549943 0.07764808 0.03540609 -0.012438445 0.035708807
0.04639521 0.08396953 -0.03357761 -0.05114754 -0.034051865 -0.07313857 0.0452879 -0.06410025
-0.062457945 -0.033051323 -0.023645915 -0.07941976 -0.043275338 0.051025454 0.040715393 0.0055770436
0.013158988 0.050956666 -0.090319015 0.054794177 0.09551943 -0.027004924 -0.03924764 0.09080712
0.0415294 0.055555053 0.042151537 -0.009910509 0.0794703 0.05277831 -0.00062311545 -0.038255174
0.009366336 -0.0887003 0.00609537 -0.014650268 -0.05394487 -0.010161587 0.02706944 0.039002344
0.040172175 -0.07649916 0.0064253854 0.030127557 -0.041390467 -0.08729112 0.05207411 -0.013608064
0.05382409 -0.06648204 -0.03920061 0.0032711152 0.06417881 -0.06062765 0.06932646 -0.025886435
-0.044266716 0.066520765 -0.03998868 -0.041814074 0.03783258 0.053356685 0.0476339 -0.07709801
-0.0033130422 0.040167492 0.06291685 0.013954111 -0.08014138 0.07936242 0.080977425 -0.0042682285
0.032746617 0.009247581 -0.0069001643 -0.009946982 -0.017543936 -0.036912072 0.0435804 0.053781547
0.03508118 -0.032665376 0.0013417408 -0.06491526 -0.01820176 -0.03842424 0.032724306 -0.08871293
0.023579817 -0.06537021 -0.054486655 -0.043343272 0.08774637 0.049466603 -0.040445037 0.013251514
-0.04111199 0.041155376 0.062108736 0.030770095 0.017473293 -0.009090755 0.0067837816 0.0018188343
0.045919675 0.04521873 0.059359293 -0.07925156 0.035176035 -0.05001309 0.07088375 -0.08475021
0.04402263 -0.05700423 -0.009474602 0.013728883 0.087562926 -0.05565927 -0.037155237 -0.051409975
-0.026721425 -0.07990463 0.008351686 0.065203026 0.03241075 -0.04085767 0.05396303 -0.019556867
-0.0317601 0.051054228 -0.082498044 0.022075599 0.04161976 0.06055138 0.06917437 0.047759134
-0.0070511624 -0.071689114 -0.04561592 0.054998837 -0.07691104 0.0256697 0.03566757 0.071923144
0.043345798 0.10339272 0.05845226 -0.07483003 -0.06665528 -0.030977953 -0.018475564 -0.02679349
-0.051350072 -0.032020703 0.041178163 -0.062355246 0.054175306 0.067140974 0.054783568 0.0065370896
0.0840965 0.038516503 0.013425825 0.025251413 0.10185332 -0.030732626 -0.021910196 -0.05231243
0.069940746 0.012282589 -0.077807896 0.046934027 -0.064873144 0.008283602 -0.082135886 -0.031484332
-0.05925994 -0.0036333902 0.060857918 0.020461766 0.043625504 0.053851176 0.053869262 0.06413258
-0.015658638 0.039573114 0.010979089 0.04051831 0.060272396 0.060481317 0.024417043 0.061063584
0.07326741 -0.057464346 -0.07665518 -0.08194269 0.049745943 -0.06967049 0.0038240075 0.0005167076

net.3.bias f4 [128]
00000000: b648 8dbc 0d53 9dbd 42c5 fdbb 9424 b93d
00000010: 958a 22bd c4f2 0a3d 218d 173d 03ad a53c
00000020: d199 1abd 5e95 eb3c c299 a7bd d924 91bc
00000030: 8f38 8a3d cc23 d5bb cb13 22bd ce8e 81bd
00000040: bdde 26bd 233d 893d e878 293d fd9e 9cbd
00000050: ae95 b0bd 89e6 f8bc 392f f53c fd0a 6e3d
00000060: e54f aebd 01eb 36bd 4a7a 173d b686 2e3d
00000070: e17d 1d3c fe18 333d a942 78bd 6b3c 53bd
00000080: 7ba2 92bd 8a8e 813d aa42 27bc 642e d33c
00000090: 476b 0a3d 1f1d 78bd f3be 903d a83b 823c
000000a0: e047 383d 65bf a83d a1ad acbb ae59 943b
000000b0: de4d df3c 98fb cfbb 71f4 8fbd 2077 14bc
000000c0: 1768 5fbd 4e39 0b3d b2fd 363d 858a 7f3d
000000d0: 045a e2bb d8b2 a5bd 90a5 f3bc c660 82bd
000000e0: 1838 5ebd 2217 b8bd 4a07 d33c b9bd 51bd
000000f0: 2cd8 ac3b e387 6abd fea1 57bd e7a0 17bb
00000100: c712 1fbd 9a4c 28bd 748e 0c3b 9eea adbc
00000110: d419 543d 9f50 22bd aa9f d4bb 10af 76bc
00000120: 5026 883d b861 273d 5546 48bd e42a 63bd
00000130: 7c5e 3d3d 78e3 6c3d 7e30 92bd e2ac 95bb
00000140: 1bfc 75bc 94c4 89bd 8fd2 20bd 3303 9d3d
00000150: 616b 8ebd 5e59 7abd 1a31 5c3d f356 99bc
00000160: 547c 64bd ff8a 94bc 2d09 32bd 1f4e adbc
00000170: 842c a03b b9f1 ad3d 214f cebb 7bd9 b0bd
00000180: d538 3c3d 2dc0 14bd 4a91 47bb d803 a8bd
00000190: 5513 883d c57d f8bc 9511 2ebd 0346 a3bd
000001a0: 61af 93bd 5c00 5dbd bb99 343c 2d61 9dbd
000001b0: 8a69 853d 5ae2 293d 6f05 223d a571 64bd
000001c0: b3db a13c a759 2cbd 1a19 223c 8aa5 75bd
000001d0: a44c 88bd 751e 963d b222 5d3d 960f ae3d
000001e0: c166 2b3d 24d8 823d f082 963c 2f15 273d
000001f0: 025d 14bd 4c81 e33b 7e00 c23c b782 c3bc
-0.017246585 -0.07681856 -0.007744462 0.0904018 -0.039682943 0.033922926 0.036999825 0.0202241
-0.037744347 0.028757747 -0.08183624 -0.017717766 0.06749069 -0.0065045115 -0.039569657 -0.06326066
-0.040739764 0.06701114 0.04137507 -0.07647512 -0.08622299 -0.030383365 0.029929744 0.058115948
-0.085113324 -0.04465771 0.03698186 0.04260894 0.009612531 0.043725006 -0.060610447 -0.05157129
-0.07159897 0.06326015 -0.010208765 0.025778957 0.033793714 -0.060574647 0.07067671 0.015897587
0.04499042 0.082396306 -0.0052697216 0.004527292 0.02725881 -0.006347131 -0.070290454 -0.009061605
-0.054542627 0.033990197 0.044675536 0.062387962 -0.0069077034 -0.08090752 -0.029742032 -0.06366114
-0.054252714 -0.08988787 0.025760312 -0.051206324 0.005274793 -0.057258498 -0.052644722 -0.0023136677
-0.038836267 -0.041088678 0.0021447213 -0.021230038 0.051782444 -0.039627668 -0.00648876 -0.015056387
0.066479325 0.040864676 -0.0488952 -0.055460826 0.046232685 0.05783412 -0.071381554 -0.0045677284
-0.01501372 -0.067269474 -0.039263304 0.07666626 -0.06954075 -0.061120383 0.053757764 -0.018718218
-0.05578263 -0.018132685 -0.043465782 -0.021155415 0.004888119 0.084933706 -0.006296054 -0.08635231
0.045952637 -0.036316086 -0.003045159 -0.08203858 0.06644312 -0.03033341 -0.042497236 -0.07972338
-0.07211185 -0.05395542 0.01102298 -0.076845504 0.065142706 0.04147563 0.039555963 -0.055772442
0.019758081 -0.042077687 0.00989368 -0.059972323 -0.06655243 0.07330028 0.053988166 0.084990665
0.04184604 0.06388882 0.018372983 0.040791687 -0.03622151 0.0069429036 0.023681875 -0.02386604

net.5.weight f4 [128]
00000000: f931 813f 8315 7a3f 4572 813f d096 803f
00000010: 5e39 803f 5109 813f 7741 7f3f 9983 813f
00000020: 0769 7f3f 2aa9 7f3f 9d04 813f 635e 853f
00000030: 2ff6 823f e25c 803f e0d6 7f3f a1fc 803f
00000040: 2da1 803f 70ad 7f3f 097c 8a3f 7718 7f3f
00000050: 7ce3 7f3f e145 7f3f 1fb4 7f3f e2c3 7e3f
00000060: 0fb9 7e3f 284f 833f 9900 803f 729f 803f
00000070: 15ea 803f f7f1 803f 339d 7f3f 3181 7e3f
00000080: 253a 813f 634f 833f 3763 813f ce9e 803f
00000090: de4a 813f 6ad1 803f fbce 7f3f abc6 803f
000000a0: 6c1e 833f 9dd2 803f 3206 8b3f ac3b 7f3f
000000b0: 2739 813f f74e 7f3f ee3b 803f 1522 7e3f
000000c0: 4c6a 7d3f ab24 803f f69e 8b3f 50bb 823f
000000d0: 6dae 7e3f 9562 803f 6df4 7f3f 403c 803f
000000e0: fa19 7f3f c64e 823f 104b 7c3f faa0 803f
000000f0: 5319 823f 0fe9 7e3f a31e 803f 9b07 7f3f
00000100: 1a8e 7c3f 7b60 803f 5007 853f d3e3 7f3f
00000110: 3fed 7e3f ec06 7f3f d2f2 843f b258 7f3f
00000120: 8396 833f c4fb 7e3f 3ffe 7e3f 3590 803f
00000130: 8959 803f e9f6 7f3f 029c 7f3f e169 7e3f
00000140: f1d4 813f 4427 803f 4b8f 7f3f d72c 803f
00000150: 1574 7e3f fa55 7f3f ae5d 7f3f 1952 7f3f
00000160: b756 813f 8b2e 803f 7fad 7f3f 8954 823f
00000170: ae67 803f 8879 823f 59ac 7d3f a3d6 803f
00000180: ee41 873f 88e9 7e3f 8e0e 823f 36ae 813f
00000190: 85e8 7e3f ee99 833f 1d47 7e3f c965 7d3f
000001a0: 20b7 803f 8bb7 843f 0bba 813f 6b3f 7f3f
000001b0: 7f26 803f bac7 803f f153 823f 5610 823f
000001c0: bd0c 823f 951b 7d3f 7c4e 7f3f a433 833f
000001d0: 0e3c 813f 5356 813f b96f 7d3f 9e17 813f
000001e0: 1da0 7f3f cdce 7f3f b8fc 813f b478 803f
000001f0: 9ef3 7d3f 2a74 803f 0cd2 823f 97b8 7f3f
1.0093375 0.97689074 1.0112997 1.0046024 1.0017507 1.0080968 0.99709266 1.0118285
0.99769634 0.998675 1.0079533 1.041943 1.0231379 1.0028346 0.9993725 1.0077096
1.0049187 0.9987402 1.0819103 0.99646705 0.9995649 0.99716 0.9988422 0.99517643
0.99501127 1.0258532 1.0000182 1.0048659 1.0071436 1.0073842 0.9984924 0.9941588
1.0095869 1.0258602 1.0108403 1.0048463 1.0100973 1.0063908 0.999252 1.0060629
1.0243659 1.0064274 1.0861266 0.9970043 1.0095567 0.99729866 1.0018289 0.99270755
0.9899032 1.001119 1.0907886 1.0213413 0.994849 1.0030085 0.9998234 1.0018387
0.9964901 1.018029 0.98552036 1.0049126 1.0163978 0.9957437 1.000935 0.9962098
0.9865433 1.0029444 1.0392857 0.9995701 0.9958076 0.99619937 1.0386603 0.99744713
1.0280308 0.99602914 0.996067 1.0044008 1.0027324 0.9998613 0.99847424 0.9938031
1.014311 1.0011983 0.9982802 1.0013684 0.9939588 0.99740565 0.9975232 0.99734646
1.0104588 1.0014204 0.9987411 1.0182048 1.003164 1.0193338 0.99091107 1.0065502
1.0566995 0.9957509 1.0160692 1.013129 0.99573547 1.0281351 0.9932726 0.98983437
1.0055885 1.0368513 1.0134901 0.99706143 1.0011748 1.0060952 1.0181867 1.0161235
1.0160137 0.9887021 0.9972913 1.0250134 1.0096452 1.0104469 0.989986 1.0085332
0.9985369 0.9992493 1.0155249 1.0036836 0.99199855 1.003545 1.0220351 0.99891037

net.5.bias f4 [128]
00000000: a726 be3b 8abb c5bb 02e1 7fba 44cc 103c
00000010: e7d1 5d3c e318 11bb c032 183b 7dd6 263b
00000020: f06e 2a3c 610b 5abb 7ec4 193c 76b0 7e3b
00000030: 45bd c3bb bef7 0e3b 722c b73a 8364 de3b
00000040: 8ae7 cabb eb90 fa3a c0ac b23b ba72 c03b
00000050: 5bb0 153b f2db 5d3b 4890 153b 9049 93ba
00000060: b60a e9ba b564 36bc 3315 ce3b 75b2 eabb
00000070: 5f66 bbbb 17d9 253b c87e d2bb 7952 cc3b
00000080: a1dc 55bc 5ec1 61b8 60da b9bb 08fc 1abb
00000090: d497 73bb c59a 04bb aa39 c53b 8e9b 493b
000000a0: 929d 34bc ac44 17bc f781 0dbc 8d22 cc3b
000000b0: 8d93 0d3c b499 67b9 221c 4e3b bf01 28bb
000000c0: b337 4c3c 6288 48bb b3bb 72bb 1922 efbb
000000d0: 04bb f8bb d942 19bb d0bb d23a 7143 2abc
000000e0: d691 8d39 b9db 76bb eb8e 703c 2e17 e1bb
000000f0: 7246 aebb b180 913b e02d c3b9 7382 a0bb
00000100: e600 6e3c 1ed5 80bb 043c cfbb 55f5 afb9
00000110: caf7 12b9 54a9 493b ba38 96ba 4216 14bc
00000120: ed6f a03b 6628 9f3b 05dd 8cbb 49f4 85ba
00000130: a90b 4ebc e283 5f3a 7c22 2f3b bfde 3e3b
00000140: 9121 74bb 56ea 9739 a2b2 193a bbf0 08bb
00000150: ec6d a73b c8f7 a53b 6e45 a33a 3a92 03bc
00000160: 1ea0 f23a dc3b f23b c533 0d3b 2a04 beb8
00000170: 86f6 b7bb 35c1 87bb b991 363c a22d 2b3b
00000180: ff05 313c 7cbb 383b 41ed 3a3c d078 653b
00000190: 5d0b c23b 0360 98bb 1597 e63b 016e 423b
000001a0: d4a2 f83a 01f8 39bb 3d1c c03b f130 763b
000001b0: 7a37 7cbb 7c3d a1bb 3d95 1bbc 1a42 2fbc
000001c0: 05f6 8eba 6b08 353c 7431 dcba 7897 89bc
000001d0: 8b8d 3a3b f7dd 6bbb b497 4cbc 7844 f0bb
000001e0: b85d 5cbb f4e3 ffba 5df4 283b 8785 a4bb
000001f0: bb0b 363c 6265 bf3b c00d a63a c2f8 59bb
0.0058029476 -0.0060343193 -0.0009761007 0.008837763 0.013538814 -0.0022140078 0.0023223609 0.0025457435
0.010402426 -0.0033270943 0.009385226 0.0038862503 -0.0059734904 0.0021815146 0.0013975038 0.0067868843
-0.0061921524 0.0019116675 0.0054527223 0.0058730515 0.0022840712 0.0033853021 0.0022821594 -0.0011237133
-0.0017779681 -0.011132409 0.0062891482 -0.007162387 -0.0057189907 0.0025306398 -0.006423805 0.0062354174
-0.01305309 -5.3824268e-05 -0.0056717843 -0.0023648757 -0.0037169354 -0.0020233851 0.006018837 0.0030762884
-0.011023896 -0.009232681 -0.008636943 0.0062297047 0.008641136 -0.00022087136 0.0031449874 -0.0025635806
0.012464452 -0.0030598869 -0.0037038147 -0.007297766 -0.0075906534 -0.0023385792 0.0016077701 -0.010392056
0.00027002272 -0.0037667586 0.014682512 -0.0068692183 -0.0053184563 0.00444039 -0.00037227478 -0.0048983633
0.014526581 -0.0039316555 -0.006324293 -0.00033561388 -0.00014015954 0.0030771093 -0.0011460998 -0.00903851
0.004896155 0.004857111 -0.0042988085 -0.0010219897 -0.012576022 0.0008526427 0.0026723435 0.0029124466
-0.0037251452 0.00028975558 0.0005863105 -0.002089544 0.0051095393 0.005064938 0.0012456605 -0.008030469
0.0018510853 0.0073923897 0.002154575 -9.0606816e-05 -0.0056141047 -0.004142905 0.011143141 0.0026119729
0.010804652 0.0028187921 0.011409105 0.0035014637 0.0059217648 -0.0046501174 0.0070370534 0.0029667618
0.0018969425 -0.0028376582 0.0058627413 0.0037565792 -0.0038485215 -0.0049206596 -0.00949603 -0.010696912
-0.001090706 0.01104937 -0.0016799406 -0.016795859 0.0028465714 -0.0035990456 -0.012487341 -0.007332381
-0.0033625197 -0.0019522891 0.0025780417 -0.0050208005 0.011111195 0.005840943 0.0012668893 -0.0033259843

net.6.weight f4 [64, 128]
00000000: 3a21 6cbc 268c e839 3274 ff3c 89bb 65bc
00000010: d98d bebc ff97 7dbd 4ef6 883d 16f2 34bd
00000020: 6506 8dbd 586b 9abd 4a83 84bd c02f 233d
00000030: 53b9 32bd 4d97 19bd 1b68 333d 2e29 18bd
00000040: d82d aebc c32f c43d 3cc5 01bd 1560 5fbd
00000050: 306f b53d 32a6 f43c 64f6 2a3d b7b8 7abd
00000060: 2141 7d3d 4051 84bb 5d9c 97bc 2988 7dbd
00000070: 11e8 7bbc cd33 0d3c 503f 4e3d 14c9 633d
00000080: c135 393d 34eb dabb 8431 533d e84a 5dbd
00000090: 5eb0 043d 97cd cd3d 0971 883a 34cf 56bd
000000a0: 594b b2bd 7782 b2bd 03ba e4bc d76f 98bd
000000b0: 21da a8bb d466 90bc 4f7c 653d 16e2 873d
000000c0: 5307 683d 285d 4b3d 841c 2a3c ec86 853d
000000d0: 6654 79bd c56c 22bd 0ca1 72bd be8b 323b
000000e0: c083 8fbd 3f1b 733d e005 85bc b505 c73c
000000f0: fff7 a6bc 9bba b03c 83c0 7c3c f6b9 503d
00000100: 8a8c a3bd 00ef 793c 1e20 70bb afab 393d
00000110: ac21 79bd a1c9 ac3d 6bd3 debc 5ee8 a63d
00000120: 53a0 0c3d e831 86bb 1f72 a9bd 9ea4 a63d
00000130: 1eb3 98bd 929d f33c 9eae 8e3d f517 563d
00000140: 4607 473d 8085 f83c cb35 613c 3410 8b3d
00000150: 0d36 393d aad1 9dbd 104b 67bc db44 a53d
00000160: 0f2b af3c 1434 81bd ae53 72bb 2d35 b8bd
00000170: 7ffa a1bd cb7f 3c3c 82cd 903d bfc5 fe3c
00000180: bc40 d2bd 5aea a93d 3786 c2bc e02e a63d
00000190: 7a29 d23c 0903 d93c d0e8 f13c 7cd4 8fbd
000001a0: 3b38 99bd 8ffa 8a3d 27ef 633d 3a8f a63d
000001b0: b15a 49bc 65ce 77bd e9f6 91bc a31f 46bd
000001c0: f085 c6bd e6ba 4c3d f4fc c9b8 ddba a6bd
000001d0: 160f 953d 868c e93a a82c b33d 69c0 07bd
000001e0: f835 333c 822b 42bd d867 613d b435 feb9
000001f0: 355c 583d 6922 1a3c 7645 353c acd1 21bd
00000200: f868 5f3d 057a 1ebd d9f4 82bd 756c aa3c
00000210: 52cb 91bd 0821 2bbd 682b 34bd c80a f5bc
00000220: a943 39bc 2d0d 04bd 133e aa3d 62d6 a8bc
00000230: 9cc4 773b d242 90bd 895f 8abd 4c39 24bc
00000240: 2bd8 82bc dd44 e33c d99a d4bd d065 f6bc
00000250: c3ac 72bb e513 563d 1fe6 e7bc b772 98bb
00000260: 49d0 9d3d b512 a43d 2bdf 8fbc 83ff e4bc
00000270: 8690 703d 6ff3 5c3d 69c7 a6bd 117c 25bc
00000280: 089b 843d e946 073d bfca b9bc 41c7 94bd
00000290: f057 763c 6911 103e 5e83 1a3d ff9a 5b3b
000002a0: 8438 88bb af4c 6dbd ef07 14bd c21c 93bc
000002b0: a86d 9abd 1e85 13bc 6b25 28bd a0bc a0bd
000002c0: 645c 033d 5212 aa3d 4b79 943d 74ea 223d
000002d0: 307e e23c 9c4f 0c3d c59a 713c 11e2 e93c
000002e0: 8cb3 e4bc c33d 0c3d 565d 56bd 73d7 97bd
000002f0: 4032 6bbc 4843 173c 9d3a 763c 5abe b6bc
00000300: 46e5 113d 7a56 923d 2543 b5bc dbc2 9cbc
00000310: 177f aabd ace4 133c 7aeb 913d 3a51 00bd
00000320: 2935 7a3d c569 b13d a268 5b3d e209 503d
00000330: d86f 003b 8d98 2ebd d8e2 b53d 24d3 7a3c
00000340: b502 9cba a00e e03b d234 bebc cb5f 8bbc
00000350: 591e 863c 4b0d 08bc 3a80 a63d 908f bb3d
00000360: ce44 70bd c774 89bc 40ba 76bd 587d bebd
00000370: 3482 03bc 82a4 203c dbe0 11bc 6322 363d
00000380: 4fae b0bd 42af 44bd 60cc 3fbd 9786 89bd
00000390: 4b5f 19bc 1325 aabd e60e 18bd 3d73 78bd
000003a0: b184 6bbd 95de 223d 41b7 6bbd 156f bcbb
000003b0: 1977 afbd ce28 5bbd 56e9 2f3d dac8 9dbd
000003c0: 40a6 95bd 900d c43c 7250 bd3d ed65 2a3d
000003d0: 4920 973d d504 813b f82d ad3d 33d8 6f3d
000003e0: eb56 003d 88fc 8dbd b32e 61bd 9361 713d
000003f0: 451b b03d 16b2 b3bd 286b c63d 55b7 56bd
-0.014412219 0.00044354907 0.031183336 -0.014021763 -0.023260998 -0.061912533 0.06687604 -0.044176184
-0.06885985 -0.075400054 -0.06470354 0.03984046 -0.04363377 -0.037497807 0.043800455 -0.037148647
-0.021262094 0.09579422 -0.031682238 -0.05453499 0.08859098 0.029864404 0.041738883 -0.061211314
0.06182969 -0.004038006 -0.018507177 -0.06189743 -0.015375153 0.008618307 0.05035335 0.055611685
0.04521728 -0.0066808704 0.051560894 -0.054026514 0.03239476 0.10048979 0.0010409664 -0.052443698
-0.08705778 -0.087162904 -0.027920729 -0.07443207 -0.005152956 -0.017627157 0.056026753 0.06634919
0.05664761 0.049649388 0.010382775 0.06519875 -0.060871504 -0.039654512 -0.059235618 0.0027243937
-0.07007551 0.059352156 -0.016238153 0.024294714 -0.020381926 0.021573355 0.015426758 0.050958596
-0.0798579 0.015254736 -0.0036640237 0.045329746 -0.060823128 0.08436895 -0.027200421 0.08149789
0.034332585 -0.0040953048 -0.0827372 0.08136867 -0.07456039 0.029738221 0.06966899 0.05226894
0.04859092 0.030337095 0.013745735 0.067902 0.045217562 -0.07706006 -0.014117017 0.08069774
0.021382837 -0.06308761 -0.0036976147 -0.089945175 -0.079091065 0.011505078 0.070704475 0.031100152
-0.10266253 0.08296652 -0.02374564 0.081144094 0.025654543 0.026490705 0.029529959 -0.0702295
-0.07481428 0.067860715 0.055647995 0.08132787 -0.012289689 -0.060499568 -0.017817931 -0.048370015
-0.09693515 0.049982928 -9.631543e-05 -0.0814111 0.07278268 0.0017818369 0.08748752 -0.03314248
0.01093816 -0.047404774 0.055030674 -0.00048486667 0.05282231 0.009407618 0.011063924 -0.0395066
0.054543465 -0.038690586 -0.06394357 0.02080367 -0.071188584 -0.041779548 -0.043986708 -0.029912367
-0.011307635 -0.032239128 0.08312621 -0.020610038 0.0037806397 -0.07043995 -0.06756503 -0.010023426
-0.015972218 0.027742798 -0.10381097 -0.030077845 -0.0037029244 0.052265067 -0.028307972 -0.004652347
0.07705743 0.080113806 -0.01756247 -0.027953869 0.05873158 0.053943094 -0.08143503 -0.0101003805
0.06474882 0.03302661 -0.022679685 -0.07264567 0.015035614 0.14069141 0.037722938 0.0033509133
-0.004157128 -0.05793446 -0.03614038 -0.017958049 -0.075404465 -0.009003906 -0.04105131 -0.07848477
0.032070532 0.083042756 0.07249697 0.039774373 0.027648062 0.03425561 0.014746373 0.02855018
-0.027917646 0.034238588 -0.052335106 -0.074141406 -0.014355242 0.00923235 0.015028623 -0.022307564
0.035619043 0.071454 -0.022126744 -0.019135883 -0.08325022 0.009026688 0.07124992 -0.031327464
0.061085854 0.08662752 0.053566583 0.050790675 0.0019597914 -0.042625953 0.08881158 0.015309129
-0.0011902662 0.006837681 -0.023218546 -0.017013451 0.016371893 -0.008303951 0.08129926 0.09158242
-0.058659367 -0.016779317 -0.060236216 -0.09301251 -0.008026648 0.009804847 -0.008903707 0.044466387
-0.08626997 -0.0480187 -0.046825767 -0.06715124 -0.0093610985 -0.083078526 -0.037123583 -0.060656775
-0.05749959 0.039763052 -0.05754781 -0.0057505467 -0.08567638 -0.05350571 0.042947136 -0.07704325
-0.073071 0.023932248 0.09243859 0.04160111 0.07379205 0.0039373436 0.084560335 0.058555793
0.03133289 -0.06932932 -0.054976176 0.058930945 0.08598951 -0.087742016 0.09688407 -0.052420933

net.6.bias f4 [64]
00000000: 922e 8e3d 538e babc 54da c8bc 39df 6b3d
00000010: 0d8c 593d d15d 8abd dfdb 823c a75b 063d
00000020: 42a4 5cbc 50ef 4cbb abb7 bc3c 874e 13bd
00000030: 5b89 1b3d 9c7c 723d 5806 0abd a8b5 2a3d
00000040: 90b3 83bd 91ce 9dbd 91cc bdbd 210d 963b
00000050: 84da 8c3c 97b8 8b3c 1cec a23c 35c3 113d
00000060: bed6 793c 76c8 5d3c 7fba 93bc e78d a63d
00000070: 8d1e 5abc bf8d 653d 7645 ec3c 3723 973d
00000080: 8ef0 803c 6021 68bc 0d60 3a3d 7487 83bb
00000090: 7bfa bd3c 3355 e5bb 00ce 85bc cc36 41bd
000000a0: 8458 5bbb 8a73 79bd df19 763d f7ad 6bbd
000000b0: 3585 b5bd fbf6 7a3d f11b 5f3d 29e6 423c
000000c0: f427 903d aaa9 053d e4fb fa3b 2d39 d23c
000000d0: ba27 75bd cc88 76bd 9324 4f3d 9fd0 a63b
000000e0: 9d2b 373d 8551 1abd 7ec7 b8bd fc11 8d3c
000000f0: ca05 b03c 2c57 81bd 67ea 9cbd 3cd9 293b
0.06942476 -0.022772944 -0.02451817 0.05758593 0.05311208 -0.06756175 0.015973983 0.03280225
-0.0134668965 -0.003127057 0.023036798 -0.03596356 0.03797279 0.059200868 -0.033697456 0.041677147
-0.06430733 -0.07705415 -0.092675336 0.004579202 0.01719404 0.017055793 0.019887976 0.035586555
0.015248952 0.013536563 -0.018033264 0.081325345 -0.013312948 0.056043383 0.028841715 0.073797636
0.015739705 -0.0141681135 0.045501757 -0.00401395 0.023190727 -0.006998682 -0.01633358 -0.0471714
-0.0033469507 -0.060901202 0.060083266 -0.057538953 -0.08863298 0.061270695 0.054470006 0.011895695
0.070388705 0.032632507 0.0076594222 0.02566203 -0.05985234 -0.060189053 0.05057199 0.0050907875
0.044719327 -0.0376754 -0.09022425 0.01722049 0.021487135 -0.06315455 -0.07661896 0.0025916835

net.8.weight f4 [64]
00000000: 2edf af3f 6e72 b63f 4534 b13f 2c8f b53f
00000010: 2bce b73f 588d b13f 17e9 993f 3091 a73f
00000020: 2d8a b73f 0435 bd3f cf81 be3f 6d8b b83f
00000030: 4810 b93f 27f7 9a3f a2a6 c23f 9738 b83f
00000040: d9a1 b43f b97f bc3f 0a4f ba3f 0d18 b53f
00000050: cc97 be3f 9ae5 b63f 3bde a83f 226a b03f
00000060: ab94 b33f be58 ac3f e869 bd3f 21c0 bc3f
00000070: d195 c73f f014 bf3f 8ae5 b93f cf63 b23f
00000080: 1e6b bc3f a26a b93f c77e b63f b7d2 be3f
00000090: 8e70 b93f 2311 b93f 7fdd af3f e933 c13f
000000a0: b015 b23f 0fb0 b73f 1da4 a43f 7dc7 b93f
000000b0: d5c4 b73f 3be6 bb3f 6d6b b13f 7420 9b3f
000000c0: 41ac b73f 1fbd b23f 0867 ba3f d209 bb3f
000000d0: e766 bb3f cc37 c13f 5748 ad3f db45 b63f
000000e0: a1f6 ba3f c922 b33f c05f b53f d8b9 af3f
000000f0: fcb5 b13f 8e48 b13f 52ec ba3f 8f1d b23f
1.3739984 1.4253671 1.3844076 1.4184318 1.4359792 1.387126 1.2024258 1.3091183
1.4339043 1.4781804 1.4883364 1.4417549 1.4458094 1.2106675 1.5207102 1.439227
1.4111892 1.4726478 1.4555371 1.4147965 1.4890075 1.4288819 1.3192819 1.3782389
1.4029745 1.3464582 1.4797945 1.4746133 1.5592595 1.4928265 1.4523175 1.3936709
1.472019 1.4485667 1.4257439 1.4908055 1.4487474 1.4458355 1.373947 1.5093967
1.3912868 1.4350604 1.2862583 1.4514004 1.4356943 1.4679636 1.3860909 1.2119279
1.4349443 1.3963965 1.4562693 1.4612372 1.4640778 1.5095153 1.3537701 1.4240068
1.4606515 1.399499 1.4169846 1.372859 1.3883662 1.3850267 1.4603369 1.391527

net.8.bias f4 [64]
00000000: 9bbc c63e f9fe c43e dc0d c9be 8d48 d5be
00000010: 84a6 d5be fe5a bbbe 0e9f b63e 425e b6be
00000020: c608 d4be 4134 d33e cc65 cfbe 57f6 cd3e
00000030: 77e2 debe afc8 a53e 2b88 e0be def9 cc3e
00000040: 308c 91be 34b2 d3be 4905 d23e d12c d6be
00000050: c589 db3e 3d69 cabe d75c d1be 09c4 c3be
00000060: 746e d1be af3f cd3e 3dc8 d6be 2329 d6be
00000070: fc4a d63e f010 df3e f466 d1be a7c0 d4be
00000080: ac64 d7be 92e2 e2be e478 d1be 3a7c ec3e
00000090: 2b3e e7be 2e5c d2be 4a41 b0be 086a d53e
000000a0: d4b8 72be 77f9 c63e 0bd7 bdbe 51ba d93e
000000b0: 1264 da3e 80e0 d7be 6743 c43e 6fdc b33e
000000c0: e006 d6be 57c3 adbe 3758 d83e de0e cebe
000000d0: a46f ccbe 0f36 d8be 8451 a8be ee69 b6be
000000e0: 8d16 ce3e 6ee4 d1be 9417 c83e 3b40 58be
000000f0: 7465 cdbe 8824 b4be 486a d6be 25a2 cbbe
0.3881577 0.3847578 -0.39268386 -0.41656914 -0.41728604 -0.3659286 0.35668224 -0.35618788
-0.41412944 0.41250804 -0.40507352 0.40227005 -0.43532154 0.32379672 -0.43853888 0.40034384
-0.28427267 -0.41346896 0.41019657 -0.41831067 0.42878547 -0.39533415 -0.40891144 -0.382355
-0.40904582 0.4008765 -0.41949645 -0.4182826 0.41854084 0.4356761 -0.4089886 -0.41553232
-0.42068994 -0.44313484 -0.40912545 0.46188527 -0.45164618 -0.41085953 -0.34424812 0.41682458
-0.23703319 0.38862202 -0.37078127 0.4252496 0.42654473 -0.42163467 0.38332674 0.35129115
-0.4180212 -0.33938095 0.42254803 -0.40245718 -0.39928925 -0.42228743 -0.3287469 -0.35627693
0.4025158 -0.4099459 0.3908049 -0.21118252 -0.40116465 -0.3518412 -0.4187796 -0.39772144

net.9.weight f4 [3, 64]
00000000: 5155 e5be 8ab2 f1be ef6d ca3e 98f4 a43e
00000010: c509 b73e 12ba 983e d38b b6be 0ec7 7f3e
00000020: 87c4 de3e 76ef ebbe 7c10 ea3e 99d5 c4be
00000030: bc0a c83e 49ef b5be 4a58 c33e b791 c4be
00000040: 3095 ac3e d265 bb3e 3d5d b7be cbe4 c13e
00000050: e7a0 eebe 2ace bb3e 3bde 8f3e 8500 873e
00000060: b105 c93e ceae bdbe f417 f93e 44ac ef3e
00000070: 5591 59be 57a9 e7be 1afb a83e e9a5 bf3e
00000080: d1a0 ee3e 5d81 ab3e 7a4d d83e d57f bcbe
00000090: 9c37 923e 3786 c63e 0e44 d03e bf38 cabe
000000a0: 8c17 673d da3d e2be 1c46 bd3e b70c d1be
000000b0: dee6 d1be 9f08 c43e 287c dcbe 2b6c b0be
000000c0: 7220 e03e 8154 903e 3db0 e0be 3d1b ca3e
000000d0: 22db e93e 83a7 de3e b30d 7d3e 9024 953e
000000e0: cd41 f4be eb76 c53e c32a a3b8 ca9c a2bd
000000f0: 9458 b73e 42a0 933e 9029 993e cdce ab3e
00000100: 2ae5 b2be 542f d1be 570a de3e aa22 fd3e
00000110: 5453 983e e9cd 9a3e 0f1c c3bd 400f 9e3e
00000120: 32b9 eb3e 1c92 d5be 0b29 fe3e c63a e7be
00000130: 0751 803e 2cd5 f93d eb05 003f 7d76 f0be
00000140: f1a0 6dbe 841b 043f ff9d f7be 9f60 ae3e
00000150: d3ec 83be c9c0 9f3e f2a2 c33e 3299 a73e
00000160: bf32 dc3e 4388 a1be d214 023f 1577 de3e
00000170: 2dba e5be 1b29 e3be ae13 d63e 365e b23e
00000180: 140e bc3e 6fc7 d63e 1b49 103e f515 e4be
00000190: 0674 cc3e e7bc c83e 85bc 20be 7239 ffbe
000001a0: 94dc fc3e 113c cfbe e6dc 543e abd6 eebe
000001b0: a21d d2be 3bb5 c53e cb9f a2be 5c0b 6ebd
000001c0: e34a f93e 72ba c03e 2f38 dfbe 1007 843e
000001d0: 84bc de3e 4f17 b13e 0276 db3e f8f8 cb3e
000001e0: f45d c6be 7fda 903e 2e7b dabe cab9 e03e
000001f0: a8dd d83e 46f0 b83e 974a c33e 33c6 c43e
00000200: ef00 05be 35d7 bcbe a602 eb3e 89b2 883e
00000210: fe16 f63e 4bc6 963e ed20 69be e9b0 e83d
00000220: 22b2 613e 44ee d4be e3e8 fe3e d369 dbbe
00000230: 5ec7 9d3e 83bf 44be 2b97 d93e d840 eabe
00000240: 1e28 ed3e 3e4a f83e 09f3 f7be f551 893e
00000250: aac9 bcbe b815 9a3e d4cf a63e 9932 a13e
00000260: e1e3 a83e b731 8abe 3e8c 8e3e c892 9a3e
00000270: 758a 91be dff3 aabe 97b8 b43e ba57 7c3e
00000280: f25a c43e 69bc cc3e c687 d53e af6e 92bd
00000290: 2ca2 a03e b214 883e 1571 593e f903 08bf
000002a0: dcc0 4fbe 1116 edbe 143a a43e 23b7 b7be
000002b0: 37e5 79be f8bd f73e 0488 d5be 9322 90be
000002c0: a0ef b63e f30b f03e 830b cebe d110 813e
000002d0: d9a7 fa3e 6bfb 033f d432 553e f7c3 b33e
000002e0: e40a 203d c658 db3e 4a59 bdbe 328e bb3e
000002f0: ea55 d43e 328b 8f3e e109 013f d450 d63e
-0.44791654 -0.47206527 0.39536998 0.3221786 0.3574964 0.2982946 -0.35653552 0.24978277
0.43509313 -0.46081132 0.45715702 -0.38444212 0.3907069 -0.35534123 0.38153297 -0.38392422
0.3370757 0.3660112 -0.35813323 0.37869868 -0.46607134 0.36680728 0.28099236 0.26367584
0.39262155 -0.37047428 0.48651087 0.46811116 -0.21246846 -0.45246384 0.33004075 0.37431267
0.46607068 0.33497134 0.4224661 -0.36816278 0.28558052 0.38774273 0.40676922 -0.3949642
0.05641894 -0.44187814 0.36967552 -0.40830013 -0.4099645 0.38287827 -0.43063474 -0.34457526
0.43774754 0.2818947 -0.4388446 0.39473906 0.45674998 0.43487176 0.24712257 0.29129457
-0.47706452 0.3856729 -7.780411e-05 -0.079400614 0.35809767 0.28833205 0.29914522 0.33556214
-0.34940463 -0.4085642 0.43367264 0.4944051 0.29751074 0.30235222 -0.09526836 0.3087101
0.4603973 -0.41713035 0.49640688 -0.45162028 0.2506182 0.121988624 0.5000903 -0.469654
-0.23205926 0.51604486 -0.4836273 0.3405809 -0.2576662 0.3120177 0.38210255 0.32734066
0.43007466 -0.31549272 0.5081302 0.43450227 -0.44868603 -0.44367298 0.4181189 0.34837502
0.3672949 0.4194903 0.14090388 -0.44548002 0.3993227 0.3920662 -0.15696914 -0.49848515
0.49387038 -0.40475515 0.20787391 -0.46648154 -0.41038233 0.3861483 -0.31762537 -0.058116302
0.48689947 0.37642246 -0.43597552 0.25786638 0.435032 0.34588096 0.4286347 0.39838386
-0.38743556 0.282917 -0.42672104 0.43891746 0.4235661 0.36120814 0.38142845 0.38432464
-0.12988637 -0.3688294 0.45900458 0.26698712 0.48064417 0.2944816 -0.22766466 0.11361868
0.22040609 -0.41588032 0.49787053 -0.42854175 0.30816168 -0.19213681 0.42498145 -0.45752597
0.4631967 0.48494142 -0.4842761 0.2682034 -0.36872607 0.30094695 0.32580435 0.31483915
0.32986358 -0.26991054 0.2784137 0.3019011 -0.28425947 -0.33389184 0.3529708 0.2464284
0.38350636 0.39987496 0.4170515 -0.071500175 0.31373727 0.2657829 0.21234544 -0.5313106
-0.20288414 -0.46305898 0.3207556 -0.3588191 -0.24403845 0.48387122 -0.41705334 -0.28151378
0.35729694 0.46884117 -0.40243158 0.25208142 0.48956183 0.5155551 0.2082017 0.35110447
0.039072886 0.42841166 -0.36982185 0.36631924 0.41471797 0.28035885 0.504057 0.41858542

net.9.bias f4 [3]
00000000: 710f 18be 38d9 d3be fcf4 adbe
-0.1484964 -0.41376662 -0.3397597
